surrogate/run/train/routing/saves/train-test2/30min/reservoir/state_dict.pt (torch, 535012 bytes, 8 tensors)

pre_sequence.0.weight f4 [126, 34]
0	0xbd6024a8	-0.054722458
1	0x3cc0485c	0.023472004
2	0x3c5b37a7	0.013379968
3	0xbcb1a8a5	-0.021686861
4	0x3d214ecd	0.03938179
5	0xbd97662b	-0.07392534
6	0x3e08665f	0.13320301
7	0x3dd01bcd	0.101615526
8	0xbe18c5ea	-0.14919248
9	0x3cd47a73	0.025937295
10	0x3d394cfc	0.045239434
11	0xbe2dbe34	-0.16967088
12	0xbdb0685e	-0.086136565
13	0xbda1572f	-0.07877957
14	0x3e140651	0.14455535
15	0x3df68c16	0.12038438
16	0xbdd7ede1	-0.10543419
17	0x3dc0a67c	0.094067544
18	0x3e0980b1	0.13427998
19	0xbd19fd8e	-0.037595324
20	0x3df5c82e	0.12001072
21	0xbd954eba	-0.072904065
22	0x3e2bb00f	0.1676638
23	0x3db1f994	0.086901814
24	0x3dbc0ac7	0.09181743
25	0xbdf7ab80	-0.12093258
26	0x3dba609d	0.09100459
27	0x3b6b302e	0.0035886872
28	0xbdbb93e5	-0.09159068
29	0x3e2f2635	0.17104419
30	0x3e0e60d8	0.1390413
31	0x3b717f78	0.003684966
32	0x3dddae20	0.10824227
33	0x3d60d787	0.054893043
34	0xbe0c1c75	-0.1368273
35	0x3dcbaf46	0.0994554
36	0x3e185d22	0.14879277
37	0xbdbde88a	-0.09272869
38	0x3cc3fcea	0.02392431
39	0xbdec621c	-0.115421504
40	0x3cb0cacb	0.021581074
41	0xbd16f22e	-0.036852054
42	0x3da40458	0.08008641
43	0xbdad2a9c	-0.08455393
44	0xbe27cffb	-0.16387932
45	0xbddbdb88	-0.10735232
46	0xbd3f32a8	-0.04667917
47	0xbd4b8ba0	-0.049693704
48	0xbda4e42e	-0.08051334
49	0xbd98dd73	-0.07464113
50	0x3e00ac6f	0.12565778
51	0x3df0a9e2	0.117511526
52	0x3e29fd1d	0.16600461
53	0xbdfcc359	-0.12341947
54	0xbdaeba88	-0.08531672
55	0xbdf4e996	-0.119586155
56	0xbcdf43c0	-0.027253985
57	0x3e191d27	0.14952527
58	0xbc87d4bc	-0.016580932
59	0xbd627aa7	-0.05529275
60	0x3dd794c8	0.10526425
61	0x3d671273	0.05641408
62	0xbcc0ec31	-0.023550125
63	0xbddc5ecf	-0.10760271
64	0xbd631817	-0.055442896
65	0x3e374370	0.17896819
66	0xbb4d28c6	-0.003130482
67	0x3d559708	0.052145988
68	0xbcfac8f3	-0.030613398
69	0x3dc181ea	0.09448607
70	0x3d40124f	0.04689246
71	0x3ddf9fe3	0.10919168
72	0xbd9827ed	-0.0742949
73	0x3cd9acde	0.026571687
74	0x3df89db2	0.12139453
75	0xbd52c191	-0.05145413
76	0x3d7483a3	0.05969585
77	0xbc78f94d	-0.015196157
78	0xbe2ecc9a	-0.17070237
79	0x3d7ab20b	0.06120495
80	0x3d5dbbdd	0.05413424
81	0x3db54b51	0.08852256
82	0xbe296c0a	-0.1654512
83	0x3e0756a1	0.1321664
84	0xbdfc035f	-0.123053305
85	0xbd3bbdcb	-0.045835298
86	0x3dde38db	0.10850688
87	0x3d050169	0.032472048
88	0xbe14bcc1	-0.14525129
89	0xbd848d93	-0.06472316
90	0x3d90431b	0.07044049
91	0x3de4c112	0.11169638
92	0xbd87bb5a	-0.06627531
93	0xbd077ae9	-0.0330762
94	0xbdd1d98d	-0.10246573
95	0xbe199b8f	-0.15000747
96	0xbc734ab5	-0.0148493545
97	0xbdecc832	-0.11561622
98	0xbe1247b1	-0.1428516
99	0xbdb14c34	-0.08657113
100	0x3ded2d9a	0.115809634
101	0x3d02892e	0.031869106
102	0xbe1b111e	-0.15143248
103	0xbd890c1b	-0.06691762
104	0xbdb4beac	-0.0882543
105	0x3d27b25d	0.040941585
106	0xbe1ddb42	-0.15415671
107	0x3e1017aa	0.14071527
108	0x3d6ccf17	0.057814684
109	0x3d6b120f	0.05739027
110	0x3c9480b8	0.018127784
111	0x3e11c4f5	0.1423529
112	0x3d9a7d69	0.07543451
113	0x3da191c2	0.07889129
114	0xbdf4bd9a	-0.11950226
115	0x3e17ac64	0.14811856
116	0x3dcf998f	0.10136711
117	0x3c0fba13	0.008772391
118	0x3dc0d9a4	0.09416512
119	0xbe390d72	-0.18071535
120	0xbd67b32d	-0.05656736
121	0xbe276cea	-0.16350141
122	0xbc76489e	-0.015031962
123	0x3d66be0f	0.056333598
124	0x3de66d46	0.11251311
125	0x3e07dc6f	0.13267682
126	0x3d2015c2	0.03908325
127	0x3dffafa9	0.124846764
128	0x3e1adb88	0.15122807
129	0xbc9d696b	-0.019215306
130	0xbd48cfa4	-0.049026147
131	0x3d8649fa	0.06557079
132	0xbd539e2a	-0.05166451
133	0x3d5d2aa4	0.053995743
134	0xbe020b20	-0.12699556
135	0xbba51f4a	-0.0050391303
136	0x3d3074b8	0.04308006
137	0x3dbfab7e	0.093588814
138	0xbd1e4010	-0.038635314
139	0x3e3f4216	0.18677554
140	0xbdabf9cb	-0.083972536
141	0x3cd58327	0.026063515
142	0x3bf3b4a3	0.007437305
143	0xbdbf2e54	-0.09335008
144	0x3b8a8051	0.0042267223
145	0xbe0a26b3	-0.13491325
146	0x3e02e1e9	0.1278149
147	0xbcfb063e	-0.030642625
148	0xbdd73d88	-0.10509783
149	0x3daaf24e	0.08346997
150	0xbe303f84	-0.1721173
151	0xbd81a7da	-0.06330843
152	0x3dbb05c8	0.09131962
153	0x3d788e22	0.060682423
154	0x3dd78fa2	0.10525443
155	0xbe0b7a9e	-0.13620993
156	0x3dc92a13	0.09822478
157	0xbd374b68	-0.044749647
158	0xbd9d15cb	-0.07670172
159	0xbd906059	-0.07049627
160	0xbdcd148b	-0.10013684
161	0xbb774dd5	-0.00377356
162	0x3da97d0e	0.082758054
163	0xbd8bfbc0	-0.06835127
164	0x3e0cb6d4	0.13741618
165	0x3d888110	0.06665242
166	0x3ce3a5f9	0.027789103
167	0xbcc3c988	-0.023899809
168	0xbe2bf387	-0.16792117
169	0xbc9baa6f	-0.019002168
170	0xbd83c72e	-0.06434475
171	0xbe030e65	-0.1279846
172	0xbe17ce6d	-0.14824839
173	0x3ad9f3c2	0.0016628432
174	0x3d61d945	0.055138845
175	0xbd106739	-0.03525469
176	0xbd05a6ef	-0.032629903
177	0x3be72832	0.007054352
178	0xbe062576	-0.13100228
179	0x3e292ab8	0.16520202
180	0x3e07f014	0.13275176
181	0x3e29c70d	0.16579838
182	0xbe1132c0	-0.14179516
183	0x3e24a362	0.1607795
184	0x3df3e92f	0.119097106
185	0xbd85650d	-0.065134145
186	0xbdd0f229	-0.102024384
187	0xbd5552bd	-0.05208086
188	0x3e1fc6ce	0.15603182
189	0xbe08d2ad	-0.13361616
190	0x3d00ed57	0.031476345
191	0xbd74d944	-0.059777513
192	0x3e2af765	0.16695936
193	0xbe1dce82	-0.15410808
194	0xbcdc0749	-0.026858943
195	0x3d26ae9c	0.040693864
196	0x39d7c390	0.000411537
197	0x3d4ece95	0.05048998
198	0xbdb3dc10	-0.08782208
199	0x3e307f1b	0.17235987
200	0x3ccf93be	0.025339004
201	0x3d7265e4	0.0591792
202	0x3e3dc417	0.18531834
203	0xbdfeb984	-0.12437728
204	0x3d6f4453	0.05841477
205	0xbd33ba69	-0.043878946
206	0x3bb4d1c7	0.0055181715
207	0x3e29346f	0.16523908
208	0x3dcb1785	0.09916595
209	0x3d947d06	0.07250409
210	0x3d220308	0.039553672
211	0xbdd0b475	-0.101906694
212	0xbdebf1dc	-0.115207404
213	0xbd947904	-0.072496444
214	0x3d9547d0	0.07289088
215	0x3da1b2f8	0.07895464
216	0xbb8d0e54	-0.0043046866
217	0xbe1e0f2d	-0.15435477
218	0x3d0387ac	0.03211181
219	0x3d314c2e	0.04328554
220	0xbdcb9505	-0.099405326
221	0xbd5ff35a	-0.054675438
222	0x3e0296e9	0.1275288
223	0xbd929782	-0.07157804
224	0x3d0a9189	0.0338302
225	0x3c0f7fdb	0.00875851
226	0x3c5ff2c4	0.01366872
227	0x3e0af334	0.13569337
228	0x3e126fd4	0.14300472
229	0xbe2a0d97	-0.16606747
230	0x3cceb096	0.025230687
231	0xbb5fbe4e	-0.003414053
232	0x3e11fbdb	0.14256231
233	0x3e1c192d	0.15243979
234	0xbe22d1e9	-0.15900387
235	0x3e043648	0.12911332
236	0xbdb63162	-0.08896138
237	0xbd8d3de6	-0.06896572
238	0xbc00be7f	-0.007857918
239	0xbc494c72	-0.012286292
240	0x3dfa8cf0	0.12233913
241	0xbd3078d8	-0.043083996
242	0xbde7f5a4	-0.11326149
243	0xbc0d4ad3	-0.0086237965
244	0xbe069a0a	-0.13144699
245	0x3d6fb480	0.058521748
246	0x3d7345ab	0.059392612
247	0x3dd75663	0.10514524
248	0xbd6f0a81	-0.058359627
249	0x3e121fac	0.14269894
250	0xbe3c5a1a	-0.18393746
251	0x3e1afa43	0.1513453
252	0xbd8687af	-0.06568848
253	0xbc098f5e	-0.008395998
254	0xbd779cfb	-0.060452443
255	0x3dc2b3bb	0.09506937

pre_sequence.0.bias f4 [126]
0	0x3dedd830	0.116135
1	0x3e1efa47	0.1552516
2	0x3dda1641	0.10648776
3	0xbdb64980	-0.08900738
4	0x3ced0bc6	0.028936278
5	0x3e2d4bde	0.16923472
6	0xbd8c4e3e	-0.06850861
7	0x3dfe2c9d	0.12410853
8	0x3e005c51	0.12535216
9	0x3d58e5cb	0.052953523
10	0x3d57b957	0.05266699
11	0x3e1bc82f	0.15213083
12	0x3d678e3c	0.05653213
13	0x3dac9af5	0.08427993
14	0x3d5c38ed	0.053765226
15	0x3d99d701	0.07511712
16	0xbda338c6	-0.07969813
17	0xbe185d1c	-0.14879268
18	0x3e26f960	0.16306067
19	0x3e116d11	0.14201762
20	0xbd76087b	-0.06006668
21	0x3d622bb3	0.055217456
22	0x3d288170	0.041139066
23	0x3dbea4e5	0.09308795
24	0x3e03c88d	0.12869473
25	0x3e01e933	0.12686615
26	0xbbf82484	-0.0075727124
27	0xbdb2f8a9	-0.087388344
28	0xbe2390ee	-0.15973255
29	0x3dd55454	0.10416475
30	0x3dcc7931	0.09984053
31	0xbd4af80b	-0.04955296
32	0xbd93a5bd	-0.072093464
33	0xbd02c739	-0.031928275
34	0xbda9e7c8	-0.08296162
35	0x3d05c27e	0.032656185
36	0x3b76f37f	0.0037681756
37	0x3c9830e7	0.018578006
38	0xbcdc4cc8	-0.02689208
39	0xbe045bb3	-0.12925605
40	0x3dcc8308	0.0998593
41	0x3daf5f44	0.08563092
42	0x3dd6578f	0.10465919
43	0xbca7bf11	-0.02047685
44	0xbd973daf	-0.07384812
45	0x3dfed4a0	0.12442899
46	0xbda0094b	-0.078142725
47	0xbdb037e2	-0.08604409
48	0x3e1e9ae0	0.15488768
49	0xbdb40d14	-0.08791557
50	0x3dc6c81f	0.09706139
51	0x3db8b9eb	0.09019836
52	0xbe293de4	-0.16527516
53	0x3c79f425	0.0152559625
54	0xbc68520c	-0.014179718
55	0x3d1228be	0.035683386
56	0xbe176fe0	-0.1478877
57	0x3cddf646	0.027094971
58	0xbe333671	-0.17501236
59	0xbd8c8750	-0.06861746
60	0xbe1b2673	-0.15151386
61	0xbd432df9	-0.047651265
62	0xbe3177d2	-0.17330864
63	0x3b9b5538	0.0047403835
64	0x3d3560d8	0.04428181
65	0x3dcdcce1	0.10048843
66	0x3e0f4ce4	0.13994175
67	0x3d5c677f	0.05380964
68	0x3e0ee40f	0.13954185
69	0xbd74421b	-0.059633356
70	0x3dd65004	0.104644805
71	0xbe0efc8b	-0.13963525
72	0x3dc44fcd	0.09585533
73	0x3e0ed51d	0.13948484
74	0x3e2b99e0	0.16757917
75	0xbd4a599e	-0.04940187
76	0xbcbaf92f	-0.022823898
77	0xbd00eed3	-0.03147776
78	0x3daca4f5	0.084299006
79	0xbe090331	-0.13380124
80	0xb9096e7a	-0.00013106494
81	0xbd658a9a	-0.056040384
82	0x3cf05083	0.029335266
83	0xbe351f0f	-0.17687629
84	0xbe1a1fa3	-0.15051131
85	0xbe1fff24	-0.15624672
86	0xbc914171	-0.0177314
87	0xbc9f9c69	-0.019483762
88	0xbe273455	-0.16328557
89	0x3e131cf8	0.1436652
90	0xbe198408	-0.14991772
91	0x3e03da41	0.12876226
92	0x3dfe62c1	0.124211796
93	0xbce47012	-0.02788547
94	0xbe036a1d	-0.12833448
95	0xbd72c745	-0.05927207
96	0xbd9db3eb	-0.07700332
97	0xbd123b71	-0.03570122
98	0x3dd699a5	0.10478524
99	0xbc9b8a83	-0.018986946
100	0xbde2ff2a	-0.11083825
101	0xbe0c5c3d	-0.13707061
102	0xbddd8f28	-0.108183205
103	0xbe1833ad	-0.14863463
104	0xbde1de48	-0.11028725
105	0xbe34e511	-0.17665507
106	0xbdd81326	-0.10550527
107	0x3db89711	0.09013189
108	0xbe1497f8	-0.14511096
109	0x3d82b2c7	0.06381755
110	0x3dba15e3	0.09086206
111	0x3e238b0f	0.15971015
112	0xbe1756c3	-0.1477919
113	0xbab130fb	-0.0013518626
114	0xbd306063	-0.04306067
115	0xbd5468bc	-0.051857695
116	0x3d7a24c5	0.061070222
117	0x3d9ad671	0.07560433
118	0x3d80c02a	0.062866524
119	0x3dab4d65	0.08364371
120	0x3e0c10e8	0.13678324
121	0x3e1034da	0.14082661
122	0x3db72ffa	0.08944698
123	0xbdb42476	-0.08796017
124	0x3e1d4f4e	0.15362284
125	0x3dbbc464	0.09168318

post_sequence.1.weight f4 [4, 126]
0	0xbd34d321	-0.04414666
1	0x3da2f1f6	0.07956307
2	0x3d61875a	0.055060722
3	0x3c3b0b9a	0.01141634
4	0xbd0c19cf	-0.0342043
5	0x3d889851	0.06669677
6	0xbcce08b5	-0.025150636
7	0xbd2a8e00	-0.041639328
8	0x3ce3ce7d	0.027808422
9	0xba0c372e	-0.00053487986
10	0xbd8e38fd	-0.069444634
11	0xbc246ca9	-0.010035672
12	0x3d19c35d	0.03753983
13	0x3cbbc237	0.022919757
14	0xbd868a38	-0.06569332
15	0xbd9cc856	-0.076553985
16	0x3d18ffe6	0.03735342
17	0x3c9bc3b8	0.019014224
18	0x3d37676a	0.044776358
19	0x3d492c8b	0.049114745
20	0xbd8a1d7a	-0.067439035
21	0x3d24972e	0.04018324
22	0x3d9f9900	0.07792854
23	0x3d122183	0.03567649
24	0xbcc2a5a1	-0.023760619
25	0xbd6228ff	-0.05521488
26	0x3d40aa02	0.047037132
27	0x3d8bfc44	0.06835225
28	0xbcabbcdf	-0.020964084
29	0x3d84e797	0.06489485
30	0x3d74a114	0.05972393
31	0xbdbdb545	-0.0926309
32	0x3d060e87	0.032728698
33	0xbd8725db	-0.06599017
34	0xbd70d81a	-0.05879984
35	0x3d4a7625	0.049429078
36	0x3dc27a76	0.09496014
37	0x3d47b716	0.04875859
38	0x3d5127ed	0.051063467
39	0x3d54951a	0.051900007
40	0x3d0da36c	0.03457968
41	0xbdc5247c	-0.096260995
42	0x3d1bb064	0.038010016
43	0x3cfcbdc0	0.030852199
44	0xbc92f669	-0.017939763
45	0x3d17f8ae	0.037102394
46	0xbd6271f4	-0.055284455
47	0x3d55622c	0.052095577
48	0x3d18d193	0.03730924
49	0xbdafaab1	-0.08577479
50	0x3ce1a4db	0.02754443
51	0x3d81c874	0.063370615
52	0xbd9f96c7	-0.0779243
53	0xbc1726ee	-0.00922559
54	0x3b2a84dc	0.0026019132
55	0x3d389b55	0.04507001
56	0x3d08b80c	0.033378646
57	0xbb8c9e2e	-0.0042913174
58	0x3c0c45dd	0.008561579
59	0xbd2b1a4a	-0.041773118
60	0x3daf206d	0.085511066
61	0xbd8e6622	-0.06953074
62	0xbd3fafb8	-0.046798438
63	0xbcf08e09	-0.029364603
64	0xbc909128	-0.01764734
65	0xbdc5568d	-0.09635649
66	0xbd96a8e1	-0.0735643
67	0xbda14017	-0.07873552
68	0x3dbd61b1	0.09247149
69	0xbdcceaed	-0.10005746
70	0xbcc2abb1	-0.02376351
71	0x3d7907b1	0.06079835
72	0x3c17e294	0.009270329
73	0x3cf60bf7	0.030035002
74	0x3d7b6c7d	0.06138276
75	0x3db10b35	0.08644716
76	0xbd8cf537	-0.068827085
77	0xbd53e425	-0.051731247
78	0xbd99f956	-0.0751826
79	0xbd47157f	-0.048604485
80	0xbcfb73ee	-0.030694928
81	0x3d287560	0.041127563
82	0xbd2d04c3	-0.04224087
83	0xbc3357a3	-0.010946187
84	0x3cb2fe50	0.021849781
85	0x3d35e54b	0.044408124
86	0xbc15ab39	-0.009135061
87	0x3d70e4f7	0.058812108
88	0xbcb8867c	-0.022525065
89	0xbdcfc1d1	-0.101443894
90	0x3bda4026	0.006660479
91	0xbd721cf0	-0.05910963
92	0xbd0cc877	-0.034370866
93	0x3d1f752a	0.038930096
94	0xbd93743a	-0.07199903
95	0xbc99f026	-0.01879127
96	0x3dca4509	0.09876449
97	0x3d3fb58a	0.04680399
98	0xbcb234f9	-0.021753775
99	0xbd87abae	-0.06624542
100	0xbd9bd3d7	-0.076087646
101	0x3d9521df	0.07281851
102	0xbc75d03d	-0.015003261
103	0xbd2ed5af	-0.042684253
104	0xbdcd9370	-0.10037887
105	0xbdafac83	-0.08577826
106	0xbd56f137	-0.052476134
107	0x3d82bde3	0.06383874
108	0xbd00e279	-0.03146598
109	0x3d3a599b	0.04549561
110	0x3d57f7a8	0.052726418
111	0xbcecf783	-0.028926617
112	0x3a919128	0.0011105882
113	0x3b6dbae7	0.0036274733
114	0x3be62264	0.0070231427
115	0x3d9d5dfe	0.07683943
116	0x3d3fb8f7	0.046807256
117	0xbdbcc0cc	-0.092164606
118	0x3cbad407	0.02280618
119	0xbc3db03a	-0.01157766
120	0x3d6943da	0.056949474
121	0xbcb20acd	-0.021733666
122	0xbdaa4805	-0.08314518
123	0xbd62c1c8	-0.055360585
124	0xbdc5b84e	-0.09654294
125	0x3cdd415f	0.02700871
126	0xbdad3bb4	-0.08458653
127	0x3d30fad2	0.04320795
128	0xbd467d6b	-0.04845945
129	0x3d9e56d2	0.077314034
130	0xbda1ed16	-0.07906549
131	0x3d9bfcbb	0.07616564
132	0xbd9889d7	-0.07448166
133	0x3d0d76e1	0.0345372
134	0xbd2ffe08	-0.042966872
135	0x3d682114	0.05667217
136	0x3c9a4ed2	0.018836413
137	0xbd6c58b0	-0.057701766
138	0x3d439428	0.047748715
139	0xbc799ecb	-0.015235613
140	0x3cc9c0a0	0.024627984
141	0xbd41feed	-0.047362257
142	0x3da09c78	0.07842344
143	0xbd44d8ed	-0.04805844
144	0x3d96ffda	0.073730186
145	0x3c0ec616	0.00871422
146	0xbd1f4cf4	-0.038891748
147	0x3d298cb8	0.041393965
148	0x3da9c4c1	0.08289481
149	0xbb33180e	-0.002732757
150	0x3d99aa80	0.075032234
151	0xbd7553cf	-0.05989438
152	0x3d56af13	0.052413058
153	0x3d52a131	0.051423255
154	0xbda16611	-0.07880796
155	0x3d5fee33	0.054670524
156	0x3d8ece8d	0.0697299
157	0xbd189eaa	-0.03726069
158	0xbba9aa39	-0.005177763
159	0x3d504d97	0.050855245
160	0xbd9e2c8f	-0.077233426
161	0x3d0f31ce	0.034959607
162	0x3d4764e0	0.048680186
163	0x3d5aad2f	0.053387817
164	0xbd408ab0	-0.047007263
165	0x3dbc9a46	0.09209113
166	0x3da78f4b	0.08181628
167	0xbdc11814	-0.09428421
168	0x3cd68513	0.026186502
169	0xbcd194dd	-0.025583679
170	0xbc3bdc14	-0.011466045
171	0x3da63a35	0.08116571
172	0x3aa0e9bd	0.0012276691
173	0xbbe48ac1	-0.0069745486
174	0x3d81168e	0.0630313
175	0x3c84022d	0.016114319
176	0xbd97bb15	-0.0740873
177	0xbd01a995	-0.031655867
178	0xbd26c9fa	-0.040719964
179	0xbd91bc97	-0.07116049
180	0x3d9e3262	0.077244535
181	0x3d9709c2	0.07374908
182	0x3dad7ca0	0.08471036
183	0x3da6d149	0.08145387
184	0x3d7d180f	0.061790522
185	0xbd7bd427	-0.06148162
186	0x3ca397f9	0.019969927
187	0xbcce2e1c	-0.025168471
188	0xbc0b00db	-0.008484091
189	0xbd56cdf1	-0.052442495
190	0xbd8414d1	-0.06449283
191	0xbdcecf23	-0.10098102
192	0xbcfefdf6	-0.031126957
193	0xbc9f32f8	-0.019433483
194	0x3dab558e	0.08365928
195	0xbdcbfd99	-0.09960479
196	0x3ca5fda6	0.02026255
197	0x3d95b5fc	0.073101014
198	0xbd5cf24a	-0.053942002
199	0xbd55c799	-0.052192304
200	0xbca81bc2	-0.020521048
201	0xbd05a4c5	-0.03262784
202	0xbd9bf70d	-0.076154806
203	0xbd93ab66	-0.07210426
204	0xbd8d65f9	-0.06904215
205	0xbdb15811	-0.086593755
206	0x3cc0f0e1	0.02355236
207	0x3d45c8b7	0.04828712
208	0x3d80fc15	0.06298081
209	0x3c53b46f	0.012921437
210	0xbcfbb2c8	-0.030724898
211	0x3d8db317	0.06918924
212	0x3bc599ab	0.0060302815
213	0xbd5f91e9	-0.05458251
214	0x3d8a822b	0.06763109
215	0x3d1cd3f4	0.03828807
216	0xbd966249	-0.07342965
217	0xbccfc300	-0.025361538
218	0xbcfcb2b4	-0.030846931
219	0x3dbb2fce	0.091399774
220	0x3b87e47d	0.004147111
221	0x3d93e113	0.07220664
222	0x3d86aebe	0.06576298
223	0x3d7ab0a3	0.06120361
224	0x3ca6a2b0	0.020341247
225	0xbcecd304	-0.028909214
226	0xbd9c9a6d	-0.07646642
227	0xb9f4e7d7	-0.0004671204
228	0xbd8f407e	-0.06994723
229	0x3d828953	0.06373849
230	0xbb6567e0	-0.0035004541
231	0xbcc484a1	-0.023989024
232	0xbd90609f	-0.07049679
233	0x3b82689f	0.003979757
234	0xbda7852a	-0.08179696
235	0x3d76742f	0.060169395
236	0x3c761e1e	0.015021829
237	0xbd400aee	-0.046885423
238	0x3d66bd84	0.05633308
239	0xbda8bf21	-0.0823958
240	0xbd9400f0	-0.07226741
241	0x3d07752e	0.033070736
242	0xbc83020e	-0.01599219
243	0xbdcd6750	-0.10029471
244	0x3d619e15	0.0550824
245	0xbcd9e10b	-0.026596567
246	0x3d23a776	0.039954625
247	0x3b206908	0.0024476666
248	0xbcc47bd3	-0.023984825
249	0xbd576703	-0.052588474
250	0x3cb6b839	0.022304641
251	0x3d4d4919	0.05011854
252	0xbd523b34	-0.05132599
253	0x3dde8fed	0.108672954
254	0x3c9f210a	0.019424934
255	0x3dd18a1f	0.10231423

post_sequence.1.bias f4 [4]
0	0xbcf9eaa2	-0.03050739
1	0x3c9998c2	0.018749598
2	0x3d11be8e	0.035582118
3	0xbd0a1dd5	-0.033719856

lstm.weight_ih_l0 f4 [504, 126]
0	0xbc94def5	-0.01817272
1	0xbd837e99	-0.06420631
2	0xbc04a69f	-0.008096366
3	0x3d95705a	0.0729682
4	0x3cb5f93a	0.022213567
5	0xbdaf770c	-0.08567628
6	0x3d2f17fb	0.04274748
7	0xbda43399	-0.08017654
8	0x3c930894	0.017948426
9	0x3d9b6fcf	0.07589685
10	0xbd59edc0	-0.05320525
11	0xbc4f6f9d	-0.012660888
12	0xbaee44c9	-0.0018178459
13	0xbcac0a27	-0.021000935
14	0x3db8532e	0.0900024
15	0x3d8828aa	0.06648381
16	0xbd80fc36	-0.062981054
17	0x3da4d6c7	0.08048778
18	0xbd834d8e	-0.06411277
19	0xbd53ffdb	-0.051757675
20	0xbd9fe219	-0.078067966
21	0xbca62d8a	-0.020285387
22	0x3d99b644	0.075054675
23	0xbd57ae44	-0.052656427
24	0x3d204696	0.039129816
25	0x3d199798	0.037498087
26	0xbc7077de	-0.014677016
27	0xbc740513	-0.014893788
28	0x3da37d56	0.0798289
29	0xbd63a21b	-0.055574518
30	0x3b8eb688	0.0043552555
31	0xbbeacfa8	-0.007165868
32	0x3d56847f	0.052372452
33	0x3d25df60	0.04049623
34	0x3d393313	0.045214724
35	0xbd930c51	-0.071800835
36	0x3cc79fa4	0.024368115
37	0xbd96237e	-0.07330988
38	0xbd44899b	-0.047982793
39	0xbcbac64e	-0.022799637
40	0xbda84156	-0.08215587
41	0x3d712a47	0.05887821
42	0x3d72324f	0.05913001
43	0x3af9bb0a	0.0019052934
44	0x3d5ac87e	0.05341386
45	0xbdaf89a7	-0.08571177
46	0x3ad45068	0.0016198279
47	0xbd95b70c	-0.07310304
48	0xbd91410c	-0.07092485
49	0x3d9e1bea	0.07720168
50	0xbdab3cc6	-0.08361201
51	0xbda7745c	-0.08176491
52	0xbdac9b9b	-0.08428117
53	0x3a40256c	0.0007329795
54	0x3c3ee5ba	0.011651451
55	0x3d96c8b2	0.07362498
56	0x3cdbc4b8	0.026827201
57	0xbd8f8bcd	-0.07009087
58	0x3d5c5042	0.053787477
59	0xbc1f2bd5	-0.00971504
60	0x3d63f077	0.055649247
61	0x3cae3383	0.021264797
62	0x3d2e6f19	0.04258642
63	0x3d8151a9	0.063144036
64	0xbd6151c0	-0.055009604
65	0xbd238f68	-0.039931685
66	0xbd2a7a4e	-0.041620545
67	0xbd9e7763	-0.07737615
68	0x3c2e7f73	0.010650503
69	0xbd200fcf	-0.039077576
70	0xbcca995c	-0.02473133
71	0xbdd903b8	-0.105964124
72	0xbd60755a	-0.054799415
73	0x3d35e8de	0.044411533
74	0x3d859d76	0.06524174
75	0x3d281584	0.041036144
76	0x3d83adc8	0.064296305
77	0x3c488fde	0.012241332
78	0xbd2a5c6e	-0.041592054
79	0xbd5cf75c	-0.053946838
80	0x3d489c31	0.04897708
81	0xbcaf8e1d	-0.02143007
82	0xbdbb073e	-0.09132241
83	0xbc0ba1ea	-0.00852249
84	0x3dbc8781	0.09205533
85	0x3cada10b	0.021194955
86	0xbd3e52f5	-0.046465833
87	0xbd614ceb	-0.055004995
88	0x3c9343a4	0.01797659
89	0x3c263523	0.010144505
90	0x3d4137bd	0.047172297
91	0x3d7d0c00	0.061779022
92	0x3d8509f6	0.064960405
93	0xbd8d93f2	-0.06912984
94	0xbda570b7	-0.08078139
95	0x3cbb11ba	0.022835601
96	0x3c7c0dfe	0.015384195
97	0xbd88b13b	-0.06674429
98	0xbd4eb554	-0.050465897
99	0x3cbec37e	0.023286577
100	0x3d2ee9f8	0.0427036
101	0xbd27dab7	-0.040980067
102	0xbd9ecb4b	-0.07753619
103	0x3d17d1d9	0.03706536
104	0xbceb038b	-0.028688213
105	0x3d899a92	0.06718935
106	0x3c54b68d	0.012982977
107	0x3d462e13	0.048383784
108	0x3d9d012c	0.07666239
109	0xbcb9c30b	-0.022676012
110	0xbcd40b53	-0.025884306
111	0xbcd17f83	-0.025573498
112	0xbc553acf	-0.013014509
113	0x3d86079d	0.06544421
114	0x3daa9185	0.08328537
115	0x3d022860	0.031776786
116	0xbdae1cb7	-0.08501571
117	0x3c6dc5bb	0.014512475
118	0xbd1201c0	-0.0356462
119	0x3da01e8a	0.07818325
120	0x3d93559d	0.07194064
121	0x3d54b1ac	0.051927254
122	0x3d52b44a	0.05144147
123	0xbd6a0736	-0.057135783
124	0x3d9a713b	0.07541128
125	0x3d8361b4	0.0641512
126	0xbcb4f5fe	-0.022089954
127	0xbc90c7c4	-0.01767338
128	0x3d73ab98	0.059489816
129	0xbdc0695f	-0.09395098
130	0x3d8fa6b0	0.07014215
131	0x3d2afcbe	0.04174494
132	0xbd428c61	-0.047497157
133	0xbd9b8c42	-0.075951114
134	0xbdbdb936	-0.09263842
135	0x3d3ed580	0.04659033
136	0x3bc5c20b	0.0060350946
137	0xbd8a2797	-0.067458324
138	0x3c90925f	0.01764792
139	0xbcacb904	-0.021084316
140	0xbd2bdf03	-0.041960727
141	0x3d8af11b	0.067842685
142	0x3cebf06f	0.028801171
143	0xbcaca1ea	-0.0210733
144	0xbc8b20ff	-0.016983507
145	0x3d335ce4	0.04378976
146	0x3bab36fd	0.005225061
147	0xbd5ac759	-0.05341277
148	0x3d3490b3	0.04408331
149	0x3d2b37cd	0.041801263
150	0x3b82d1b4	0.0039922837
151	0xbd7503db	-0.05981813
152	0xbcfd9031	-0.030952545
153	0x3b97ee43	0.0046365573
154	0x3d49500c	0.049148604
155	0xbd1dc0b9	-0.038513873
156	0xbc8120eb	-0.015762767
157	0xbdb17c89	-0.08666331
158	0x3d77c005	0.06048586
159	0x3d521da5	0.051297802
160	0x3cc184d1	0.023622902
161	0xbd2e4fce	-0.042556576
162	0x3d21999b	0.03945313
163	0xbbfe22f1	-0.00775563
164	0xbd06f4d5	-0.032948334
165	0x3cf41fbf	0.029800294
166	0xbda98cd4	-0.08278814
167	0xbd953454	-0.072853714
168	0x3ce39ae8	0.027783826
169	0x3b340b11	0.0027472416
170	0xbc65209d	-0.013984826
171	0xbcc05c97	-0.02348165
172	0x3dabd6ff	0.083906166
173	0xbc3fe892	-0.011713164
174	0xbcf4cf19	-0.029883908
175	0xbc6d3388	-0.014477618
176	0xbdbb5962	-0.09147908
177	0x3c14bb54	0.009077866
178	0xbbeab8a4	-0.007163124
179	0x3da883cc	0.08228263
180	0x3d879a89	0.06621272
181	0xbce49708	-0.027904049
182	0x3d6e2184	0.05813743
183	0xbd094127	-0.0335094
184	0x3d0b8e9d	0.034071553
185	0x3d4a2138	0.049348086
186	0xbc4fd3a4	-0.012684736
187	0x3d8a2ebb	0.067471944
188	0x3ba48084	0.005020203
189	0xbd7972d5	-0.060900528
190	0xbdd83a3c	-0.10557982
191	0x3d6802e1	0.05664337
192	0xbd35205b	-0.04422031
193	0xbda2e16e	-0.079531536
194	0xbdbb06cf	-0.09132158
195	0x3bfe9928	0.0077697225
196	0xbc002696	-0.0078217
197	0xbdbfd872	-0.093674555
198	0xba1dc7a1	-0.0006018822
199	0x3d9075ac	0.07053694
200	0x3d369063	0.04457129
201	0xbd2e6d26	-0.04258456
202	0x3d92c851	0.071671136
203	0xbc7e82ee	-0.015534146
204	0xbbc03658	-0.0058658533
205	0x3c9f374c	0.019435547
206	0x3d62a900	0.055336952
207	0xbd137013	-0.035995554
208	0x3bd3e617	0.006466638
209	0x3cefc955	0.029270807
210	0x3cd9fae8	0.0266089
211	0x3cd717c2	0.026256446
212	0xbca03cf8	-0.019560322
213	0x3da727e3	0.08161905
214	0xbd408e1c	-0.047010526
215	0x3d8675a3	0.06565406
216	0x3d8418b8	0.06450027
217	0xbd9944fa	-0.07483859
218	0x3d60d7d6	0.054893337
219	0xbd7d89ce	-0.061899
220	0x3ce1b8cb	0.027553936
221	0x3b285ecd	0.0025691271
222	0xbdae00db	-0.08496257
223	0xbd0d63b7	-0.034518924
224	0x3c161a8e	0.009161605
225	0x3d89f7b2	0.06736697
226	0xbcbc3897	-0.022976203
227	0xbdae05cc	-0.084971994
228	0xbd60137c	-0.05470608
229	0xbb8f2b6c	-0.00436919
230	0xbd8b7bdb	-0.06810733
231	0xbb79ed00	-0.0038135648
232	0xbda4e6eb	-0.080518566
233	0xbc86233d	-0.016374225
234	0xbd5443e9	-0.051822577
235	0xbb86a013	-0.004108438
236	0x3dc449a5	0.09584359
237	0xbdb7053e	-0.08936547
238	0x3ce16e0e	0.027518298
239	0x3daa50e6	0.083162114
240	0x3c251186	0.010074979
241	0xbd8d572d	-0.06901393
242	0x3bba449b	0.005684448
243	0xbda79af7	-0.08183854
244	0x3d8bc0ce	0.06823884
245	0xbd7dd80f	-0.061973628
246	0xbd8c5b26	-0.06853323
247	0x3d74e12c	0.059785053
248	0xbd3c2d7a	-0.045941807
249	0x3cdcf267	0.026971055
250	0x3d8d1bdc	0.068900794
251	0xbdae2169	-0.08502466
252	0x3db1b254	0.086765915
253	0x3c370baa	0.0111722145
254	0x3d17ae52	0.03703148
255	0xbd0f8c78	-0.03504607

lstm.weight_hh_l0 f4 [504, 126]
0	0x3d25ece8	0.040509135
1	0x3cca095f	0.024662672
2	0x3ceadf4f	0.028670935
3	0xbd644886	-0.055733226
4	0xbd8e76b2	-0.06956233
5	0xbc460103	-0.012085202
6	0x3dc278ea	0.09495719
7	0x3da428fb	0.08015629
8	0x3dae99b2	0.08525409
9	0xbc04e3d3	-0.008110958
10	0x3a21da5a	0.00061741995
11	0xbd2afcbe	-0.04174494
12	0xbc9303ac	-0.017946087
13	0xbd34ac77	-0.044109788
14	0xbd72696d	-0.059182573
15	0xbda400d3	-0.0800797
16	0x3d8c8d35	0.068628706
17	0xbda9f476	-0.0829858
18	0x3d0ae7ed	0.033912588
19	0x3d38f8fc	0.045159325
20	0xbd331475	-0.04372068
21	0x3c7140af	0.014724894
22	0x3bda1611	0.0066554626
23	0xbd892b0f	-0.06697666
24	0xbc825e47	-0.015914096
25	0x3d4cbefd	0.049986828
26	0xbd65af4b	-0.056075376
27	0xbda4ad0a	-0.08040817
28	0x3da131d7	0.07870834
29	0xbd90414b	-0.07043704
30	0x3c6cc395	0.014450927
31	0x3d9f2b95	0.077719845
32	0xbd166867	-0.03672066
33	0x3d3a2e7c	0.045454487
34	0xbcb1bae2	-0.021695558
35	0xbdb2fda0	-0.087397814
36	0xbd90b18a	-0.07065113
37	0xbd42ee46	-0.047590517
38	0xbd74e9cc	-0.05979328
39	0xbdb12fe7	-0.08651715
40	0x3d1b0071	0.037842218
41	0xbd3f01cf	-0.046632584
42	0x3c5583fc	0.013031956
43	0x3dab174c	0.08354053
44	0x3da9e5df	0.082957976
45	0xbdb74f89	-0.08950717
46	0xbd68c801	-0.056831364
47	0x3d0317cc	0.032005116
48	0xb9eb0550	-0.0004482665
49	0x3d2f936b	0.042865198
50	0x3dad5821	0.08464075
51	0xbd740b39	-0.059581015
52	0xbd1e67c8	-0.038673192
53	0x3d87ffc4	0.0664058
54	0x3c176478	0.009240262
55	0xbdba3a51	-0.09093154
56	0xbd2d45ba	-0.042302825
57	0xbd798af5	-0.060923535
58	0xbcc8f009	-0.02452852
59	0x3d3ea4b4	0.046543792
60	0x3db83d4c	0.089960665
61	0xbda0b8ea	-0.078477696
62	0xbd35535b	-0.044268947
63	0xbc565893	-0.013082641
64	0x3d0631e5	0.032762427
65	0x3dae2aa2	0.08504225
66	0xbd4195d5	-0.04726203
67	0xbcc3d0d4	-0.023903288
68	0x3cb49799	0.022044944
69	0xbd075528	-0.033040196
70	0x3d20a3aa	0.039218582
71	0x3cebd3c3	0.0287875
72	0x3d0fd345	0.03511359
73	0xbd19883d	-0.037483443
74	0xbd948978	-0.072527826
75	0xbcc87864	-0.02447147
76	0x3d2541cc	0.040345952
77	0x3cadb9fc	0.021206848
78	0xbdb59b41	-0.08867503
79	0xbc339af8	-0.01096224
80	0xbdb59a2e	-0.08867298
81	0xbd91f9b3	-0.071277045
82	0xbd96278c	-0.07331762
83	0x3d8512e2	0.06497742
84	0x3d0f2f64	0.034957305
85	0x3d0e6612	0.03476531
86	0x3d04d256	0.032427154
87	0x3c1b9819	0.009496712
88	0x3c18ebf4	0.009333599
89	0x3d7ccf70	0.061721265
90	0x3d177b9a	0.03698311
91	0xbc67e362	-0.014153333
92	0x3d8951b5	0.067050375
93	0x3da5926f	0.080845706
94	0xbd30f41d	-0.043201555
95	0xbd5038d5	-0.05083545
96	0x3d89a54f	0.06720983
97	0xbda036a6	-0.07822923
98	0x3da5a3ca	0.08087881
99	0x3caf3724	0.021388598
100	0xbcaaacea	-0.020834405
101	0xbcc25f1e	-0.023726996
102	0x3cbb4ef3	0.022864794
103	0x3d227a35	0.039667327
104	0x3ccd4b69	0.025060372
105	0x3ca9f6fc	0.020747654
106	0xbbb4852b	-0.005509039
107	0xbd570153	-0.052491497
108	0xb9ec4242	-0.00045062794
109	0xbcad7b1d	-0.021176869
110	0xbc0d0447	-0.008606977
111	0x3b6e0b57	0.0036322677
112	0x3d29cd78	0.041455716
113	0x3d21184b	0.03932981
114	0xbc12eb4b	-0.008967231
115	0xbbaad148	-0.0052129366
116	0x3d4ac0c3	0.04950024
117	0xbdb35fa2	-0.08758475
118	0xbd53fc71	-0.05175442
119	0xbd29b051	-0.041427914
120	0x3d8f4428	0.06995422
121	0x3cbcf659	0.023066686
122	0xbd8c1fab	-0.06841978
123	0x3c8600c5	0.016357789
124	0xbd7a1376	-0.061053716
125	0xbdb6963b	-0.08915373
126	0x3d5be7a9	0.053687725
127	0x3d53eaa3	0.05173744
128	0x3d023571	0.031789247
129	0x3d0c580d	0.03426366
130	0xbba7b1fb	-0.0051176525
131	0xbda87d74	-0.08227053
132	0xbc62d7ce	-0.013845397
133	0x3d8f242e	0.069893226
134	0xbc558e27	-0.01303438
135	0xbdbe72bb	-0.09299227
136	0xbcb5412c	-0.022125803
137	0xbc3c0cbb	-0.011477645
138	0xbd4c3f81	-0.04986525
139	0xbc1bfcbb	-0.009520705
140	0xbd0a58ff	-0.03377628
141	0xbd3e188b	-0.046410125
142	0xbbc62940	-0.006047398
143	0xbd3eaefb	-0.046553593
144	0xbd37436a	-0.044742025
145	0xbd13648c	-0.03598456
146	0x3d997731	0.07493437
147	0x3ce76af6	0.028249245
148	0xbd35e7f6	-0.04441067
149	0xbd9ad33b	-0.0755982
150	0xbd349210	-0.04408461
151	0xbda6f0ce	-0.081513986
152	0xbc4b268b	-0.012399326
153	0x3c2e9a4d	0.010656905
154	0xbdc0dedd	-0.09417508
155	0xbccb80a7	-0.02484162
156	0xbca52bcf	-0.020162491
157	0x3c42ccc4	0.01188964
158	0x3cc136be	0.023585673
159	0xbd85cfa1	-0.06533743
160	0xbd22b8b1	-0.039726917
161	0x3d991767	0.07475167
162	0x3c24aba7	0.010050691
163	0x3ca1796d	0.01971122
164	0xbbd3ca6c	-0.0064633396
165	0xbd529aa6	-0.051417015
166	0xbd275bdc	-0.04085909
167	0xbc1c9bd4	-0.009558637
168	0x3c58d54a	0.013234446
169	0x3da19eff	0.07891654
170	0x3daa55a7	0.08317118
171	0x3d52da1f	0.051477548
172	0xbda2e67c	-0.07954118
173	0x3d88bcbf	0.066766255
174	0xbd32413f	-0.043519255
175	0x3d2fd452	0.042927094
176	0x3ba5b5e2	0.0050570825
177	0xbdade338	-0.08490604
178	0xbd0dd83c	-0.034630045
179	0x3b23c1b5	0.0024987285
180	0xbd091ed8	-0.03347668
181	0xbcfb74e5	-0.030695388
182	0xbd81aa96	-0.06331365
183	0x3d6ecfeb	0.058303755
184	0xbdc0c84e	-0.09413205
185	0x3d95a081	0.07306004
186	0xbdbff414	-0.09372726
187	0xbd670fdb	-0.056411605
188	0x3cfd8a30	0.030949682
189	0x3da1e105	0.07904247
190	0xbd3b50d0	-0.045731366
191	0x3d9a914a	0.07547243
192	0x3dba76f3	0.09104719
193	0x3be2c215	0.006920109
194	0xbd939165	-0.07205466
195	0xbc990ebd	-0.018683786
196	0x3d61515e	0.05500924
197	0x3c0a9b31	0.008459852
198	0xbd5b09f5	-0.053476293
199	0xbd52ad86	-0.051435016
200	0x3d9526f9	0.07282824
201	0x3c54af8f	0.01298131
202	0xbd3e95db	-0.046529632
203	0xbd2b2688	-0.041784793
204	0x3d6b8845	0.057503004
205	0xbda4ec71	-0.0805291
206	0x3d9cff0b	0.07665833
207	0xbd9debaa	-0.07710965
208	0xbd2cf7ea	-0.042228617
209	0xbc433b78	-0.011916034
210	0x3cbd1c6c	0.023084842
211	0x3dc3dacd	0.09563217
212	0x3ccebac9	0.02523555
213	0xbd101a31	-0.035181228
214	0xbcb991fa	-0.022652615
215	0x3cb45a6f	0.022015778
216	0xbcda1916	-0.02662329
217	0xbd9b5e09	-0.07586295
218	0x3d523b78	0.051326245
219	0x3cc08b45	0.023503909
220	0xbd6dc3f6	-0.05804821
221	0x3d9e0881	0.07716466
222	0xbcca52b7	-0.024697645
223	0x3cd21ff2	0.025649998
224	0xbdc7aebf	-0.09750127
225	0xbc34ab74	-0.011027206
226	0x3cc6a7ce	0.024249937
227	0xb9c7712b	-0.00038040555
228	0x3d0402ab	0.032229107
229	0xbd7b77c1	-0.061393503
230	0x3da54682	0.08070089
231	0x3d4106fb	0.047125798
232	0xbd92fef9	-0.071775384
233	0x3d332bd4	0.04374297
234	0x3d9fde41	0.078060634
235	0x3d9b7b38	0.075918615
236	0xbb19ff3b	-0.0023498076
237	0x3d316d6a	0.043317236
238	0xbda7470c	-0.08167848
239	0x3ce4ee51	0.02794567
240	0xbd6687b4	-0.05628176
241	0x3d36fcac	0.04467456
242	0xbca965ef	-0.020678489
243	0xbd89e742	-0.06733562
244	0x3d74bbea	0.05974952
245	0x39d058ae	0.00039738923
246	0x3db72261	0.08942104
247	0x3da0f51f	0.07859253
248	0x3c0cf31b	0.008602883
249	0x3da61913	0.08110251
250	0x3d9bca2f	0.07606923
251	0x3d9b5c86	0.07586007
252	0x3d8ae2fc	0.06781575
253	0xbda563c8	-0.080756724
254	0xbbc2ad63	-0.0059410795
255	0xbdd37e84	-0.10326865

lstm.bias_ih_l0 f4 [504]
0	0x3d1a25df	0.037633773
1	0xbd97412e	-0.07385479
2	0x3cf7eef9	0.030265318
3	0xbbf87cba	-0.007583228
4	0xbcb94598	-0.022616193
5	0xbad8daba	-0.0016544678
6	0x3d9d7122	0.07687594
7	0xbd34cef0	-0.044142663
8	0x3d04b631	0.032400314
9	0xbcb7089b	-0.02234297
10	0x3c9182e5	0.01776261
11	0xbd17f75c	-0.037101135
12	0xbcaf86af	-0.021426527
13	0x3dd12efc	0.1021404
14	0x3d0d765e	0.034536712
15	0xbc6a4471	-0.014298544
16	0x3d17a3f2	0.037021585
17	0x3d8d7a7c	0.06908128
18	0xbdabc1e1	-0.08386589
19	0x3d33efe7	0.04392996
20	0xbda6dcfa	-0.08147617
21	0xbd34b62b	-0.04411904
22	0xbd34a3e0	-0.044101596
23	0x3da65b26	0.08122854
24	0xbc75b0f2	-0.0149958
25	0x3c5e9fdd	0.013587919
26	0x3d22c04b	0.039734166
27	0x3c2b22ba	0.010445291
28	0xbd00ad1d	-0.031415094
29	0x3d9985c6	0.074962184
30	0xbc901bbb	-0.017591348
31	0x3c9d61e3	0.019211715
32	0x3db4055f	0.08790087
33	0xbda84f11	-0.08218206
34	0x3c1e16e0	0.0096490085
35	0x3dbb8336	0.09155886
36	0x3d14cd59	0.036328647
37	0x3d9ef359	0.07761259
38	0x3d58cb46	0.05292823
39	0x3d402d2c	0.04691808
40	0xbd2f0bc1	-0.04273582
41	0xbc41e165	-0.011833523
42	0xbd9f9294	-0.077916294
43	0x3d5a2574	0.053258374
44	0x3c7a7880	0.0152875185
45	0x3d8a16b8	0.067426145
46	0x3dbef72c	0.09324488
47	0x3cdc8b49	0.026921885
48	0xbd709745	-0.058738012
49	0x3c1b920f	0.009495272
50	0xbc9a167c	-0.01880955
51	0xbcc6b988	-0.02425839
52	0xbcd449bd	-0.025914067
53	0x3c197f62	0.009368749
54	0x3d0bebc7	0.0341604
55	0xbd58fa8f	-0.052973326
56	0x3cf4a5e5	0.02986426
57	0x3dac5948	0.084154665
58	0x3cdc73d0	0.026910692
59	0x3d1e85f9	0.038701985
60	0x3b336ccf	0.0027378087
61	0x3cbf1641	0.023326041
62	0xbd53f692	-0.05174882
63	0x3ca510bc	0.020149581
64	0x3d4fb4b9	0.05070946
65	0xbd88550a	-0.06656845
66	0x3d12faaa	0.035883583
67	0x3cd765a6	0.026293587
68	0xbcb8e205	-0.022568712
69	0x3cab8ad0	0.020940214
70	0x3ccd1947	0.025036467
71	0xbd1a418b	-0.037660163
72	0xbd33c3aa	-0.04388777
73	0xbd8b66a7	-0.06806689
74	0x3d0d22a7	0.034456875
75	0xbd9030bf	-0.070405476
76	0x3d73bb83	0.059504997
77	0xbcc3555a	-0.02384441
78	0x3d15759b	0.03648911
79	0xbd96fa48	-0.07371956
80	0xbd8024cc	-0.062570184
81	0xbd0e2d44	-0.034711137
82	0xbc68f77c	-0.014219161
83	0xbd1453e4	-0.036212817
84	0xbce5ebdf	-0.028066574
85	0xbbb55eb6	-0.005534972
86	0xbb5bff10	-0.0033568777
87	0x3d6d58f2	0.057946153
88	0x3dbced34	0.092249304
89	0x3bb49b22	0.0055116573
90	0x3ca3ffad	0.020019377
91	0x3daa1003	0.08303835
92	0x3d8af173	0.06784334
93	0xbcb4249e	-0.021990117
94	0x3db6404d	0.08898983
95	0x3cc4a822	0.024005953
96	0xbb514e2e	-0.0031937468
97	0x3d824482	0.06360723
98	0x3c87bf74	0.016570784
99	0x3cb3c551	0.021944674
100	0xbd7b317c	-0.06132649
101	0x3db1edf2	0.086879626
102	0xbd12ad30	-0.035809696
103	0x3d0f0dbe	0.034925215
104	0x3d11253f	0.03543591
105	0xbd7e3635	-0.062063415
106	0xbd99324b	-0.07480296
107	0xbc1c5f0c	-0.009544145
108	0xbc2c453b	-0.010514553
109	0xbb0fa310	-0.0021917261
110	0xbcd87124	-0.026421137
111	0xbdb34115	-0.08752648
112	0xbd076bc6	-0.033061765
113	0x3cfb3175	0.030663231
114	0xbd19b2aa	-0.037523903
115	0x3da761b4	0.08172932
116	0xbc5e5b76	-0.013571611
117	0x3da2add9	0.07943315
118	0xbc075dc7	-0.008262104
119	0x3da7e9c3	0.081988834
120	0x3b874cbc	0.0041290205
121	0x3db80fe5	0.08987407
122	0x3d0095a2	0.0313927
123	0x3d1339dc	0.03594385
124	0x3da26e37	0.07931178
125	0x3cf580f1	0.02996871
126	0xbcf289cb	-0.02960672
127	0xbd3faab7	-0.046793666
128	0xbc32f9c6	-0.010923808
129	0x3d0bec58	0.03416094
130	0x3cc85a70	0.024457186
131	0x3c1be4bb	0.009514983
132	0x3cd07ad3	0.025449192
133	0x3d98e44a	0.07465418
134	0x3c58a94b	0.013223956
135	0x3d7f2983	0.062295448
136	0x3d8e7d26	0.06957464
137	0xbd018133	-0.031617355
138	0xbd5705b9	-0.052495692
139	0xbc9e83f3	-0.019350028
140	0x3c201e26	0.009772813
141	0xbcbf9e73	-0.023390984
142	0xbd007ce1	-0.031369094
143	0x3b88544a	0.0041604387
144	0xbb722130	-0.003694605
145	0x3d346291	0.044039313
146	0x3d8feb1f	0.07027268
147	0x3d83a195	0.06427304
148	0x3c17ae0f	0.009257807
149	0x3da59f57	0.08087032
150	0xbdb2de7b	-0.08733841
151	0x3db95bd0	0.09050715
152	0x3cb38442	0.021913651
153	0xbd96ab1e	-0.07356857
154	0x3d968847	0.073502116
155	0x3c25212e	0.010078711
156	0x3c7958cb	0.015218924
157	0x3c94091e	0.018070754
158	0x3db31eb5	0.08746091
159	0xbd0ff490	-0.035145342
160	0xbd5adbbf	-0.053432222
161	0x3d96f625	0.07371167
162	0x3d6d372c	0.057913944
163	0x3d3dbad3	0.046320748
164	0xbd80f700	-0.062971115
165	0x3d98afed	0.0745543
166	0xbd4841f5	-0.048891027
167	0x3d73ceab	0.059523266
168	0xbd7d966f	-0.061911043
169	0xbd4e6fcc	-0.050399587
170	0xbd8b708e	-0.068085775
171	0xbc41c507	-0.01182676
172	0x3dc083f6	0.094001696
173	0xbd28798f	-0.041131552
174	0x3d9bdecb	0.07610854
175	0x3c8c0a91	0.017094882
176	0x3d958f47	0.073027186
177	0x3d5bf423	0.053699624
178	0x3c5485e3	0.012971374
179	0x3d30ac9f	0.043133374
180	0x3dafe4eb	0.085885845
181	0x3ca6a3bd	0.020341748
182	0xbd83a7c3	-0.064284824
183	0x3c279e48	0.010230608
184	0xbc8c8dfe	-0.01715755
185	0xbccf0545	-0.025271067
186	0x3d966b04	0.0734463
187	0x3cb1c739	0.021701442
188	0x3d41ff4e	0.04736262
189	0x3d8bb6db	0.06821986
190	0x3d12b056	0.0358127
191	0xbd9bdc31	-0.076103576
192	0x3d7aea14	0.06125839
193	0x3cc017f9	0.023448931
194	0x3d878a46	0.066181704
195	0xbd02ecf6	-0.031964265
196	0x3d47e3ed	0.04880135
197	0x3ca8f597	0.020624919
198	0xbb42d8a8	-0.0029731188
199	0x3aac7fe4	0.0013160673
200	0x3d382d8a	0.044965304
201	0x3c915f05	0.017745504
202	0x3d998504	0.07496074
203	0x3da0ac0d	0.07845316
204	0x3dbd0a25	0.092304505
205	0xbda1bbde	-0.07897161
206	0xbd58c12e	-0.052918606
207	0x3db6af91	0.089202054
208	0x3dc3b086	0.095551535
209	0xbd774440	-0.060367823
210	0x3aa80aac	0.0012820563
211	0x3bf1ab89	0.007375185
212	0x3dc2a231	0.09503592
213	0x3d57a3d8	0.052646488
214	0x3c83dfee	0.016097989
215	0x3c335874	0.010946382
216	0x3d863f1d	0.06555007
217	0x3d97e73c	0.07417151
218	0xbd399ee2	-0.045317538
219	0x3cd90a1b	0.026494076
220	0xbd1d2cb9	-0.03837273
221	0x3d952963	0.072832845
222	0xbd9a66dc	-0.0753915
223	0x3dcafbe9	0.09911329
224	0x3d800a52	0.062519684
225	0x3dd225ee	0.10261141
226	0x3d0da227	0.03457847
227	0xbcd15b44	-0.025556214
228	0xbd546c2a	-0.051860966
229	0xbbfb8760	-0.00767605
230	0x3d518df4	0.051160768
231	0xbd192986	-0.037393115
232	0xbb76b3b2	-0.0037643728
233	0x3bef6ad4	0.007306436
234	0xbc809da5	-0.01570017
235	0x3d980620	0.07423043
236	0xbd30e6d6	-0.043188892
237	0x3d8fb8c5	0.07017664
238	0x3daf4475	0.08557979
239	0x3ccba626	0.0248595
240	0xbb819986	-0.003955069
241	0xbd35beca	-0.044371404
242	0xbd83487d	-0.064103104
243	0xbd8938ea	-0.067003086
244	0x3dd80fe1	0.10549904
245	0x3d267abc	0.040644392
246	0x3d8f59c9	0.06999547
247	0xbca1e599	-0.019762801
248	0x3d62fe68	0.055418402
249	0x3d9aec43	0.075645946
250	0x3c15861f	0.009126215
251	0xbd8639bf	-0.06553983
252	0x3dbb2c3e	0.09139298
253	0xbd526a6d	-0.051371027
254	0xbd743f70	-0.05963081
255	0x3bb9ffe1	0.005676255

lstm.bias_hh_l0 f4 [504]
0	0xbc6f5b9c	-0.014609244
1	0xbc76395e	-0.015028326
2	0xbd4d5d36	-0.05013772
3	0xbbdd5c44	-0.0067553837
4	0xbd104bf5	-0.03522869
5	0x3db1e521	0.08686281
6	0x3db86577	0.09003728
7	0xbd51d668	-0.051229864
8	0x3ceac3d4	0.028657831
9	0x3ab1ccc6	0.0013565056
10	0x3c7f6def	0.015590175
11	0xbcca679a	-0.024707604
12	0x3d910a39	0.07082028
13	0xbd929fdb	-0.07159396
14	0x3db31c87	0.087456755
15	0x3c7d82f3	0.015473115
16	0xbc82fd09	-0.015989797
17	0x3cdb557b	0.026774159
18	0xbd02c099	-0.031921957
19	0xbd70f9f2	-0.058832116
20	0x3d9fe30b	0.07806977
21	0x3d9fcf8e	0.0780326
22	0x3c8d54d4	0.017252363
23	0x3d42b9e6	0.047540568
24	0x3c63cbe6	0.013903594
25	0xbd65b63d	-0.056082
26	0xbd34d1ef	-0.04414552
27	0x3d81a2bd	0.06329868
28	0x3b83918f	0.0040151547
29	0xbd441161	-0.047868136
30	0x3d239b6d	0.039943147
31	0x3d604d24	0.054761067
32	0xbd85648c	-0.065133184
33	0xbc3a5422	-0.011372598
34	0x3db8b87e	0.09019564
35	0x3d5ba788	0.053626567
36	0xbc08b98a	-0.008345017
37	0xbd6ca17a	-0.057771184
38	0xbd8e4e46	-0.06948523
39	0xbd48c8e9	-0.049019728
40	0x3b726335	0.0036985402
41	0xbd93c1d1	-0.07214702
42	0xbd54ac38	-0.051922053
43	0x3bf7250e	0.007542259
44	0xbd36d7f8	-0.044639558
45	0xbd7f1719	-0.062277887
46	0x3d1ca159	0.03823981
47	0x3d525f2d	0.051360298
48	0x3daa825d	0.08325646
49	0xbd5b2c81	-0.05350924
50	0x3d694e09	0.056959186
51	0x3d9e87b8	0.0774073
52	0xbca2c977	-0.019871457
53	0xbd439f0a	-0.047759093
54	0x3d267eda	0.04064832
55	0x3db0f508	0.08640486
56	0x3d0dd7fe	0.034629814
57	0xbc2b2d06	-0.010447746
58	0xbd251620	-0.040304303
59	0xbc95e274	-0.018296458
60	0xbcc0d40b	-0.02353861
61	0xbdaa9af1	-0.08330334
62	0x3da9f99a	0.08299561
63	0xb98f7881	-0.00027364868
64	0xbcfe4fc5	-0.031043896
65	0x3cf1b97d	0.029507393
66	0x3cc15b44	0.02360309
67	0x399e95c3	0.0003024769
68	0xbb6dfb13	-0.0036312982
69	0xbd89cd5d	-0.06728623
70	0x3d378843	0.044807684
71	0x3b65093f	0.0034948138
72	0x3d882f2a	0.06649621
73	0xbd9a1e8e	-0.07525359
74	0x3d38095f	0.044930812
75	0xbd899d06	-0.06719403
76	0x3cf8958d	0.030344749
77	0x3d99fed1	0.075193055
78	0xbd84a40b	-0.06476601
79	0x3da2ff99	0.07958908
80	0x3ba89f84	0.005145969
81	0xbce45b83	-0.027875667
82	0xba9b0224	-0.00118262
83	0x3d0f7260	0.035021186
84	0x3d3ffb67	0.046870615
85	0x3d918c9d	0.07106898
86	0x3d080d77	0.033215966
87	0x3cdcedf6	0.026968937
88	0x3d53f50a	0.05174736
89	0xbd8c14e0	-0.06839919
90	0x3dae2375	0.08502857
91	0xbafa6569	-0.0019103709
92	0x3d392682	0.04520274
93	0xbd4372fd	-0.047717083
94	0x3d6abb34	0.057307437
95	0xbca9146a	-0.020639617
96	0xbd19d6c5	-0.037558336
97	0xbd701e96	-0.05862292
98	0xbd83372a	-0.06407006
99	0xbcf0a67f	-0.029376267
100	0x3d9f191e	0.077684626
101	0x3d5df591	0.05418927
102	0x3d3aec86	0.045635723
103	0x3d0e3418	0.03471765
104	0xbd37f96d	-0.044915605
105	0x3d7e4f52	0.062087364
106	0xbd37eef7	-0.04490563
107	0x3d90cd88	0.07070452
108	0x3d85068f	0.064953916
109	0xbd00fc2e	-0.031490497
110	0x3d5788e1	0.052620772
111	0xbda25a7a	-0.07927413
112	0xbd0bb8d4	-0.034111813
113	0x3d7489ee	0.059701853
114	0x3d635131	0.055497352
115	0x3c79be8b	0.015243183
116	0xbd9e04b7	-0.07715743
117	0x3d1b1e78	0.037870854
118	0x3dde1eb7	0.10845702
119	0x3d962bd1	0.07332576
120	0xbc2c15b4	-0.010503221
121	0xbd9e0dc6	-0.07717471
122	0x3cad812e	0.021179762
123	0xbc972af3	-0.018453097
124	0xbd2bcf64	-0.04194583
125	0xbc9fc70c	-0.019504093
126	0x3daadf4e	0.08343373
127	0x3d9367d7	0.0719754
128	0xbd10363e	-0.03520798
129	0x3d1ea6aa	0.038733162
130	0xbd65db4b	-0.056117337
131	0x3db3ec9f	0.08785366
132	0x3dda1ebf	0.106503956
133	0x3da0f7e3	0.07859781
134	0x3d75981f	0.059959527
135	0x3c9a507f	0.018837212
136	0x3d8adedf	0.067807905
137	0xbda0b9d6	-0.078479454
138	0x3d13dc98	0.036099046
139	0x3de283d8	0.110603034
140	0x3ca9809c	0.020691209
141	0x3c556a6d	0.013025862
142	0xbc1500dd	-0.009094444
143	0x3c1ed194	0.009693522
144	0xbd449df4	-0.0480022
145	0x3dabff8f	0.08398353
146	0xbd54e0b2	-0.0519721
147	0xbc2a4381	-0.010392071
148	0xbc9e6ca8	-0.01933892
149	0xbc161b45	-0.009161775
150	0xbcd3be92	-0.025847707
151	0x3d86a24c	0.065739244
152	0xbaeb29c3	-0.0017941523
153	0x3d91345e	0.070900664
154	0x3ddc7823	0.10765102
155	0x3c3eacf2	0.011637913
156	0x3d9f2c99	0.07772178
157	0xbc46fe43	-0.012145582
158	0x3d3cfcc6	0.0461395
159	0xbd05498f	-0.032540854
160	0xbd2d0f52	-0.04225094
161	0xbd84bdcd	-0.06481514
162	0xbcfdb4a3	-0.030969923
163	0xbd7049a0	-0.058663964
164	0xbcac3619	-0.02102189
165	0x3d1ad0cf	0.03779679
166	0xbd38fe65	-0.045164485
167	0xba4df7ee	-0.0007857074
168	0x3d12f9a6	0.035882615
169	0x3b5ed00b	0.0033998515
170	0xbd87df31	-0.06634367
171	0xbd8ee147	-0.06976562
172	0xbd86eed6	-0.06588523
173	0xbca09bde	-0.019605573
174	0x3d402b66	0.046916388
175	0x3c804239	0.015656577
176	0x3d8a47ec	0.06751999
177	0xbd235607	-0.039876964
178	0x3c11fcd7	0.008910379
179	0xbc8ff9a7	-0.017575098
180	0x3da45c7d	0.08025453
181	0x3d396b40	0.045268297
182	0xbdad4f01	-0.084623344
183	0xbd32d91c	-0.043664083
184	0x3d7fe97f	0.06247854
185	0x3d6df45d	0.05809437
186	0x3cd88d18	0.026434466
187	0x3c7c0c66	0.015383815
188	0x3d72d0d7	0.059281196
189	0xbdb15be2	-0.086601034
190	0x3db873b4	0.090064436
191	0xbd208e95	-0.039198477
192	0x3d6abea7	0.057310726
193	0x3d6546c1	0.05597568
194	0xbd6256f5	-0.05525871
195	0xbd3a938b	-0.045550864
196	0xbd85a22f	-0.06525075
197	0xbcb2d363	-0.021829313
198	0x3da5d5b3	0.080974005
199	0xbda98289	-0.08276851
200	0xbd12230d	-0.03567796
201	0x3dad8eed	0.084745266
202	0xbd48a4e4	-0.048985377
203	0xbc312943	-0.01081306
204	0xbb4d39b6	-0.0031314916
205	0x3cbaab56	0.022786777
206	0x3d16bf09	0.03680328
207	0xbd4d35e7	-0.050100233
208	0x3d9ff778	0.07810873
209	0x3ca97328	0.020684794
210	0xbd73a990	-0.05948788
211	0xbd31c82c	-0.04340379
212	0x3dc4a5e3	0.09601953
213	0xbd97145c	-0.0737693
214	0x3c38e10f	0.011284127
215	0xbc9ab8e1	-0.018886985
216	0xbc993241	-0.01870072
217	0x3d47bc24	0.04876341
218	0xbcc0da5c	-0.023541622
219	0x3d11411b	0.03546248
220	0xbd767188	-0.060166866
221	0x3d05bc5a	0.03265033
222	0x3d1da8e1	0.038491134
223	0x3da08044	0.07836965
224	0xbd0845ad	-0.033269573
225	0xbc42dc46	-0.011893338
226	0x3d5cca34	0.053903773
227	0xbc767983	-0.015043619
228	0x3db835ef	0.08994662
229	0xbcdd448a	-0.027010221
230	0x3d4d56ca	0.050131597
231	0x3d6c145d	0.057636607
232	0xbd687e81	-0.05676127
233	0xbd3fd34b	-0.046832364
234	0xbcfb6f14	-0.030692615
235	0x3cde5da9	0.02714427
236	0x3db6479c	0.08900377
237	0xbbdfebc2	-0.0068335244
238	0x3dc97943	0.09837582
239	0x3ddb7720	0.10716081
240	0x3d51bafd	0.051203717
241	0x3d20bb9b	0.039241415
242	0xbd725724	-0.059165135
243	0x3d08979b	0.033347707
244	0x3d9502e3	0.07275941
245	0xbd156d13	-0.036480974
246	0xbce104ba	-0.027468074
247	0x3d7eff2e	0.062255077
248	0x3d805469	0.062661
249	0x3d49ab12	0.04923541
250	0x3d2d2cc7	0.04227903
251	0x3cfc9c08	0.03083612
252	0xbdab431a	-0.08362408
253	0x3d0bc575	0.034123857
254	0xbd3bce86	-0.045851253
255	0xbd3b70e8	-0.045761973
