surrogate/run/train/routing/saves/train-test2/30sec/reservoir/state_dict.pt (torch, 535012 bytes, 8 tensors)

pre_sequence.0.weight f4 [126, 34]
00000000: f91b 4ebd 6410 293d 3b5a 8e3c 5d8e b9bb
00000010: 8b09 633d bec8 87bd d40b 193e 146d dc3d
00000020: 1562 16be 09b7 2d3d e4b4 793d ad4a 19be
00000030: e14f 87bd 25b3 6fbd 674c 283e 7d36 103e
00000040: b16c adbd 3b83 d93d b036 113e a9c8 0cbd
00000050: 428a fe3d f89f b3bd 4c20 1d3e 3749 3f3d
00000060: 8e45 a53d 96df f7bd 48d2 ed3d 541f c03c
00000070: 5699 e0bd 6ed5 1c3e cc46 0f3e 39c1 f33c
00000080: 12dd 023e f258 243d ce35 0dbe 86fe d73d
00000090: 14f3 2b3e 4857 a3bd 334e 173d c18f 06be
000000a0: 6a3f c43c d05f 40bd 60bb 8c3d a970 d2bd
000000b0: 0fd0 38be 316e eebd 9200 5abd c7be 66bd
000000c0: dd62 aebd 22d5 9dbd bad4 fc3d f6f9 ed3d
000000d0: bd30 123e 491d e1bd c3b5 96bd 70aa c6bd
000000e0: 1dd6 7bbb da52 193e 97b2 a9bc b784 4cbd
000000f0: ca2b 5c3d f91a bb3d 8878 a83c 784a dbbd
00000100: 5da9 53bd 78a4 053e c5f4 0c3d ec1a bc3d
00000110: 0fca 06bd 68fb b53d 306d e23c 3a3d b53d
00000120: a1b0 c2bd 61f2 0e3d 577c ef3d 70a3 29bd
00000130: 5233 8b3d 2532 2ebc 4016 2cbe 7260 7b3d
00000140: afc5 5c3d 2eb8 b43d d872 2bbe cfbf 033e
00000150: 5e6d 01be 6ef5 5fbd 94db bf3d 89f4 073c
00000160: 4070 24be 51f6 9bbd 4012 733d c244 e03d
00000170: 38ef acbd 855f 43bd c7b4 cfbd 76fe 19be
00000180: 5d74 20bc 1b17 0ebe 0b9e 1fbe eebc a6bd
00000190: eead d63d 0efe 193d affa 2bbe 2cc7 83bd
000001a0: 7070 9abd 623f 4a3d 154c 15be 0abe 0d3e
000001b0: cbc6 e73c 2aaa 403d 1c6c 693c 2c96 103e
000001c0: 3e97 9a3d 207c a33d 21a5 edbd 7f29 1c3e
000001d0: db07 d93d a0a7 5c3c ad9d cb3d e2e6 30be
000001e0: c2d7 96bd 9304 23be 1709 80bb e93b 7e3d
000001f0: 81d2 fa3d d001 d83d 9166 663d 9c25 d23d
00000200: f75f 153e 446e d0bc 6c31 60bd a4d6 a13d
00000210: a57f 99bd c823 3e3d fda8 02be 3210 40bc
00000220: b7d7 6e3d b052 ea3d ebdd 7ebd 1476 253e
00000230: 5cc5 dfbd 413e 213d f848 883c 6f47 9fbd
00000240: 405c a63c 0c94 d4bd 99c8 1c3e 5846 7abc
00000250: f1e1 bebd 8b61 c03d ed26 27be 24e4 5cbd
00000260: 1670 d03d 105c ac3d 0ff7 063e bcd0 09be
00000270: e332 cb3d 8268 71bd 4217 a6bd 53d9 47bd
00000280: b2c1 b3bd 60c8 6abc 87cc bb3d df8a 87bd
00000290: a087 113e d090 9e3d 6e03 8b3c 091c abbc
000002a0: c7f4 33be 4b81 96bc 7197 1ebd 0c71 15be
000002b0: 0aac 23be 060b 7bbc 335d 1c3d 2216 e0bc
000002c0: 9c55 c2bc 5d31 553c 6e5d 04be 614e 1f3e
000002d0: 84a8 f73d 99ff 193e bda8 25be adfb 0d3e
000002e0: 3e37 c43d 5300 b8bd 3546 00be 108d 8abd
000002f0: ee4a 363e dc78 0ebe c49f 7c3c d312 66bd
00000300: 50b1 2f3e dfc4 0ebe c63c 7dbd 2584 db3c
00000310: cf20 d53c c60d 613c 71ed efbd 1d18 063e
00000320: 1e7f 3b3c 3e52 a93d efeb 0e3e ee72 1abe
00000330: dee3 503d 1c0f 4cbd 2ef1 893c 0ceb 353e
00000340: 4777 e43d 8fef a73d 9ba1 e63c 70bb e3bd
00000350: e648 f0bd 1bc5 b6bd fde9 853d a239 9c3d
00000360: 60f5 29bb c141 1abe 15ef 153d 0454 3f3d
00000370: aa0b c3bd 0c3f 51bd b7b5 fb3d af24 73bd
00000380: 5a62 453d b101 e73c 67f9 083d f7ed 013e
00000390: 8ee7 163e 23b5 26be 5b57 063d 2ff4 0bbb
000003a0: 5410 263e 2c3a 233e 1863 20be 6b15 0f3e
000003b0: be6b a8bd 4d82 60bd 375c 94bc a5c6 77bc
000003c0: 4b1c 023e a404 2ebd cfca e6bd 0e13 38bc
000003d0: e447 12be 82ae 8b3d dbaf 973d 318e dd3d
000003e0: d82f 50bd 861c 1a3e 7283 32be aa63 253e
000003f0: 3d01 56bd 820b fa3b 5beb 37bd c463 e93d
-0.050319646 0.041275397 0.01737701 -0.005662723 0.055429023 -0.066300854 0.14945918 0.107629925
-0.14685853 0.042410884 0.060963526 -0.14969893 -0.066070326 -0.058520455 0.16435395 0.14083286
-0.08467997 0.10620733 0.14181018 -0.034371052 0.12428714 -0.08770746 0.15344352 0.046700682
0.08069907 -0.121031925 0.116123736 0.023452438 -0.109667465 0.15315792 0.1399185 0.029755222
0.12779644 0.040123887 -0.13790056 0.10546593 0.16791946 -0.07975632 0.03693981 -0.13140775
0.02395602 -0.046966374 0.068716764 -0.102753945 -0.18048118 -0.11642111 -0.0532232 -0.056334283
-0.085149504 -0.077066675 0.12345262 0.11619942 0.14276405 -0.10991914 -0.07358887 -0.09700477
-0.0038427182 0.14973012 -0.020715041 -0.049931254 0.053752698 0.09136004 0.020565286 -0.10707563
-0.05167519 0.13051021 0.034413118 0.091848224 -0.03290754 0.088858426 0.027639955 0.08849569
-0.095063455 0.03489912 0.11693638 -0.04141563 0.06796898 -0.010632073 -0.16805363 0.061371274
0.053899463 0.08824192 -0.16743028 0.12866138 -0.12639377 -0.05467742 0.09368053 0.008298048
-0.16058445 -0.076153405 0.059343576 0.109506145 -0.08444065 -0.047698516 -0.101419024 -0.15038475
-0.009793368 -0.13876002 -0.15587632 -0.08141504 0.10482393 0.0375958 -0.16794847 -0.064344734
-0.07540977 0.049376853 -0.14579804 0.13842025 0.028293034 0.04703728 0.014246967 0.14119786
0.075483784 0.07982659 -0.116037615 0.15250205 0.105972014 0.013467699 0.09942184 -0.17275575
-0.07365371 -0.15919714 -0.0039073336 0.062068854 0.12247182 0.10547221 0.05625016 0.1026108
0.14587389 -0.025443204 -0.054734632 0.079022676 -0.074950494 0.046420842 -0.12759776 -0.011722611
0.05831119 0.11441553 -0.062223356 0.16158324 -0.10926315 0.03936601 0.016636357 -0.07777297
0.02030766 -0.103798 0.15310897 -0.01527556 -0.09320439 0.09393605 -0.16323443 -0.05392851
0.10177629 0.08415997 0.13180183 -0.13458532 0.09921815 -0.058937557 -0.08109905 -0.04879124
-0.08777179 -0.01433 0.0916987 -0.066182844 0.14211893 0.077424645 0.016969409 -0.020887392
-0.17573844 -0.018372199 -0.038718645 -0.14593905 -0.15983596 -0.015322452 0.03817482 -0.027354304
-0.023722462 0.013012257 -0.12926266 0.15557243 0.12092689 0.15038909 -0.1617765 0.13865538
0.09580849 -0.08984437 -0.12526782 -0.06765187 0.17802021 -0.13913292 0.0154189505 -0.056170296
0.17157483 -0.13942288 -0.061825536 0.02679641 0.02601662 0.013736194 -0.1171521 0.13095136
0.011443881 0.082676396 0.13957189 -0.15082905 0.05099856 -0.049819097 0.016838636 0.17765445
0.11155563 0.08199989 0.028153231 -0.11119735 -0.11732654 -0.08924314 0.0653877 0.0762818
-0.0025933608 -0.15064146 0.03660496 0.046710983 -0.09523709 -0.051085517 0.12290519 -0.059361156
0.0481895 0.028199049 0.033440974 0.12688433 0.14736769 -0.16280036 0.032798152 -0.0021355262
0.16217166 0.1594016 -0.15662801 0.13973014 -0.08223675 -0.054811765 -0.018110378 -0.015123044
0.12706105 -0.042484894 -0.112691514 -0.011235012 -0.14285237 0.06820394 0.07406589 0.108181365
-0.050826877 0.15049943 -0.17432955 0.161513 -0.052247275 0.0076307664 -0.044902187 0.11395982

pre_sequence.0.bias f4 [126]
00000000: c99c fd3d a3b6 0e3e 6d34 eb3d 2e2b bbbd
00000010: 3403 2d3d 7e77 353e e3f4 71bd 73ee f83d
00000020: d0f2 033e 913c 8a3d e647 713d 10f5 213e
00000030: 2d0c 433d dac0 c03d fa25 8d3d 02bc 943d
00000040: 6e3e 4fbd 853d 22be 4241 243e fdf1 1d3e
00000050: ffa8 8ebd 881c 343d ace9 373d c4c5 c13d
00000060: d761 0d3e f3cd c83d a87a 4dbc fc97 a3bd
00000070: cbdc 16be c381 f13d fc9d db3d f035 33bd
00000080: b9c5 a6bd 06d5 12bd fb4b 97bd 18e6 2e3d
00000090: 1740 213c bc96 db3c 946e 62bb 0285 ebbd
000000a0: 5a7b c33d 73cf b93d 61b8 ed3d 11d0 c7bc
000000b0: 4bf9 76bd 3afd 003e 9ff7 8fbd 6415 94bd
000000c0: ba98 393e a5c3 c0bd 5bb5 c13d e324 d73d
000000d0: a006 28be ccb6 183d 9b4b 1dbc 472e 3e3d
000000e0: 5edf 19be 1aaa d83c d8d0 18be d9e0 97bd
000000f0: 94c9 2abe d92f 26bd d32b 2fbe 8802 613c
00000100: 9645 833d 3e5f c43d c74f 153e e4fc 6d3d
00000110: da28 0d3e 9bae 86bd 8363 d83d 2633 12be
00000120: 919f d33d 1233 173e 13f3 2a3e 5ad5 23bd
00000130: 4a8e 98bc 7372 18bd 2a1b ac3d 70e9 16be
00000140: b479 a43c a010 5ebd 5b19 1f3d 30e6 33be
00000150: 340a 12be 6583 07be 96f9 88bc e2e2 a5bc
00000160: e4a0 23be bfe0 143e a683 1abe 6ec1 0f3e
00000170: 86b1 193e 7a91 02bd 75ef 01be 881f 37bd
00000180: f85d 94bd 018f 5dbd 020b 003e fa11 6839
00000190: a467 01be 1977 04be 5ffe c9bd 06fe 16be
000001a0: 6d13 cabd 5244 1cbe c3c1 d9bd 3df5 ba3d
000001b0: 65b8 f8bd 6a29 8c3d 61a6 ce3d f571 163e
000001c0: a785 19be 1c75 84bb 630d 07bd a9a6 32bd
000001d0: db3e 803d 29ba a13d 3740 883d f0da d23d
000001e0: 14b1 113e 3629 143e 95df c83d 33f0 b4bd
000001f0: bf61 243e 5a71 ce3d
0.1238342 0.13936858 0.11484609 -0.09139095 0.042239383 0.17721364 -0.059071433 0.121548556
0.12885594 0.067498334 0.05890646 0.1581614 0.047619034 0.094117835 0.06892009 0.07262422
-0.050596647 -0.1584378 0.16040519 0.15424342 -0.06965827 0.043972522 0.04490058 0.09461549
0.13806854 0.09804907 -0.012541451 -0.07987973 -0.14732663 0.11792328 0.107234925 -0.04375261
-0.08143181 -0.035847686 -0.07387539 0.042699903 0.00984194 0.026805274 -0.0034550773 -0.114999786
0.09545012 0.09072771 0.11607433 -0.024391206 -0.060296338 0.12596598 -0.07029652 -0.072306424
0.18124667 -0.09412316 0.09458419 0.105050825 -0.16408777 0.037283704 -0.009600545 0.046430852
-0.15026614 0.026448298 -0.14923418 -0.07415933 -0.16678458 -0.040572975 -0.17106561 0.013733514
0.06409757 0.095884785 0.14581214 0.058102503 0.13785115 -0.06576272 0.10565855 -0.14277324
0.10333169 0.14765576 0.16694288 -0.03999839 -0.018622536 -0.037218522 0.08403619 -0.14737487
0.020077564 -0.054215074 0.03884254 -0.17568278 -0.14261705 -0.13233717 -0.016720574 -0.020249788
-0.15979344 0.14538859 -0.15089282 0.14038631 0.15009126 -0.03187702 -0.12689002 -0.044707805
-0.072444856 -0.054091457 0.12504199 0.00022131941 -0.12637192 -0.12936057 -0.098629706 -0.1474534
-0.098669864 -0.15260437 -0.1063266 0.09128807 -0.121445455 0.068438366 0.10090328 0.14691909
-0.1499239 -0.004042281 -0.03297175 -0.04361597 0.06261989 0.07896835 0.06652873 0.10295665
0.14227706 0.14468846 0.0980827 -0.08834877 0.16052912 0.10080214

post_sequence.1.weight f4 [4, 126]
00000000: 5df4 24bd 8e75 ac3d d5e1 303d d65c 03bc
00000010: bddc abbc 60bf 883d 7a2c d7bb c469 08bd
00000020: b0f4 823d 9a6d 90bc 5050 a3bd 42bd 2e3b
00000030: 40fa 1c3d dc6b ca3c 0619 94bd 1e36 91bd
00000040: 66d3 c93c 8998 013d b994 343d e9c3 693d
00000050: 530d 87bd 5929 3b3d 552b 923d 0008 453d
00000060: 3236 1dbd d108 1cbd c47e 573d f955 933d
00000070: 56c3 a5ba 4fba 923d d93f 913d 533c bfbd
00000080: 779b 283c be1b 97bd 0b8b 65bd 1371 4c3d
00000090: 26ac c83d f34c 293d d009 853d 2df9 5c3d
000000a0: 008a d43c b6a0 d1bd cb79 3a3d 6721 263d
000000b0: 5b6d 283c 6297 d53c 88fe 88bd d46e 763d
000000c0: 33d6 083c f694 a4bd fc5f 463d 01bb 743d
000000d0: d4c0 a2bd 541c 783b ae8d 6dbb d9c6 223d
000000e0: 4489 273c 53bc b9bc c259 37bc 0ca9 1abd
000000f0: ef2b 8f3d 1779 98bd b381 7dbd ab36 a0bc
00000100: 555f bfbb 6a93 b9bd fc4f 8bbd e9e7 97bd
00000110: b43b b73d 39c2 b2bd 8fe4 25bd 5245 823d
00000120: d6a2 233d 711b 283d 7298 d03d a843 a43d
00000130: dbee 8cbd c34a 04bd 3e7c abbd 6e8b 1ebd
00000140: 7022 4fbd 9c7b 243d b043 57bd 9049 aabc
00000150: 9355 f63c d07c 133d 4e69 0b3c 6814 8d3d
00000160: 32c7 58bd c8a4 c5bd e841 0e3d ef17 bbbd
00000170: 0af5 c0bc ba30 e83c 24ea a8bd 7bc5 27bd
00000180: fcc1 b83d d456 113d 1098 fcbc c231 71bd
00000190: 60bc 88bd eb1e 7f3d 37be b0bc cc1f 7dbd
000001a0: 7740 c5bd d652 ccbd 195f 24bd 6f95 973d
000001b0: 3a03 0cbc 9d3f 2c3d 4a8c 473d e058 e6bc
000001c0: 9c02 abbc de32 d73c f544 a53c f961 b13d
000001d0: a61f 343d d392 d6bd c322 a63c 8349 dbba
000001e0: c28d 703d b8bb a0bc 50d6 a3bd 346d 81bd
000001f0: 3663 bcbd 25ee fa3c 721d babd de79 2d3d
00000200: 57cd b1bd d60f 973d bcd6 aebd b605 a73d
00000210: 0ccb 83bd f983 393d abd9 1dbd c8c5 8b3d
00000220: 6edf 203d 3e48 6abd cdd9 563d 984c f9bc
00000230: a2bc 283d f832 11bd e299 a83d 6f66 47bd
00000240: 18d4 a93d 2b24 443b 69a3 fabc 6ace 3c3d
00000250: dddc a73d b565 bcb8 a9e5 ab3d 7349 4ebd
00000260: 683c 793d 7c0b 653d 2955 a3bd 1035 6f3d
00000270: 9ed0 a33d 31dc e7bc 50ce e4bc 5ec5 823d
00000280: 2fcc a0bd cd09 053d d390 333d de32 5c3d
00000290: 9c0b 43bd c8c3 d43d 6847 ab3d 9d31 d1bd
000002a0: 24ef 043d 1780 04bd 2cc1 5b3c 6951 a33d
000002b0: e86b 913c f41b 99bc b5bb 673d edbe 2b3d
000002c0: 7293 8cbd f9f0 56bd aa0c 15bd 10db a2bd
000002d0: f3db a03d 6e5b 9e3d fa3c 9d3d b6c6 a13d
000002e0: 767d 653d 6664 82bd 0610 80bc 5ef3 c3bb
000002f0: 900d 15bc 2eba 45bd a10c 7cbd 7c9b c3bd
00000300: 0f8e 82bc de9c 8ebb aab1 a93d 1218 b6bd
00000310: be81 8c3c ce58 a23d eb85 2fbd ecf7 5dbd
00000320: fbbb e4bb 0875 47bd 2cc2 abbd 72af 83bd
00000330: d9d2 80bd 0288 b2bd 4b00 8f3c e62e 4a3d
00000340: 974e 993d 001b dd3c 13e2 03bd a762 803d
00000350: 8c14 f53c 5439 8abd 2deb 813d 875e 703d
00000360: 8795 81bd 2b3b 0cbd c4ff b4bc 07d5 be3d
00000370: 7b03 da3c 4266 953d 7d8e 5e3d 28e0 5d3d
00000380: f775 fd3c 73dd 35bc fa3d 9dbd 1ed3 84bc
00000390: 0027 bdbd 7aec 8d3d e312 6c3c 9571 71bc
000003a0: 1d91 6fbd 8ff5 5bbc a57d 9ebd 054e 6e3d
000003b0: d5eb e13b 23ac 47bd 7e9d 1f3d 3fa8 aabd
000003c0: 1802 aebd cb38 033d a186 c6bc c755 dabd
000003d0: f283 823d 0125 b2bc cef8 ee3c 1a70 7c3c
000003e0: 39fb 28bc f20b 69bd 5e0f 1b3d 9bfe 6e3d
000003f0: feeb 2fbd dc15 cb3d 32ec 363d 9f10 9e3d
-0.040272105 0.08420859 0.04318412 -0.008017739 -0.02097928 0.06677127 -0.0065665813 -0.03330399
0.06394327 -0.017630387 -0.07974303 0.00266631 0.038324594 0.024709634 -0.07231335 -0.070904
0.024636935 0.03163961 0.044087145 0.0570716 -0.06594338 0.04569373 0.07137171 0.048103333
-0.038381763 -0.038094345 0.052611127 0.07194132 -0.0012646716 0.07164442 0.07092256 -0.09337678
0.010290972 -0.07378338 -0.056040805 0.049912523 0.0979846 0.04133315 0.06496012 0.05394857
0.02594471 -0.10235731 0.045526307 0.0405592 0.010279979 0.026073162 -0.06689173 0.060164288
0.00835185 -0.080362245 0.04843138 0.059748653 -0.07946935 0.0037858682 -0.0036247778 0.039740417
0.010225598 -0.022672808 -0.0111908335 -0.037758872 0.069908015 -0.07444971 -0.06189127 -0.019557318
-0.005840222 -0.0906132 -0.06802365 -0.0741728 0.08946934 -0.08728451 -0.040501174 0.06360878
0.039950214 0.041041795 0.10185327 0.08020717 -0.068814956 -0.03229786 -0.08373307 -0.03870719
-0.05056995 0.040156946 -0.052554786 -0.02078703 0.030070102 0.036007702 0.008508993 0.06888658
-0.052924342 -0.0965057 0.03473082 -0.09135424 -0.023554344 0.028343547 -0.08247784 -0.040959816
0.090213746 0.035483196 -0.030834228 -0.058885343 -0.06676555 0.062285345 -0.021575077 -0.061797902
-0.09631436 -0.09976737 -0.040129755 0.07401549 -0.008545691 0.042052854 0.048717774 -0.02811855
-0.020875268 0.026269373 0.020174483 0.08661265 0.043975495 -0.10477223 0.020280248 -0.0016730282
0.05872894 -0.019620761 -0.07999861 -0.06319657 -0.091986105 0.030631134 -0.090876475 0.04235255
-0.086817436 0.07376067 -0.08537051 0.08155386 -0.064352125 0.045291875 -0.038537662 0.06824833
0.03927558 -0.0571978 0.052453805 -0.03043203 0.04119552 -0.035449 0.08232476 -0.048681673
0.08292407 0.0029928784 -0.030595498 0.04609529 0.08196423 -8.983483e-05 0.083934136 -0.050363015
0.060848624 0.055919155 -0.079752274 0.058400214 0.07998775 -0.028303238 -0.027930409 0.06385301
-0.07851445 0.03248005 0.043839287 0.05375945 -0.047618493 0.10388905 0.08363229 -0.10214541
0.032454625 -0.03234872 0.013412755 0.07974512 0.017751649 -0.018690087 0.056575496 0.041930128
-0.068640605 -0.052475903 -0.03638903 -0.07951939 0.07854452 0.077322826 0.07677646 0.07899229
0.056027852 -0.06366806 -0.01563264 -0.0059799394 -0.009097472 -0.048273258 -0.06153548 -0.09551141
-0.01593688 -0.004352196 0.0828584 -0.0889131 0.01715171 0.079270944 -0.042852324 -0.054191515
-0.006980417 -0.048695594 -0.08386645 -0.06429948 -0.06290216 -0.08717348 0.017456194 0.049361132
0.07485693 0.026990414 -0.032198023 0.062688164 0.029917024 -0.06749216 0.06343684 0.0586839
-0.06327348 -0.034236114 -0.022094615 0.093179755 0.026612988 0.07294895 0.054335106 0.05416885
0.03094004 -0.011100161 -0.07677837 -0.01621395 -0.09235954 0.0692987 0.0144088 -0.014736553
-0.058488 -0.013425245 -0.077388085 0.058179874 0.0068945684 -0.048748147 0.038968556 -0.08332872
-0.08496493 0.032036584 -0.024234118 -0.10660892 0.06372823 -0.02174616 0.029171374 0.0154075865
-0.010313802 -0.056896158 0.037856452 0.05834828 -0.04294967 0.09916279 0.044658847 0.07718014

post_sequence.1.bias f4 [4]
00000000: 52b8 f4bc eb55 c53c 920c 223d 75dd 08bd
-0.029873047 0.02408882 0.03956277 -0.033414323

lstm.weight_ih_l0 f4 [504, 126]
00000000: b692 b5bc 5880 78bd efae 91ba f118 8b3d
00000010: efd8 1d3c 81d1 c1bd 6a30 303d 5833 84bd
00000020: 7b04 2a3c 3157 9e3d 9c85 4bbd 367f 4a3b
00000030: 5f5e 463c fe56 5fbc fd8e b53d eebe 903d
00000040: 07ac 2bbd ec3f a63d 70c1 83bd 400d 4abd
00000050: 248c 94bd 17af f8bc 8604 aa3d fed5 82bd
00000060: cc66 303d 6744 473d 0785 21bc 3b90 93bc
00000070: 29f8 ae3d e1ec 8dbd 8267 863c eb90 9dbb
00000080: 1edd 873d d3f4 4c3d cfc1 6b3d aff3 7fbd
00000090: e0db 033d 8ced 82bd d22a 0bbd 1415 91bc
000000a0: 5ce4 9fbd 4829 803d 11b4 9d3d 6a72 453c
000000b0: d837 763d cc4a 99bd 1eb4 f23b f62f 49bd
000000c0: 416f 83bd de73 a13d 90bb a0bd 2ab6 97bd
000000d0: 20ad abbd 5e17 c43b ad80 803c 3804 9e3d
000000e0: 57e5 153d e72e 88bd a945 813d 00cd 53bb
000000f0: 2e05 8e3d c9ce 273d f2d8 123d 67be 993d
00000100: 95fe 6cbd 54cf bdbc b9c9 00bd a11c aebd
00000110: ec70 e13c cc5c 31bd 64f8 9abc 3cb9 d2bd
00000120: 5f51 4ebd 76ef 6d3d 2afb 963d d241 033d
00000130: 40f3 853d 7d64 c03b fa13 22bd 91af 93bd
00000140: 42a8 6e3d 46aa b1bc dc2f a8bd 9d15 beba
00000150: 0858 c23d c989 be3c 8dff 46bd 0b2c 73bd
00000160: c623 e839 8b94 2c3c 9683 373d 428d 7a3d
00000170: 3599 993d c2c2 53bd 0095 9abd 5586 de3c
00000180: 03be 993c d8e1 b7bd fed8 3bbd 332b 083d
00000190: 3933 373d 695d 35bd 2f37 8abd 6e84 593d
000001a0: ca6c 20bd cb74 8c3d 072d a83c 8d54 773d
000001b0: b0cf a23d 5baf b2bc 9a73 03bc 96e1 84bb
000001c0: 8df0 00bd 465e 813d 01b3 ba3d 9a51 ef3c
000001d0: 00e6 a5bd c275 b03c 273e d1bc bb7d 933d
000001e0: 8469 983d a8a8 653d 30e7 823d bf38 37bd
000001f0: 118a 953d 7bd9 883d a7ca 01bc 0970 f13b
00000200: 2a3b 7c3d 25ad a9bd f1a7 8d3d 11cc 6c3d
00000210: f273 26bd 3570 73bd c52a aabd 99ea 5a3d
00000220: 249e a63c 56d3 7ebd 5040 f83c 0665 59bc
00000230: 1f21 12bd 94f1 923d cb0b 943c 33f3 d3bc
00000240: 9268 5139 a89a 7e3d c1c4 caba a4d2 53bd
00000250: cb65 5e3d 881a 453d a247 e83c a8b7 cbbc
00000260: 8ac6 66bc 6e5d 253c 2ba9 5c3d 91d8 cebc
00000270: 5b0f b23b 0f72 a1bd 1a6c 893d 9bef 8d3d
00000280: 5ec7 453d 5f9a b4bc 7f2e 5e3d 106c d1bb
00000290: f98a c4bc f6ea 7e3d 6fa3 9abd 165c 98bd
000002a0: b313 0f3d 2890 8f3c 658b 08bc 9986 4dbb
000002b0: 7561 b43d 1190 7fbc e747 f4bc 8438 9abc
000002c0: 714e 95bd 0456 ec3c 0d1e 373b 4418 9a3d
000002d0: 48fe ae3d a355 2fbd 2cd2 6e3d 8fe9 40bc
000002e0: 0124 ab3c bc3b 813d 0176 83bc ea60 ba3d
000002f0: 06bf 6b3c 181f 6dbd bba6 a5bd 8e01 903d
00000300: b325 2bbb bcb2 6fbd 65f7 96bd c11a bdbb
00000310: 4666 9c3c 22a8 55bd bdec 743b e5b1 9a3d
00000320: 6447 483d c98b 29bd 4def a93d 628f b5bc
00000330: 59cb 193c 7b07 2d3d 80bd 963d b103 09bd
00000340: 7ef6 493b bf34 2c3d 5793 283d c585 b63c
00000350: 82fe 7a3c 8908 b23d f414 29bd 1bb9 b23d
00000360: c3ef 713d 2a6c 5fbd 67b7 433d 004b 34bd
00000370: dda6 053d 2247 6d3c 80ed 9abd bea0 1abd
00000380: 4d3f 6c3c 0200 873d 3743 4ebc c36f a1bd
00000390: 1f7f 10bd 31cf 1d3c 333d 81bd b6d8 0c3b
000003a0: 1b8f 9ebd c573 593b e635 63bd 971f 2c3c
000003b0: 0e47 b73d 762a a3bd f03b 483d 77a3 953d
000003c0: f471 5e3c 2a8e 7cbd 6f58 b63b fb51 88bd
000003d0: b65f ad3d fd36 84bd e817 41bd 301d b13d
000003e0: 19c7 a0bc aa8c f53c a95e 9f3d 53d2 95bd
000003f0: 5668 923d 7b3c 413d 0fc3 b33c bd4e 59bc
-0.022164684 -0.060669273 -0.0011114756 0.067918666 0.0096342405 -0.09463788 0.04301492 -0.064551055
0.010377045 0.07731474 -0.049687967 0.0030898578 0.012107461 -0.01363158 0.088651635 0.07067667
-0.041912105 0.08117661 -0.0643338 -0.049329042 -0.07253292 -0.030356927 0.08301644 -0.06388472
0.043066785 0.048649218 -0.009858376 -0.01801311 0.085434265 -0.06929947 0.016406778 -0.0048085353
0.06633972 0.05003817 0.057557877 -0.062488254 0.03219211 -0.06392965 -0.033976384 -0.017710246
-0.07807228 0.06257874 0.077003606 0.012051204 0.06011185 -0.074849695 0.0074067255 -0.049118005
-0.064177044 0.07883428 -0.07848275 -0.07407792 -0.0838263 0.005984231 0.015686357 0.077156484
0.03659567 -0.06649571 0.06312115 -0.0032318234 0.06934582 0.04096869 0.035851426 0.075070195
-0.057859976 -0.02317015 -0.031442378 -0.08501554 0.027519666 -0.04330139 -0.01891727 -0.10289237
-0.05037057 0.058089696 0.073721245 0.032045193 0.06540537 0.005871354 -0.039569832 -0.07211221
0.058265932 -0.021687638 -0.082122535 -0.0014502291 0.09489447 0.02325906 -0.048583556 -0.059368175
0.00044277142 0.010533462 0.044803225 0.06116987 0.07499925 -0.051699407 -0.07547951 0.027163664
0.018767362 -0.08978623 -0.045861237 0.033244323 0.044726584 -0.044278536 -0.06748807 0.05310481
-0.03916625 0.06858214 0.020529283 0.06038337 0.079497695 -0.021812132 -0.008023167 -0.0040552123
-0.031479407 0.06316809 0.091161735 0.029213715 -0.0810051 0.021540526 -0.025542332 0.072017156
0.074420005 0.056069046 0.06391752 -0.04473185 0.07301725 0.06682106 -0.007921851 0.007368092
0.06157986 -0.08284978 0.06916798 0.0578118 -0.040637918 -0.05943318 -0.08308939 0.053446386
0.02033908 -0.062213264 0.030304104 -0.013268715 -0.035676118 0.071749836 0.01807203 -0.025872802
0.00019970749 0.06215921 -0.0015470014 -0.051714554 0.054296296 0.048121005 0.02835447 -0.024867848
-0.014085421 0.010093076 0.05387227 -0.025249751 0.0054339594 -0.07883083 0.06710072 0.06930467
0.048285834 -0.022046266 0.05424356 -0.006391056 -0.023992049 0.062235795 -0.07550704 -0.07439439
0.034930896 0.017524794 -0.0083340155 -0.0031360744 0.08807651 -0.015598313 -0.029819442 -0.018825777
-0.07290352 0.02884961 0.0027941496 0.075241596 0.08544594 -0.04280628 0.058305904 -0.011774435
0.020891191 0.063102216 -0.01604748 0.09100516 0.014388805 -0.05789098 -0.08088442 0.070315465
-0.0026115 -0.058520064 -0.073714055 -0.0057710116 0.019091737 -0.052162297 0.0037372552 0.07553462
0.04889621 -0.041393075 0.08297596 -0.022163097 0.009386861 0.042243462 0.07360363 -0.033450786
0.0030817087 0.04204249 0.04115614 0.022280583 0.015319468 0.08693034 -0.041279748 0.08726712
0.059066545 -0.054546513 0.047782328 -0.044016838 0.032629836 0.014482291 -0.07564831 -0.037750952
0.014419389 0.06591798 -0.012589267 -0.07882645 -0.035277482 0.009631918 -0.06310501 0.0021491474
-0.07742139 0.0033180576 -0.055471323 0.0105055785 0.089490995 -0.07967083 0.048885286 0.07306569
0.013576973 -0.061659016 0.0055647413 -0.066562615 0.08465521 -0.06455801 -0.04714194 0.08648145
-0.019626187 0.0299743 0.07781727 -0.07315507 0.07148807 0.04717682 0.021943597 -0.013263402

lstm.weight_hh_l0 f4 [504, 126]
00000000: 7c3b 583d a48e 053d 23e7 2b3d e764 8fbd
00000010: 60e9 98bd e6b4 b5bc 83e8 c83d 2950 af3d
00000020: 1e62 833d 117a 7ebb 27d4 55bb 7151 1cbd
00000030: d3b9 c7bc 6e54 32bd 2c54 86bd 11ff a1bd
00000040: 59bd 783d e529 a4bd a2c9 c03c 0588 3d3d
00000050: ae27 1ebd 4622 88bb fafe 733c d3b8 9abd
00000060: d9eb 13bc 7490 583d f7b2 75bd 6fb7 aabd
00000070: 171c a03d e827 b7bd db5a 923c 5298 a43d
00000080: 7aa7 9bbc bb27 313d c880 9fbc dc0f c2bd
00000090: 1d53 a9bd 1c72 31bd 7ed4 4bbd e027 c0bd
000000a0: 9007 0f3d 729e 30bd d276 9939 262a bc3d
000000b0: a925 a03d af17 b7bd 666e 81bd 7138 5a3d
000000c0: 1a56 3f3b da17 393d 32d1 b43d 31dd 91bd
000000d0: e093 04bd 6dee 763d ae2d 403c acaf bbbd
000000e0: 641c 02bd 9841 79bd b18c d5bc d58a 3d3d
000000f0: 9a6a d03d ad8b c0bd e05d 2fbd 5563 17bc
00000100: a9e2 063d 407e b33d ab5a 46bd 3144 d5bc
00000110: 67c0 c63c 3c2e 38bd e6b4 133d a32a 103d
00000120: 7087 dd3c 9e37 c2bc a5b3 c9bd d08e 8ebc
00000130: a635 473d 01fa e43c 3356 b7bd 95c0 2fbc
00000140: a7cc c1bd b203 80bd 2930 88bd f608 603d
00000150: 8253 2b3d 9b7b 1e3d 70f2 df3c 8a23 ae3b
00000160: a93b b43c 47b0 6e3d f271 153d 6cfc 6ebc
00000170: 3098 943d 39b5 9e3d 755f 06bd 0595 34bd
00000180: abc1 863d 2e3a 99bd 2d35 d23d f4f3 e53c
00000190: 0dc8 68bd 6b72 b2bc 276d bf3c ccfd 1b3d
000001a0: eaaf 163d fd20 d83c 8ba0 083b f9ff 45bd
000001b0: 8678 a9bc d026 d5bc 4448 13bc ddc5 2dbc
000001c0: 7d67 203d f3ae 0c3d 8d66 57bb fdaa 8eba
000001d0: a45c 2c3d d846 a5bd ece9 4ebd 1983 37bd
000001e0: e275 6c3d c3df f33c 87e2 8cbd 632c 723c
000001f0: 47dd 81bd e2ac b1bd 4e72 393d 2686 533d
00000200: 5fd1 ab3c 205c 283d a3bb 98bc b5d6 94bd
00000210: 53bb 5dbc 922e 8f3d abb5 2abc 5521 acbd
00000220: 90dc cdbc 1566 d6bb 7024 87bd 1eb5 27bc
00000230: d938 64bd 6aef 5fbd 60ae 38bc 3404 52bd
00000240: 751f 7ebd bebf 11bd 366f 993d 71ba c63c
00000250: 35f5 ffbc 2374 b0bd 0bbd 00bd 4839 95bd
00000260: 3d22 4bbc 159a eb3a fd77 c0bd f223 e3bc
00000270: 91f8 21bd 6b72 2a3c 0168 213d 5962 b0bd
00000280: f16f 2abd 11c5 913d e9d5 9b3c 8475 283d
00000290: 7c4f e5ba f1cf 68bd 172f 3dbd 8ef4 7dbc
000002a0: 1ec2 d93b abb1 9e3d 1910 753d 20f3 713d
000002b0: b6cc 93bd 3799 b43d 36aa eebc ab44 493d
000002c0: c695 db3c b50f a8bd 678f 13bd c783 1dbb
000002d0: 3820 28bd 853d 09bd 82b9 61bd 28f6 6a3d
000002e0: ee75 b1bd 7b5b 913d 7899 8cbd 992b 80bd
000002f0: 9d3d 093d a987 ba3d b58c 32bd 3017 9a3d
00000300: a01a b23d bcab 0e3c e243 8cbd bf49 1abd
00000310: 5421 343d 177b fd3c 6005 96bd 6b72 4ebd
00000320: aae3 683d 8d55 c13c db21 5cbd 1403 3bbd
00000330: 75bb 3a3d eed6 96bd 157f 6b3d 293c 8dbd
00000340: 3a28 ddbc 35ba ec3b d633 123d 3d03 c63d
00000350: 6fb0 053d 49b2 25bd a1a6 82bc 7cac 1a3c
00000360: 8f66 ccbc 36d0 cabd 96c3 623d 2a29 743c
00000370: 9718 42bd c4ee 913d 9f12 6ebc 48e2 f43c
00000380: 2c3f 86bd 143f 03bd eab0 03bc 0b87 2e3b
00000390: 0033 d73c 5fb3 92bd 8862 913d 58b4 363d
000003a0: 0a9c 89bd 4360 713d a9e0 7d3d 231a 963d
000003b0: 4339 093d 04c7 bf3c 963b bcbd 2b76 c63b
000003c0: e6c2 6bbd e3fc 853d 2ecb 8bbc f1e6 6fbd
000003d0: ef19 713d a0b0 09bc 9ea4 ac3d cbf9 ad3d
000003e0: 7cea 15bb d3ac 903d 718d a83d 030a 863d
000003f0: 3212 783d 7e3f 95bd e02e 00bc 2512 b1bd
0.052791104 0.032606736 0.041968476 -0.070016675 -0.07466388 -0.022180986 0.09809973 0.08560211
0.06415199 -0.0038830081 -0.0032627673 -0.038163606 -0.0243806 -0.04353755 -0.06559023 -0.07909978
0.06072745 -0.08015803 0.023533646 0.046272296 -0.03861206 -0.0041544763 0.014892334 -0.07554784
-0.009028398 0.052872136 -0.059985127 -0.083357684 0.07817858 -0.089431584 0.017865589 0.08036865
-0.019000757 0.04325078 -0.019470587 -0.09475681 -0.08267806 -0.043321714 -0.049763195 -0.093826056
0.03491932 -0.043119855 0.00029270962 0.09187727 0.07819683 -0.08940064 -0.06319885 0.053276483
0.0029195608 0.045188762 0.08828963 -0.07122267 -0.032367587 0.060285974 0.011729641 -0.09164366
-0.031765357 -0.06085357 -0.026068063 0.04627498 0.10176583 -0.09401641 -0.042814136 -0.009239991
0.032931004 0.08764315 -0.04842631 -0.026033493 0.024261666 -0.044965968 0.03606119 0.03519691
0.02704212 -0.023708161 -0.098487176 -0.017402083 0.048635148 0.027951242 -0.08951988 -0.0107270675
-0.094628625 -0.06250705 -0.06649811 0.054696046 0.041827686 0.038692098 0.027337283 0.005314295
0.022001104 0.05827358 0.03648562 -0.014586549 0.0725559 0.07749409 -0.03280588 -0.04408743
0.06579908 -0.074818 0.10264049 0.028070427 -0.05683141 -0.021783074 0.023367478 0.038083836
0.03678886 0.026382918 0.0020847644 -0.048339818 -0.020687353 -0.026019484 -0.008989397 -0.010606256
0.039161194 0.034346532 -0.0032867522 -0.0010884699 0.042080536 -0.08070153 -0.050516054 -0.04480276
0.05772961 0.029769784 -0.06879144 0.01478109 -0.063410334 -0.08675553 0.045275025 0.051641606
0.02097386 0.041103482 -0.01864416 -0.072675146 -0.013533431 0.069913045 -0.01041929 -0.08404795
-0.025129586 -0.006542931 -0.06598747 -0.010236053 -0.055718277 -0.054671682 -0.011272043 -0.05127354
-0.06204172 -0.03558325 0.07491915 0.024258824 -0.031244854 -0.08615901 -0.031430285 -0.07286316
-0.0123983 0.0017974997 -0.09397886 -0.027727101 -0.039543692 0.010403256 0.039405826 -0.08612508
-0.041610662 0.071176656 0.019022899 0.041127697 -0.0017495002 -0.056838933 -0.046187486 -0.015500201
0.006645455 0.07748731 0.059829805 0.059069753 -0.0721678 0.08818286 -0.029133897 0.049137753
0.026804816 -0.08206121 -0.03602543 -0.0024034844 -0.04104635 -0.033505935 -0.055108555 0.05736366
-0.086650714 0.07097527 -0.06865209 -0.062583156 0.033506025 0.09107906 -0.04359122 0.07523954
0.086964846 0.008707937 -0.06848885 -0.037667986 0.043977097 0.030942483 -0.07325244 -0.050402086
0.056857742 0.023600364 -0.053743225 -0.045657232 0.04558893 -0.07365213 0.05749424 -0.0689624
-0.02699672 0.007224346 0.035693966 0.096685864 0.032638963 -0.04045323 -0.015948595 0.009440538
-0.024951247 -0.09902994 0.055362307 0.014902392 -0.047386732 0.07125619 -0.014530807 0.029893056
-0.06555018 -0.032042578 -0.008037785 0.0026630785 0.026269436 -0.071631186 0.070988715 0.044605583
-0.06719215 0.058929693 0.06198183 0.07329204 0.033501875 0.023410328 -0.091910526 0.006056567
-0.057558917 0.06542375 -0.017064657 -0.058569852 0.058862623 -0.008403927 0.08429836 0.0849491
-0.002287536 0.070642136 0.08230103 0.06544878 0.060564227 -0.07287501 -0.007823676 -0.08646039

lstm.bias_ih_l0 f4 [504]
00000000: a659 2e3d 057f 5cbd 71c7 123d b229 79bc
00000010: 2a1a 40bc 3669 a2b8 02db 883d 07e2 cdbc
00000020: 0f42 fe3c 3ccc 0bbd 36e4 c13c 8223 bdbc
00000030: 6a85 59bc ca8f bb3d 5045 123d db6c 17bc
00000040: 4b10 183d 6106 b13d 25f0 a2bd 4e45 7b3d
00000050: cac0 aabd 2dad 46bd c820 3ebd a33f a23d
00000060: 5df5 a33b f5d1 383c 5438 353d cf04 043d
00000070: 085b 1cbd 1c18 b03d 77cd d7bb 85ef bf3c
00000080: 0369 c23d 1572 aebd 036b e73b 3189 bc3d
00000090: b4f8 273d 09f3 aa3d 27c3 8d3d 08f8 403d
000000a0: 83ac 0dbd 5f72 e3bb 770a a6bd b3c4 783d
000000b0: d94c c43c c5b7 973d 6ae9 ad3d da2b b73c
000000c0: 9990 6bbd 38bf bc3c b930 d8bc 6e3c 94bc
000000d0: 105c b0bc 564f a33c b80c 153d 443b 5abd
000000e0: f5ac 003d 4677 b53d 1a98 a23c 26ae 293d
000000f0: 91e4 c7bb b85b b13c 7046 3dbd 8783 ef3c
00000100: bde0 673d bc25 84bd c0d6 283d 42e7 c83c
00000110: 7bbf cdbc 71f2 983c cf88 1d3d 76b4 ffbc
00000120: 9ff4 0abd e47d 5abd f27b 3e3d 14fe 77bd
00000130: 5f57 963d d449 66bc 0cac 2a3d 22fe 93bd
00000140: ca8e 78bd 662f 08bd b365 51bc 581e 2bbd
00000150: 087f a4bc f411 e83b 4dae 7dbc 0bba 913d
00000160: 56ba ae3d 6c88 aa3c 1503 d43c 5b8b a03d
00000170: cb96 9e3d 8cf9 85bc c0ad ac3d e2e5 ce3c
00000180: 6cc1 0a3b 6800 753d cbe6 483c d16a ac3c
00000190: 85fd 7ebd 6085 c23d a17f c2bc 7086 033d
000001a0: 62e6 603d b00b 5cbd 344b a1bd 154e e3bb
000001b0: 2409 96bc 4559 10ba 5d28 92bc 2d00 a6bd
000001c0: e161 00bd 1d0b 083d 0a58 0dbd 1150 b43d
000001d0: 514d 673b 44e3 ab3d af10 a9bc 8d76 ae3d
000001e0: a49c e73b 58d4 b23d a4a8 2a3d d49f 0b3d
000001f0: ff4f a03d 56f6 2a3d 9b68 e2bc d7a0 20bd
00000200: 8dbb f1bb d741 b73c 0e54 f13c 3967 0f3c
00000210: a218 4c3c 47ff be3d cc2f 583b f811 3f3d
00000220: cb26 993d f802 a5bc cbe1 4dbd d2e7 06bd
00000230: d0e6 183c 334a 9bbc 4ce0 1cbd d47b 843c
00000240: 86c3 51ba 6c7e 493d 657a 853d 9e86 6e3d
00000250: 3b5f 983b 0198 9d3d 9020 95bd c634 aa3d
00000260: 588c ad3c 7af3 81bd 2f97 833d af5c 5e3c
00000270: 5e9b ba3c 475e 903c a6fc aa3d 402e 2abd
00000280: 7f90 77bd d4ff 883d 4d20 793d 75d5 483d
00000290: 0e47 5dbd fed5 903d 001b 2ebd 2c6c 793d
000002a0: 51fe 7ebd 58f1 39bd 9a32 6abd b435 02bc
000002b0: 0bc3 a13d 5c72 4ebd 6c85 9e3d a9a2 743c
000002c0: 01b7 783d 26be 5f3d 3265 653c 4707 4f3d
000002d0: 0215 aa3d 0104 833c ebe8 89bd 8cfa 653c
000002e0: 7bcd e0bc 5b0b cdbc cb25 7a3d d143 803c
000002f0: cfb3 4d3d 1ab2 943d 8a3b 1c3d fb8e 9fbd
00000300: e8bc 773d d8d5 a13c 0935 7d3d 5fb4 1abd
00000310: e76a 643d d99b b83c f510 2a3b d3ee 653c
00000320: c0c9 6a3d f5e4 bb3c 71da a93d 6a2b a03d
00000330: f8a6 b13d 0b8e a5bd 9717 66bd c354 b13d
00000340: 4b12 c53d 2fd2 92bd 12bc d33b 3c11 7c3c
00000350: 7436 9d3d f6ee 7a3d e4cc ea3b 1d9c aa3c
00000360: 238b 823d 8c98 8f3d 7602 11bd 5df2 e93c
00000370: b323 26bd 56bc 893d 3b16 a1bd 6ada b93d
00000380: 86b8 603d e2dc cf3d de99 083d 9776 b9bc
00000390: f876 30bd 2cfc 7ebc 72de 823d 2552 0cbd
000003a0: 6fd4 3dbc 4647 033c f7fb e0bc 54ca 933d
000003b0: 23cf 35bd 4f2e 8a3d 10ab af3d d065 983c
000003c0: 23db 92bb 093a 31bd 472f 55bd b35f 8ebd
000003d0: 3e73 aa3d b98a 2b3d 9ed4 913d 0178 fcbc
000003e0: 991a 713d e152 893d 0bcb 913b c4de 74bd
000003f0: 4812 b93d bb9f 60bd 6584 76bd 0f61 6a3c
0.042565964 -0.053832073 0.035834733 -0.015207695 -0.011724988 -7.744359e-05 0.066823974 -0.025132192
0.031037359 -0.03413032 0.02366839 -0.02308822 -0.013276437 0.09158285 0.035710633 -0.009242262
0.037124913 0.08643795 -0.0795596 0.06134539 -0.08337553 -0.048504997 -0.04641798 0.07922294
0.005003615 0.011280526 0.04424317 0.03223115 -0.03817275 0.085983485 -0.0065857726 0.023429642
0.09492686 -0.08517853 0.0070623173 0.09205855 0.041008666 0.083471365 0.06921988 0.04711154
-0.034588348 -0.0069411243 -0.08107465 0.060734462 0.023962425 0.07408098 0.08491786 0.022359777
-0.057510946 0.023040399 -0.02639042 -0.018095221 -0.021528274 0.019935291 0.036389083 -0.053279176
0.031414945 0.0886064 0.019847918 0.041425847 -0.0061002453 0.02165018 -0.046209753 0.029237522
0.05661081 -0.0645251 0.041220427 0.024524335 -0.025115719 0.018670293 0.03846055 -0.03121398
-0.033924695 -0.053342715 0.046504922 -0.060545042 0.073408835 -0.014055688 0.041667983 -0.07226206
-0.06068305 -0.033248328 -0.012780595 -0.041776985 -0.020080104 0.0070822183 -0.015483451 0.07115563
0.085316345 0.020817004 0.025880376 0.0783908 0.07743605 -0.016354345 0.08431578 0.025256101
0.0021172417 0.05981484 0.012262057 0.021047028 -0.062253494 0.094980955 -0.023742499 0.03211063
0.05490721 -0.053722084 -0.07875672 -0.0069367983 -0.018314905 -0.0005506466 -0.017841512 -0.08105502
-0.031343345 0.033213723 -0.03450779 0.08804334 0.0035293887 0.08392957 -0.020637838 0.085187055
0.0070682336 0.087319076 0.041664734 0.03408797 0.07827758 0.04173883 -0.02763777 -0.03921589
-0.007377094 0.022370262 0.029459026 0.008752638 0.012457045 0.09326034 0.0032987474 0.046647996
0.07478102 -0.020143017 -0.05026416 -0.032935925 0.009332374 -0.01895628 -0.038299844 0.016172327
-0.00080018525 0.04919283 0.065174855 0.05823385 0.004650024 0.07695008 -0.072816014 0.08310847
0.021185085 -0.063452676 0.0642532 0.013571902 0.022779163 0.01762308 0.0834897 -0.041548014
-0.060440537 0.0668942 0.06082182 0.049031693 -0.05402284 0.07072066 -0.042506218 0.060894176
-0.062254254 -0.04539618 -0.057177164 -0.007947374 0.078985296 -0.05040203 0.07740292 0.014931359
0.0607214 0.0546247 0.014001178 0.05054405 0.08304788 0.01599312 -0.06733879 0.014036786
-0.02744173 -0.025029829 0.0610712 0.015657337 0.050220307 0.07260533 0.03814272 -0.07790943
0.06048289 0.019755289 0.061818156 -0.03776967 0.055766013 0.022535251 0.0025950049 0.014033991
0.05732131 0.022936324 0.082936175 0.078207806 0.08674425 -0.08083733 -0.05617484 0.08658745
0.0962263 -0.071689956 0.0064616287 0.015384968 0.07676402 0.061263047 0.007165538 0.020826394
0.063741945 0.07011518 -0.035402738 0.02855795 -0.04056139 0.06725375 -0.07865568 0.09074862
0.054863475 0.10149552 0.033349864 -0.022639556 -0.043082207 -0.015563052 0.06390084 -0.034258027
-0.011586293 0.008012598 -0.027463896 0.072163254 -0.044386994 0.06747114 0.085775495 0.018603235
-0.0044816895 -0.043268237 -0.05204704 -0.06951847 0.08322762 0.041880343 0.07120632 -0.030818941
0.058863256 0.06705261 0.0044492534 -0.05978276 0.0903669 -0.05483983 -0.060184855 0.014305367

lstm.bias_hh_l0 f4 [504]
00000000: eee3 1ebc f374 a43b a4ae 36bd 8a98 6bbc
00000010: e96c c7bc 4b31 b53d f4d1 a33d 76fb 03bd
00000020: 4694 df3c 22c1 2abc 4917 b03c 4021 2fbc
00000030: 75ce a13d 3863 a8bd 7b8e b53d ed46 a83c
00000040: 5751 82bc 7cb0 343d 2c15 e2bc 2ece 29bd
00000050: d01f 9c3d 4eec 963d a219 753c 0177 3a3d
00000060: a9e9 0a3d e347 6fbd 8b7b 22bd 6e4d ae3d
00000070: 0ab3 32bb e71f 17bd e1c6 503d 34a3 713d
00000080: f342 6ebd 9af5 6abc 057c b33d aca5 5d3d
00000090: 0b60 71bb 3fdb 54bd 5917 5abd 7f26 48bd
000000a0: 615f 423c 13c9 89bd 0c94 61bd 30c1 753c
000000b0: 2a67 13bd 890b 64bd 06e4 f43c c4b8 3f3d
000000c0: 8c22 ad3d abcb 23bd de5f 4a3d 7c3c ab3d
000000d0: 86ad 7dbc 9e6e 18bd 65a1 2f3d 3771 b03d
000000e0: ed33 143d 24a6 c5bb 951f 42bd f382 7fbc
000000f0: 1ea8 04bd ae1e aebd 3b6d b53d 2e49 103c
00000100: 823a cebc 9864 013d 6108 ed3c 039d c1ba
00000110: e438 cabb cb86 8ebd 248b 6e3d f826 233c
00000120: 85ad 9c3d 14f0 77bd f365 693d fcd6 6abd
00000130: 9132 353d cc1f ae3d a03f 74bd 631b a63d
00000140: 5566 e73b cb58 d8bc 6bfa 8839 fd8d f13c
00000150: 7bd1 603d ff73 ab3d 10e3 ac3c 8c85 243d
00000160: 7980 373d 129a 59bd 3231 ba3d bdf7 d7bb
00000170: ae64 603d cd68 2cbd 728b 573d 6afb 9ebc
00000180: c323 04bd e6da 7fbd 6a1c 8cbd e32b f8bc
00000190: e24e 9d3d 9318 7f3d b87b 6c3d c6ac 023d
000001a0: b6b0 d0bc 6956 903d 4f12 48bd d435 963d
000001b0: e53b 6a3d 8d9f f4bc 40cf 7a3d b718 95bd
000001c0: e9ad 04bd 3009 7f3d 9dd1 6f3d c564 b03c
000001d0: 1718 76bd 7078 2d3d b5de c43d dfb6 9c3d
000001e0: 690b f8bb 2e6b a3bd 45ce 003d 598c a6bc
000001f0: ee3d 30bd e910 febb 86fe ae3d 1205 a33d
00000200: b9b9 01bd d4b7 dc3c 8f80 51bd 556c b23d
00000210: 1e95 bf3d 9a12 c73d f203 4d3d 52ef 4f3b
00000220: 3588 953d 9242 89bd 4226 1d3d 61cb c63d
00000230: 9aed a53c 1826 8f3c 6232 83bc 24d5 b13c
00000240: 3ad6 38bd c295 b63d 32f5 69bd 3cdc 86bc
00000250: c243 c4bc f9ea 56bc d932 39bc a6f0 6e3d
00000260: f4ea 25bb a609 a63d 3b8e c93d 60eb 773c
00000270: 6bb5 ae3d 4286 4ebc afa8 2c3d 1e83 1fbd
00000280: 8abd 49bd 05d2 92bd 432d e6bc e85a 65bd
00000290: 5685 45bc ba0d 0b3d ead3 1ebd e131 133a
000002a0: 07bd 113d 1207 0a3c 1f10 63bd defb 86bd
000002b0: acd0 a5bd f17b ecbc 336d 453d 700f 5d3c
000002c0: b125 623d a4b2 1fbd 5cd6 223c 66eb 26bc
000002d0: 648b 9e3d dba4 273d 9892 b3bd c956 23bd
000002e0: 28eb 553d 0b14 6f3d 9209 663c 4afb 183c
000002f0: 298a 7e3d 4980 a8bd ae43 bd3d 72e4 27bd
00000300: 6390 673d ef33 563d f96b 74bd 665e 52bd
00000310: cfef 6ebd a64f a3bc 3f4e b13d fb86 8fbd
00000320: 8850 bfbc 693d b83d 4a2e 28bd 48c3 35bc
00000330: 6dfd 0ebc 10b7 ab3c e88c 093d 0b24 58bd
00000340: d755 a13d 8ae8 193c c88b 5ebd b80d 11bd
00000350: 443a 9f3d ab88 85bd 9aef 193b f7c3 13bc
00000360: 1e4a a8bc 4715 373d 7324 5fbc 4bb9 193d
00000370: b470 7fbd 75a6 dd3c 4478 103d f858 8f3d
00000380: fac9 27bd 9bdc 55bc 14ca 573d 439d 46bc
00000390: 4c4d ca3d 83f8 0ebd 40c3 803d 1d13 793d
000003a0: b64e 84bd 3b04 3dbd 6eec 2dbd c846 cd3c
000003b0: 23ee b33d c0ce 1cbc 51e3 c93d 44b8 ce3d
000003c0: 70a9 4f3d 1b62 253d 49f1 40bd dbec fc3c
000003d0: 4ac0 4e3d 727c 10bd 3e6a d7bc d6d6 513d
000003e0: 1c65 873d 356f 263d df11 1a3d 630e 163d
000003f0: bd7f adbd 3668 fb3c 9d0c 3ebd 742c 18bd
-0.009697897 0.0050188242 -0.044600144 -0.01437963 -0.024343925 0.088472925 0.0799903 -0.032222234
0.027292382 -0.010422023 0.021495478 -0.01068908 0.07900707 -0.082220495 0.088650666 0.020541633
-0.015907926 0.04411362 -0.027597986 -0.041456394 0.07623255 0.0736929 0.014959725 0.045523647
0.033914242 -0.058418166 -0.0396686 0.08510862 -0.002726736 -0.03689566 0.050970916 0.058993533
-0.058169317 -0.014340783 0.08763889 0.054113075 -0.0036830928 -0.051966902 -0.053244922 -0.048864838
0.01186356 -0.06727805 -0.05507283 0.014999673 -0.035987057 -0.055675063 0.029893886 0.046807066
0.08453855 -0.039989155 0.049407832 0.08361146 -0.015483266 -0.037214868 0.042878527 0.08615344
0.036182333 -0.0060317684 -0.0473934 -0.015595186 -0.03238689 -0.085019454 0.08858725 0.00880651
-0.025174383 0.031590074 0.02893466 -0.0014771525 -0.0061713327 -0.069593035 0.058238164 0.009958021
0.07650284 -0.06053169 0.056981992 -0.05733393 0.044237677 0.085021585 -0.05963099 0.08110692
0.0070617595 -0.026409527 0.00026126517 0.02948665 0.054887276 0.08371734 0.021104366 0.040166423
0.044800255 -0.05312545 0.090914145 -0.006590812 0.054783516 -0.042092133 0.05262322 -0.019406993
-0.032260668 -0.062464617 -0.06841357 -0.030294364 0.07681061 0.062279295 0.057735175 0.03190305
-0.025474887 0.070477314 -0.048845585 0.07334486 0.057186026 -0.029861236 0.061232805 -0.072801046
-0.032392416 0.06226462 0.058549512 0.021532426 -0.060081568 0.042351186 0.096127905 0.076520674
-0.0075697196 -0.07979427 0.031446714 -0.020330595 -0.04302781 -0.0077534807 0.0854464 0.079599515
-0.03167126 0.026943125 -0.051147994 0.08712069 0.09354614 0.09720345 0.05005259 0.003172834
0.0730137 -0.067021504 0.038366564 0.0970676 0.020254899 0.01747422 -0.016015235 0.021708079
-0.045126177 0.08915283 -0.057118602 -0.016462438 -0.02395809 -0.013117545 -0.011303627 0.05833497
-0.0025317045 0.08107309 0.098415814 0.015131801 0.085306965 -0.012605252 0.042153057 -0.038943402
-0.049253024 -0.07168964 -0.028097754 -0.055994898 -0.012055716 0.033948638 -0.038776316 0.00056150375
0.03558066 0.008424537 -0.055435296 -0.065910086 -0.080964416 -0.028867694 0.048199844 0.01349245
0.055211727 -0.038988724 0.009938803 -0.010187959 0.077414304 0.040928703 -0.08768195 -0.039877687
0.052226216 0.058368724 0.014040368 0.009337256 0.06214348 -0.082275935 0.092414245 -0.040989347
0.056534182 0.05229562 -0.059673283 -0.051359557 -0.058334168 -0.01993544 0.086575024 -0.07008167
-0.02335383 0.08996088 -0.04105977 -0.011093922 -0.008727414 0.020961314 0.033581644 -0.05276875
0.07877701 0.009393821 -0.054332525 -0.035413474 0.07774785 -0.06520208 0.002348876 -0.00901889
-0.020543154 0.044698026 -0.01361953 0.037530225 -0.06236334 0.027056912 0.035270944 0.06999391
-0.040964104 -0.013053085 0.05268295 -0.012122455 0.098780245 -0.034904968 0.06287241 0.060809243
-0.064603254 -0.046146613 -0.042461805 0.025058165 0.08785655 -0.009570777 0.0985781 0.1009374
0.050698698 0.040376764 -0.047105107 0.03087466 0.05047635 -0.03527493 -0.026295777 0.051230274
0.06611082 0.0406334 0.0376147 0.036634814 -0.0847163 0.03068934 -0.046398748 -0.03715177
