surrogate/run/train/routing/saves/train-test2/mulres/lake/state_dict.pt (torch, 534351 bytes, 8 tensors)

pre_sequence.0.weight f4 [126, 34]
-0.053897023 0.033824082 0.037879962 0.005515186 0.066531055 -0.057035353 0.16199927 0.11552137
-0.14634211 0.033141404 0.04808587 -0.16597393 -0.08284057 -0.07678244 0.14586185 0.12105373
-0.10527192 0.087081484 0.16300794 -0.035671707 0.1385809 -0.05242296 0.15918247 0.038357023
0.08750125 -0.11046021 0.1076937 0.026903285 -0.10698972 0.17168124 0.18244186 0.042216722
0.13582018 0.052485347 -0.15741873 0.10710073 0.14774184 -0.094719775 0.021831747 -0.12817113
0.050350714 -0.024601977 0.08685299 -0.0804492 -0.16355564 -0.10163497 -0.040009297 -0.04274811
-0.07289119 -0.06468094 0.13642526 0.13170023 0.15645462 -0.103312075 -0.07181461 -0.10969368
0.00024480786 0.17229636 -0.0086384155 -0.05148971 0.07887878 0.084990166 0.009310708 -0.0955085
-0.045549005 0.12899835 0.03720507 0.063054204 -0.033563294 0.09957906 0.041395616 0.1102425
-0.07308913 0.042779345 0.12095042 -0.045364656 0.06479526 -0.012954004 -0.16634849 0.06656068
0.06056283 0.09581191 -0.15936327 0.13685215 -0.118864685 -0.046516176 0.11406617 0.036220007
-0.16625375 -0.07191141 0.027130852 0.07335724 -0.09098437 -0.0015907545 -0.1381365 -0.1659168
-0.039411847 -0.14117692 -0.14174008 -0.12206283 0.098912515 0.04270389 -0.13240191 -0.13295405
-0.07330806 0.04582215 -0.14911002 0.14099813 0.030794466 0.04409133 0.012697856 0.14218064
0.07373884 0.0744236 -0.1229817 0.14370757 0.09733762 0.004050788 0.09124982 -0.18176469
-0.050931226 -0.15014534 -0.015575139 0.07527978 0.12572017 0.0985659 0.080033235 0.1179046
0.16550884 -0.02650054 -0.045073614 0.07069974 -0.06269507 0.064260684 -0.12346754 -0.009570739
0.058615535 0.10612625 -0.05349458 0.17170392 -0.09880767 0.027625874 0.011477425 -0.09141761
0.007953652 -0.12171575 0.13396983 -0.033179544 -0.110122494 0.07701135 -0.17792772 -0.070274584
0.08241258 0.06372256 0.11960405 -0.13959588 0.09906673 -0.04984507 -0.12126568 -0.08210823
-0.06834322 -0.006032528 0.11095045 -0.053272247 0.17946611 0.090445146 0.033239976 0.003064305
-0.1865014 -0.0076378803 -0.026112719 -0.1610338 -0.13389564 0.004147426 0.05757833 -0.0357246
-0.032420598 0.01355359 -0.12526454 0.15205435 0.11937445 0.14932542 -0.16263853 0.13722685
0.09375479 -0.08952788 -0.12258722 -0.06234208 0.17840055 -0.12520248 0.0054446734 -0.08030248
0.17824912 -0.14089905 -0.04741634 0.031865742 0.027073164 0.03898254 -0.121636786 0.14745322
0.008846696 0.080997266 0.16190447 -0.1643914 0.037585847 -0.053876586 0.014114261 0.17705876
0.11104436 0.0872663 0.04592897 -0.09755492 -0.109612815 -0.081059374 0.06670683 0.07360566
-0.0074518 -0.15879826 0.02769781 0.035521932 -0.106676236 -0.061766557 0.12628207 -0.071332864
0.07384361 0.036399417 0.047174186 0.13781357 0.14382677 -0.16792747 0.029836252 -0.0040788758
0.17512196 0.15705872 -0.15988548 0.13922983 -0.0758358 -0.04448956 -0.010906286 -0.012696353
0.12206322 -0.048130423 -0.11824994 -0.007893228 -0.15416053 0.06692794 0.07138463 0.12294646
-0.040602095 0.1594496 -0.16416362 0.17233104 -0.040441275 0.019097898 -0.032704808 0.12803152
00000000: 20c3 5cbd 1f8b 0a3d 0528 1b3d bcb8 b43b
00000010: 6f41 883d e79d 69bd 23e3 253e 7896 ec3d
00000020: b5da 15be 48bf 073d b0f5 443d 12f5 29be
00000030: 51a8 a9bd 1d40 9dbd cf5c 153e 05eb f73d
00000040: ce98 d7bd c757 b23d 8eeb 263e 7f1c 12bd
00000050: 27e8 0d3e 75b9 56bd bb00 233e 411c 1d3d
00000060: db33 b33d f638 e2bd 848e dc3d 4764 dc3c
00000070: 6d1d dbbd 35cd 2f3e 0ad2 3a3e 71eb 2c3d
00000080: 7214 0b3e e0fa 563d 6032 21be a157 db3d
00000090: a349 173e 71fc c1bd 7ed8 b23c 4b3f 03be
000000a0: 8d3c 4e3d 168a c9bc fbdf b13d 8dc2 a4bd
000000b0: 217b 27be ff25 d0bd cae0 23bd a418 2fbd
000000c0: fa47 95bd 7177 84bd 10b3 0b3e 6ddc 063e
000000d0: a435 203e 4895 d3bd 8a13 93bd 15a7 e0bd
000000e0: 8e59 8039 756e 303e 2488 0dbc e0e6 52bd
000000f0: 338b a13d 530f ae3d f18b 183c f699 c3bd
00000100: 9891 3abd 2518 043e 5864 183d 9022 813d
00000110: aa79 09bd 1bf0 cb3d 738e 293d d2c6 e13d
00000120: c1af 95bd 6539 2f3d dbb4 f73d 4ad0 39bd
00000130: 61b3 843d 083d 54bc 4257 2abe f750 883d
00000140: bb10 783d 0939 c43d 2030 23be f822 0c3e
00000150: 546f f3bd bf87 3ebd 869b e93d 6e5b 143d
00000160: 6c3e 2abe 4a46 93bd 8541 de3c 523c 963d
00000170: 0356 babd dd80 d0ba a873 0dbe 18e6 29be
00000180: 516e 21bd af90 10be 5024 11be 14fc f9bd
00000190: a592 ca3d 46ea 2e3d 5e94 07be 1b25 08be
000001a0: 8922 96bd 02b0 3b3d 4cb0 18be d061 103e
000001b0: ad44 fc3c 1c99 343d ab0a 503c cd97 113e
000001c0: 6404 973d 676b 983d d4dd fbbd 1428 133e
000001d0: f258 c73d 79bc 843b 30e1 ba3d 8620 3abe
000001e0: 439d 50bd b3bf 19be de2e 7fbc 492c 9a3d
000001f0: cabc 003e ebdc c93d 77e8 a33d f877 f13d
00000200: 267b 293e a917 d9bc 1c9f 38bd 06cb 903d
00000210: 4666 80bd 1b9b 833d 8ddc fcbd 97ce 1cbc
00000220: d816 703d b858 d93d 221d 5bbd 27d3 2f3e
00000230: ad5b cabd a84f e23c cf0b 3c3c 2839 bbbd
00000240: 0950 023c 1b46 f9bd 632f 093e 46e7 07bd
00000250: e787 e1bd 20b8 9d3d af32 36be 1fec 8fbd
00000260: edc7 a83d f980 823d f8f2 f43d 39f2 0ebe
00000270: 7fe3 ca3d 582a 4cbd 245a f8bd 5c28 a8bd
00000280: 88f7 8bbd 83ac c5bb fd39 e33d 0034 5abd
00000290: f7c5 373e 4e3b b93d a426 083d 82d2 483b
000002a0: 39fa 3ebe 2f47 fabb 57ea d5bc 0be6 24be
000002b0: f01b 09be 22e7 873b 41d7 6b3d f553 12bd
000002c0: 76cb 04bd e00f 5e3c 5945 00be 23b4 1b3e
000002d0: 977a f43d c3e8 183e b78a 26be 3285 0c3e
000002e0: 8302 c03d 655a b7bd 020f fbbd 695a 7fbd
000002f0: a2ae 363e 1435 00be 3b69 b23b a075 a4bd
00000300: f086 363e d747 10be a337 42bd a785 023d
00000310: 8ac8 dd3c 28ac 1f3d b51c f9bd fafd 163e
00000320: bbf1 103c e5e1 a53d 49ca 253e 3856 28be
00000330: 9ef3 193d b2ad 5cbd 803f 673c e44e 353e
00000340: 3a6b e33d adb8 b23d 0420 3c3d e0ca c7bd
00000350: af7c e0bd 7502 a6bd 979d 883d 90be 963d
00000360: 3b2e f4bb 039c 22be 85e6 e23c 727f 113d
00000370: 1279 dabd eefe 7cbd 1650 013e f716 92bd
00000380: 523b 973d 8e17 153d b839 413d 001f 0d3e
00000390: 5347 133e 2ef5 2bbe 286b f43c 17a8 85bb
000003a0: 2c53 333e 00d4 203e 05b9 23be 4492 0e3e
000003b0: cd4f 9bbd af3a 36bd 47b0 32bc 5d04 50bc
000003c0: 48fc f93d 6824 45bd 062d f2bd 9952 01bc
000003d0: 42dc 1dbe 8411 893d 1b32 923d 5bcb fb3d
000003e0: 624e 26bd c246 233e 821a 28be 8c77 303e
000003f0: c0a5 25bd 3273 9c3c 7af5 05bd b21a 033e

pre_sequence.0.bias f4 [126]
0.1306322 0.13836402 0.11702817 -0.10279838 0.05999884 0.19531406 -0.054643795 0.13367538
0.11795298 0.054797873 0.060618386 0.16167426 0.05872093 0.11311884 0.06774865 0.090671495
-0.05942758 -0.15757121 0.1616011 0.17310928 -0.045761645 0.019291658 0.062102284 0.107700445
0.13694958 0.105460465 -0.008738682 -0.0800933 -0.16466199 0.11279168 0.12838209 -0.039907638
-0.07812305 -0.031062976 -0.038677532 0.051855072 0.024903653 0.014807325 0.011588235 -0.11549909
0.09953099 0.09088827 0.106447175 -0.019591823 -0.07853999 0.12049292 -0.055366848 -0.06062708
0.17031115 -0.089698195 0.10631477 0.099308364 -0.1676438 0.04043933 -0.015456258 0.05503556
-0.14144972 0.03096762 -0.14963037 -0.06897477 -0.14974931 -0.0405115 -0.16856809 0.044741362
0.08279301 0.11376391 0.15560965 0.07400539 0.12247248 -0.07479866 0.11076378 -0.14483437
0.10788696 0.14916049 0.15328619 -0.03264064 -0.016510913 -0.03219403 0.09835151 -0.14197263
0.018640136 -0.06379468 0.03361242 -0.15232709 -0.13203306 -0.120691985 0.007364417 -0.003107501
-0.1435712 0.15771368 -0.14801055 0.14399996 0.15126583 -0.04105167 -0.12920046 -0.04403643
-0.07333738 -0.064703874 0.122034825 0.005680982 -0.108821414 -0.12075939 -0.084609784 -0.14677437
-0.07547769 -0.15512766 -0.08229046 0.10098423 -0.11193633 0.07848313 0.091838144 0.14185989
-0.13575464 0.00017749015 -0.027153308 -0.018487297 0.05461619 0.082012124 0.06857999 0.087090336
0.1507417 0.1368121 0.10244219 -0.08603912 0.17505787 0.102202006
00000000: 73c4 053e 4caf 0d3e 77ac ef3d f587 d2bd
00000010: 58c1 753d 6900 483e 2cd2 5fbd 33e2 083e
00000020: 5591 f13d bc73 603d fc4a 783d f08d 253e
00000030: 5c85 703d daaa e73d cebf 8a3d fab1 b93d
00000040: 566a 73bd 595a 21be c27a 253e 8f43 313e
00000050: 9070 3bbd 8a09 9e3c f75e 7e3d 0d92 dc3d
00000060: 833c 0c3e a8fb d73d b02c 0fbc f507 a4bd
00000070: 279d 28be 53ff e63d 9876 033e 3176 23bd
00000080: fafe 9fbd c877 febc 556c 1ebd fc65 543d
00000090: bf02 cc3c 6c9a 723c 95dc 3d3c c98a ecbd
000000a0: e7d6 cb3d a123 ba3d fa00 da3d 087f a0bc
000000b0: 93d9 a0bd fec4 f63d 59c8 62bd 1a54 78bd
000000c0: 0c66 2e3e b0b3 b7bd 8fbb d93d 2f62 cb3d
000000d0: d1aa 2bbe b6a3 253d 3f3c 7dbc f86c 613d
000000e0: 32d8 10be ceaf fd3c b438 19be a542 8dbd
000000f0: e257 19be 63ef 25bd 1d9d 2cbe b842 373d
00000100: 628f a93d 0efd e83d 2358 1f3e 2390 973d
00000110: dad2 fa3d 0a30 99bd 1fd8 e23d 764f 14be
00000120: d7f3 dc3d 87bd 183e 0ef7 1c3e 31b2 05bd
00000130: e541 87bc e3dd 03bd 846c c93d 4661 11be
00000140: 33b3 983c c9a6 82bd 2dad 093d a2fb 1bbe
00000150: ad33 07be 5c2d f7bd 3551 f13b 37a7 4bbb
00000160: 5404 13be b27f 213e 1490 17be ba74 133e
00000170: 6ee5 1a3e cc25 28bd 204d 04be 8b5f 34bd
00000180: e931 96bd 7783 84bd 65ed f93d 8827 ba3b
00000190: c3dd debd b350 f7bd e547 adbd 054c 16be
000001a0: 0c94 9abd c9d9 1ebe e787 a8bd d2d0 ce3d
000001b0: e03e e5bd c3bb a03d a315 bc3d b843 113e
000001c0: 4403 0bbe a61c 3a39 9d70 debc ac72 97bc
000001d0: 3ab5 5f3d f9f5 a73d aa73 8c3d 6b5c b23d
000001e0: 085c 1a3e 7918 0c3e 36cd d13d 4735 b0bd
000001f0: 5f42 333e 494f d13d

post_sequence.1.weight f4 [4, 126]
-0.044754066 0.07830814 0.07892455 0.0017762597 -0.02858651 0.058523804 -0.023609245 -0.027734736
0.061078288 -0.0016967827 -0.0926554 0.023195947 0.025877612 0.0329841 -0.08667079 -0.0763767
0.029389264 0.02979408 0.030633166 0.066240765 -0.07521855 0.03833615 0.08866045 0.055721615
-0.027447289 -0.045386042 0.04419637 0.06651246 -0.01859986 0.07736812 0.046408076 -0.09899887
0.022627909 -0.06638436 -0.060719043 0.05203024 0.107936844 0.0441484 0.049787525 0.0608217
0.018721957 -0.09301522 0.046783082 0.052559886 0.019371077 0.039122485 -0.04521055 0.057800584
0.022583023 -0.0858855 0.056116108 0.07261543 -0.084570326 0.0036878493 -0.015645023 0.03550651
0.02703578 -0.038706373 -0.022264298 -0.042724673 0.07617567 -0.089447215 -0.063386165 -0.017735101
-0.005564692 -0.09976328 -0.072120085 -0.0633638 0.08245632 -0.09743253 -0.04575147 0.06814143
0.061971914 0.036868826 0.060962733 0.06401448 -0.07121753 -0.040559735 -0.08689942 -0.025212456
-0.058833193 0.039063927 -0.069474354 -0.0330387 0.047059964 0.041833777 0.00671433 0.08074021
-0.052501395 -0.11104622 0.02104071 -0.09084168 -0.028021295 0.036529098 -0.08932388 -0.06046862
0.10010199 0.048327167 -0.022056853 -0.0687843 -0.06292514 0.070682675 -0.021035653 -0.09190734
-0.09244622 -0.10092393 -0.056711208 0.09079777 -0.014598045 0.025485225 0.04284333 -0.037952434
-0.031626705 0.024003996 0.02279514 0.07241287 0.050915472 -0.106765084 0.043559935 0.0017073532
0.05529155 -0.028294217 -0.092191 -0.06694891 -0.09204684 0.015772326 -0.10190695 0.05263165
-0.055468224 0.10415927 -0.095808744 0.053207718 -0.084561266 0.06025499 -0.043993883 0.09632326
0.037957802 -0.039467875 0.05713007 -0.067999884 0.04370974 -0.04317693 0.09438468 -0.06145499
0.08587281 0.0077695413 -0.0552178 0.06846408 0.08998082 0.016192673 0.09816732 -0.047746472
0.07318226 0.035525378 -0.10775098 0.06631643 0.052634895 -0.036536854 -0.01649461 0.0978753
-0.08341551 0.0503695 0.050965343 0.05660243 -0.06405143 0.105834834 0.103187785 -0.1070903
0.035648543 -0.018475832 0.007042894 0.10192112 0.04554795 -0.027258068 0.06124386 0.051674712
-0.059758574 -0.060620267 -0.04235309 -0.09062698 0.10219989 0.102505624 0.10465558 0.09509647
0.063980594 -0.06426986 -0.034616947 -0.019268151 -0.011921765 -0.04678942 -0.07487999 -0.11220304
-0.022202436 0.011937573 0.073129475 -0.105803825 0.0163069 0.09043936 -0.03210675 -0.04461195
-0.036032334 -0.089094944 -0.09029734 -0.07373138 -0.07651254 -0.093503214 0.018458499 0.053543974
0.08829581 0.03537935 0.0011046977 0.08620889 0.050786044 -0.053975828 0.08048695 0.05763869
-0.06961293 -0.029293202 -0.038565658 0.110631265 0.04787731 0.054954533 0.06628099 0.06954219
0.037328634 -0.016673451 -0.08549945 -0.015003229 -0.104070984 0.04981958 0.03316113 -0.019760765
-0.07713961 -0.000661053 -0.08524239 0.013346592 -0.03488787 -0.074757986 0.032243382 -0.11316261
-0.09061137 0.040637143 -0.023131924 -0.10603085 0.10346176 -0.032479115 0.04782811 0.03744998
-0.026109455 -0.092748344 0.045205828 0.033131164 -0.05550562 0.118613034 0.07817222 0.10497937
00000000: 0a50 37bd 0560 a03d 32a3 a13d 63d1 e83a
00000010: 422e eabc a8b6 6f3d 2d68 c1bc f533 e3bc
00000020: 3a2d 7a3d 9466 deba 1dc2 bdbd 6d05 be3c
00000030: 49fd d33c 561a 073d 7580 b1bd 636b 9cbd
00000040: c1c1 f03c b712 f43c 68f2 fa3c 3da9 873d
00000050: 2f0c 9abd 5e06 1d3d 9c93 b53d 593c 643d
00000060: 23d9 e0bc b7e6 39bd 4107 353d af37 883d
00000070: bc5e 98bc 2d73 9e3d 6516 3e3d ebbf cabd
00000080: 2a5e b93c 86f4 87bd 88b4 78bd a91d 553d
00000090: fe0d dd3d f4d4 343d 01ee 4b3d 2d20 793d
000000a0: ca5e 993c c37e bebd 9e9f 3f3d 0949 573d
000000b0: 18b0 9e3c e63e 203d b32e 39bd 4ec0 6c3d
000000c0: 0800 b93c bde4 afbd 01da 653d 66b7 943d
000000d0: 3533 adbd d8af 713b fe29 80bc 466f 113d
000000e0: 247a dd3c 938a 1ebd 9e63 b6bc 1100 2fbd
000000f0: fd01 9c3d 1a30 b7bd 9bd0 81bd 3449 91bc
00000100: 0558 b6bb b150 ccbd b2b3 93bd e1c4 81bd
00000110: dcde a83d b58a c7bd e565 3bbd bc8d 8b3d
00000120: 43d6 7d3d c403 173d 0fb4 793d 061a 833d
00000130: 7fda 91bd f721 26bd 53f8 b1bd 5a8a cebc
00000140: 13fb 70bd 7f01 203d 9248 8ebd 9753 07bd
00000150: f3c1 403d e559 2b3d e203 dc3b 205b a53d
00000160: b40b 57bd 336c e3bd 915d ac3c 340b babd
00000170: ea8c e5bc 899f 153d 70ef b6bd f2ad 77bd
00000180: 4602 cd3d b5f2 453d 93b0 b4bc c8de 8cbd
00000190: e5de 80bd 14c2 903d f652 acbc ea39 bcbd
000001a0: 7254 bdbd 35b1 cebd 034a 68bd 2ef4 b93d
000001b0: a32c 6fbc 64c6 d03c 7d7c 2f3d 0374 1bbd
000001c0: 018b 01bd 07a4 c43c e0bc ba3c 334d 943d
000001d0: be8c 503d a7a7 dabd e76b 323d 44c9 df3a
000001e0: 6479 623d 46c9 e7bc a3ce bcbd 831c 89bd
000001f0: 0e83 bcbd f734 813c 97b4 d0bd 4994 573d
00000200: a632 63bd 7551 d53d 6037 c4bd 56f0 593d
00000210: 752e adbd f0cd 763d ee32 34bd 2145 c53d
00000220: a479 1b3d 11a9 21bd 3801 6a3d 8643 8bbd
00000230: fc08 333d 4bda 30bd c14c c13d 3ab8 7bbd
00000240: 15de af3d a397 fe3b 0f2c 62bd e536 8c3d
00000250: dd47 b83d 7fa6 843c f30b c93d ce91 43bd
00000260: 95e0 953d 0f83 113d 8cac dcbd e9d0 873d
00000270: b097 573d aba7 15bd b41f 87bc d872 c83d
00000280: c0d5 aabd 4050 4e3d 09c1 503d f3d7 673d
00000290: 652d 83bd efbf d83d 1e54 d33d 2952 dbbd
000002a0: 3504 123d a15a 97bc 14c8 e63b 05bc d03d
000002b0: 7d90 3a3d 504c dfbc d7da 7a3d dda8 533d
000002c0: 68c5 74bd f54c 78bd 6f7a 2dbd a39a b9bd
000002d0: 2d4e d13d 78ee d13d aa55 d63d f0c1 c23d
000002e0: 4208 833d eb9f 83bd 80ca 0dbd 3ed8 9dbc
000002f0: 8253 43bc 43a6 3fbd ae5a 99bd b5ca e5bd
00000300: e2e1 b5bc cf95 433c e8c4 953d adaf d8bd
00000310: 0c96 853c 4538 b93d 5e82 03bd 05bb 36bd
00000320: a496 13bd 6977 b6bd d0ed b8bd 7a00 97bd
00000330: 9bb2 9cbd 9d7e bfbd 4736 973c ed50 5b3d
00000340: 6fd4 b43d f0e9 103d 81cb 903a 498e b03d
00000350: 0705 503d c215 5dbd 58d6 a43d 8c16 6c3d
00000360: 3991 8ebd 4cf8 efbc 06f7 1dbd a592 e23d
00000370: 001b 443d 0118 613d 54be 873d 236c 8e3d
00000380: e9e5 183d c396 88bc 561a afbd 1ad0 75bc
00000390: 2b23 d5bd 9e0f 4c3d f7d3 073d 54e1 a1bc
000003a0: 5ffb 9dbd 844a 2dba 9093 aebd aaab 5a3c
000003b0: 95e6 0ebd b71a 99bd a311 043d ccc1 e7bd
000003c0: 7492 b9bd 2273 263d 297f bdbc b426 d9bd
000003d0: c2e3 d33d d208 05bd 69e7 433d 2665 193d
000003e0: 7fe3 d5bc d8f2 bdbd bf29 393d 8bb4 073d
000003f0: dc59 63bd 64eb f23d c218 a03d 6dff d63d

post_sequence.1.bias f4 [4]
-0.023312323 0.03097798 0.045490496 -0.021387838
00000000: 7cf9 bebc 88c5 fd3c 3e54 3a3d 8c35 afbc

lstm.weight_ih_l0 f4 [504, 126]
-0.009668636 -0.060984965 -0.002501879 0.07703292 0.022239832 -0.08825011 0.044092316 -0.05680503
0.036428366 0.076504424 -0.04721145 0.002334614 0.0021024672 -0.016374467 0.10349342 0.06166263
-0.040846124 0.0832127 -0.058997106 -0.059878398 -0.06555589 -0.010554488 0.079005435 -0.04739149
0.0428131 0.06431216 -0.01577906 -0.00012979639 0.083206214 -0.048006043 -0.0025511156 -0.0120977955
0.0777624 0.055101633 0.032396693 -0.06033978 0.02645571 -0.057602923 -0.029312871 -0.02329585
-0.078504756 0.062099047 0.06453773 0.022804977 0.06372203 -0.078564145 -0.011489038 -0.044158883
-0.06662499 0.07896025 -0.080842555 -0.06712573 -0.08348125 0.014491868 0.014254171 0.07196887
0.033850692 -0.053598102 0.07065572 -0.00901805 0.059646465 0.023680065 0.028415933 0.081668906
-0.061596602 -0.025000982 -0.040212635 -0.06484613 0.029936817 -0.029941352 -0.024970505 -0.08211663
-0.05963863 0.043032177 0.07561729 0.05471318 0.078573875 0.0109616285 -0.043304544 -0.04229772
0.06862402 -0.013281102 -0.07759811 0.0072873468 0.11178504 0.02607075 -0.05277281 -0.05274654
0.020858066 0.017685538 0.05237464 0.054919135 0.07178842 -0.056725588 -0.07596837 0.016348587
0.03595708 -0.062955044 -0.03490499 0.021728748 0.053240262 -0.03200825 -0.093033984 0.05436519
-0.04631075 0.062953815 0.018943533 0.05049129 0.09419802 -0.016570436 -0.006202475 -0.0029802858
-0.01970976 0.052134134 0.08073595 0.030652352 -0.073985316 0.018973032 -0.0072673676 0.08753909
0.056147076 0.054435857 0.04621455 -0.05083735 0.06927586 0.07425408 -0.0027665666 0.010762992
0.04991141 -0.083719864 0.059588455 0.052117683 -0.03829989 -0.056397516 -0.08637813 0.04380711
0.021907909 -0.08046509 0.018674698 -0.011344685 -0.039055124 0.057436306 0.020147348 -0.010243479
-0.007910421 0.057883218 0.0072732414 -0.028728008 0.059329085 0.04007737 0.028900703 -0.03620766
-0.0143755395 0.024041083 0.022890104 -0.021840189 -0.026610166 -0.08695328 0.055243265 0.07806849
0.029668067 -0.021573525 0.061029483 -0.0028235011 -0.016086916 0.046289142 -0.07853019 -0.08227852
0.02201518 0.025804296 -0.0052723787 -0.001191256 0.062578365 -0.014017339 -0.027650245 -0.009086592
-0.07229726 0.032381196 0.019139959 0.070422694 0.080890834 -0.05377229 0.021551404 -0.026736936
0.015902527 0.069955595 -0.01501274 0.07404055 -0.00034571261 -0.060842384 -0.101328515 0.05796095
-0.018511416 -0.06184879 -0.0668189 -0.0129626915 0.010678106 -0.08259761 0.006930787 0.06408266
0.036203187 -0.045196015 0.07801848 -0.015692277 -0.004786867 0.027156103 0.056797054 -0.033739686
0.006597137 0.0402651 0.04480543 0.012088137 -0.008135994 0.08550615 -0.035983205 0.093553156
0.06365887 -0.06964385 0.05449905 -0.04865591 0.025899542 0.0130771035 -0.0650124 -0.01124829
0.0027203036 0.06034871 -0.015397207 -0.08224556 -0.03804366 0.019361205 -0.057081822 -0.003164609
-0.05564759 -0.0006072309 -0.052838728 0.00054059114 0.08987041 -0.06897842 0.041582804 0.06337489
0.0040650787 -0.076331146 0.006670068 -0.0861556 0.09021833 -0.06386132 -0.06399456 0.08197604
-0.031638402 0.025263313 0.07029337 -0.0702055 0.11326311 0.020920968 0.01875528 -0.029474072
00000000: 3369 1ebc 5fcb 79bd 90f6 23bb 70c3 9d3d
00000010: 4f30 b63c 79bc b4bd 259a 343d 64ac 68bd
00000020: e935 153d 5aae 9c3d cb60 41bd 5300 193b
00000030: 8cc9 093b bf23 86bc 5cf4 d33d f491 7c3d
00000040: 444e 27bd 6c6b aa3d f3a6 71bd 0d43 75bd
00000050: 2b42 86bd bbec 2cbc 9acd a13d 941d 42bd
00000060: ca5c 2f3d 18b6 833d 1643 81bc f419 08b9
00000070: 0568 aa3d fca1 44bd 9e30 27bb d535 46bc
00000080: e541 9f3d 40b2 613d 65b2 043d d826 77bd
00000090: a5b9 d83c 0bf1 6bbd 8c21 f0bc f0d6 bebc
000000a0: 1ac7 a0bd 925b 7e3d 5b2c 843d 81d1 ba3c
000000b0: b280 823d 3de6 a0bd 853c 3cbc f2df 34bd
000000c0: af72 88bd e9b5 a13d c890 a5bd 3779 89bd
000000d0: 38f8 aabd 4d6f 6d3c 548a 693c 6a64 933d
000000e0: 06a7 0a3d af89 5bbd f2b3 903d 71c0 13bc
000000f0: da4f 743d b2fc c13c 88c8 e83c 0742 a73d
00000100: b84c 7cbd dcce ccbc 01b6 24bd 0cce 84bd
00000110: 0e3e f53c 9147 f5bc f28e ccbc c42c a8bd
00000120: a347 74bd 8242 303d 3ddd 9a3d ed1a 603d
00000130: 57eb a03d 6798 333c 1b60 31bd 6040 2dbd
00000140: c08a 8c3d fb98 59bc c2eb 9ebd b2ca ee3b
00000150: 8eef e43d 5392 d53c 4d28 58bd c20c 58bd
00000160: 89de aa3c 43e1 903c ca86 563d e3f2 603d
00000170: cf05 933d 1759 68bd 4e95 9bbd 79ed 853c
00000180: bb47 133d 93ee 80bd 89f8 0ebd 7d00 b23c
00000190: 7612 5a3d 151b 03bd 9a88 bebd 09ae 5e3d
000001a0: 57b0 3dbd eeed 803d 782f 9b3c f4cf 4e3d
000001b0: e4ea c03d b9be 87bc 223e cbbb e650 43bb
000001c0: 5d76 a1bc 9a8a 553d e458 a53d a41a fb3c
000001d0: 9d85 97bd 556d 9b3c 1923 eebb b247 b33d
000001e0: 7afa 653d 22f8 5e3d 784b 3d3d d33a 50bd
000001f0: 81e0 8d3d 8612 983d 494f 35bb 4357 303c
00000200: e86f 4c3d 5275 abbd 0613 743d 5a79 553d
00000210: 58e0 1cbd 1501 67bd 04e7 b0bd 166f 333d
00000220: 3778 b33c e2ca a4bd aefb 983c 0fdf 39bc
00000230: 44f8 1fbd 5542 6b3d 0d0c a53c 44d4 27bc
00000240: b69a 01bc f416 6d3d 5f54 ee3b 0057 ebbc
00000250: 0e03 733d 2b28 243d 2bc1 ec3c 7c4e 14bd
00000260: 6287 6bbc cef1 c43c 0784 bb3c 32ea b2bc
00000270: 90fd d9bc 9014 b2bd c346 623d 5fe2 9f3d
00000280: 720a f33c f6ba b0bc 0dfa 793d 7d0a 39bb
00000290: b5c8 83bc af99 3d3d 70d4 a0bd a481 a8bd
000002a0: 2e59 b43c 8863 d33c ebc3 acbb eb23 9cba
000002b0: 1629 803d fba8 65bc c482 e2bc eedf 14bc
000002c0: 9610 94bd 25a2 043d 67cb 9c3c c639 903d
000002d0: 18aa a53d 5540 5cbd 928c b03c 6b07 dbbc
000002e0: 0446 823c e144 8f3d fff7 75bc 92a2 973d
000002f0: c340 b5b9 dd35 79bd 5385 cfbd 7668 6d3d
00000300: 41a5 97bc 2855 7dbd 59d8 88bd 7861 54bc
00000310: 39f3 2e3c f028 a9bd a81b e33b c53d 833d
00000320: cb49 143d 751f 39bd 27c8 9f3d 178d 80bc
00000330: 27db 9cbb 7a76 de3c 07a4 683d a032 0abd
00000340: cc2c d83b 04ed 243d e685 373d 520d 463c
00000350: d54c 05bc d91d af3d 2063 13bd cc98 bf3d
00000360: 955f 823d 6fa1 8ebd 653a 5f3d 6b4b 47bd
00000370: 472b d43c 5941 563c 3925 85bd bf4a 38bc
00000380: 1f47 323b 3530 773d 9144 7cbc 5c70 a8bd
00000390: abd3 1bbd 649b 9e3c a1ce 69bd 5465 4fbb
000003a0: baee 63bd 932e 1fba 6c6d 58bd 75b6 0d3a
000003b0: fa0d b83d 8f44 8dbd bb52 2a3d b2ca 813d
000003c0: 5a34 853b 8153 9cbd 9690 da3b 5972 b0bd
000003d0: 63c4 b83d b9c9 82bd 940f 83bd 0ee3 a73d
000003e0: 4597 01bd 02f5 ce3c f8f5 8f3d e7c7 8fbd
000003f0: 7df6 e73d 7362 ab3c aca4 993c 9c73 f1bc

lstm.weight_hh_l0 f4 [504, 126]
0.041806594 0.046547707 0.037776846 -0.06746147 -0.063481554 -0.020473897 0.074593015 0.08323442
0.07449225 0.0097777005 0.0009250869 -0.036046196 -0.0074526034 -0.034759026 -0.054481205 -0.098204814
0.07731306 -0.09086409 0.02248032 0.04256945 -0.031916503 0.02340134 0.015758961 -0.056031674
-0.01774089 0.07758699 -0.049187135 -0.0813706 0.05878509 -0.066740364 0.030968647 0.08176727
-0.03005299 0.04443681 -0.03229364 -0.07123562 -0.067105405 -0.03910023 -0.067912705 -0.076303646
0.042544942 -0.055225085 0.013553526 0.09588379 0.075962976 -0.066818796 -0.05872483 0.054033007
0.014398486 0.034473136 0.084592134 -0.065299794 -0.041966897 0.058150414 0.028199684 -0.05972223
-0.044717647 -0.05449403 -0.02721082 0.038935617 0.08105714 -0.08930259 -0.04829034 -0.008718348
0.023334756 0.06860413 -0.060034778 -0.027499178 0.02397405 -0.044373997 0.042086985 0.024554051
0.058617752 -0.02168049 -0.07854986 -0.031120405 0.044954367 0.008938793 -0.09227831 -0.014327592
-0.09568419 -0.055487588 -0.059834916 0.05174329 0.039908048 0.048140172 0.035221126 0.014577851
0.0033628885 0.057074837 0.02068444 -0.023347566 0.05447425 0.092873275 -0.06491374 -0.0382852
0.075355604 -0.058558904 0.096288666 0.019000135 -0.057267293 -0.015413142 0.016552528 0.033796042
0.03492378 0.014374206 -0.017518414 -0.036723375 0.0042923316 -0.030642698 -0.040869575 -0.005949683
0.04277793 0.032608032 -0.0106080575 0.02464071 0.05446295 -0.09353726 -0.0259112 -0.05958569
0.09305026 0.027513532 -0.080027364 0.036906935 -0.06376897 -0.08361638 0.030770792 0.07584034
0.021908438 0.04211627 -0.015894229 -0.07496605 -0.02147963 0.05038215 0.015611635 -0.08420384
0.0061409627 -0.017688245 -0.04101193 -0.02213553 -0.04909963 -0.074228205 0.007015852 -0.07666467
-0.060418114 -0.02767678 0.08122999 0.04809247 -0.025201185 -0.06434142 -0.022162927 -0.0648377
-0.009835527 0.0024496987 -0.098247066 0.002970494 -0.051683065 -0.0029602053 0.03871221 -0.08115645
-0.0523659 0.09581159 0.038346596 0.0366466 -0.02975317 -0.056808002 -0.020706525 -0.031788062
0.02066367 0.07161434 0.09090153 0.080631025 -0.07375998 0.0846497 -0.034481667 0.03342845
0.01862682 -0.06951146 -0.054247588 -0.0036646817 -0.047622185 -0.015308882 -0.05164683 0.077559255
-0.08684435 0.058929384 -0.081223845 -0.051977962 0.023834415 0.08840898 -0.061617248 0.052507177
0.07205095 0.007868494 -0.07902723 -0.032986324 0.045728978 0.02736066 -0.06639032 -0.04655115
0.04728812 0.012099586 -0.061164558 -0.0667198 0.056622505 -0.062168803 0.051758714 -0.060008768
-0.00025884513 0.0019061738 0.035418548 0.08457175 0.046260234 -0.016742194 -0.033005316 -0.0060891034
-0.039683923 -0.08440666 0.04294333 0.03318705 -0.041913126 0.07067834 -0.004948967 0.046559066
-0.07982768 -0.029517693 0.0020767816 0.025746714 0.010967934 -0.06757685 0.07494269 0.050458133
-0.083805546 0.048560306 0.10919704 0.05523599 -0.005644263 0.024800684 -0.09652301 0.00999532
-0.08378493 0.038165573 0.0018448349 -0.06312169 0.04457469 -0.022838563 0.095307946 0.07809135
-0.012785171 0.080067776 0.0699289 0.05172556 0.06359035 -0.07469932 -0.015623405 -0.107522845
00000000: 643d 2b3d cfa8 3e3d e5bb 1a3d 3d29 8abd
00000010: 9e02 82bd e0b8 a7bc 39c4 983d cf76 aa3d
00000020: 658f 983d a632 203c 8881 723a 2da5 13bd
00000030: f834 f4bb 7b5f 0ebd af27 5fbd 9b1f c9bd
00000040: 4f56 9e3d f416 babd a628 b83c 4e5d 2e3d
00000050: e1ba 02bd 2bb4 bf3c f018 813c 7881 65bd
00000060: 5855 91bc eee5 9e3d 7378 49bd a1a5 a6bd
00000070: a2c8 703d 2caf 88bd f6b1 fd3c 9975 a73d
00000080: b031 f6bc 5f03 363d 5646 04bd fbe3 91bd
00000090: 8f6e 89bd 9027 20bd d115 8bbd 1645 9cbd
000000a0: 9b43 2e3d b333 62bd 9c0f 5e3c b85e c43d
000000b0: 7a92 9b3d 4bd8 88bd 7389 70bd b751 5d3d
000000c0: a1e7 6b3c b433 0d3d a43e ad3d e6bb 85bd
000000d0: 7be5 2bbd 212f 6e3d 0603 e73c 4c9f 74bd
000000e0: da29 37bd 2235 5fbd 3ae9 debc f47a 1f3d
000000f0: 4901 a63d 47e4 b6bd 17cc 45bd 67d7 0ebc
00000100: 8828 bf3c 5280 8c3d 07e7 75bd f545 e1bc
00000110: 3a65 c43c 82c1 35bd 6763 2c3d 9425 c93c
00000120: 2b19 703d 489b b1bc c0de a0bd 38f0 febc
00000130: 1222 383d 0474 123c 69fc bcbd 47be 6abc
00000140: 13f6 c3bd f446 63bd 7515 75bd c6f0 533d
00000150: 9f76 233d a12e 453d 0744 103d f0d7 6e3c
00000160: e863 5c3b 4ec7 693d 6a72 a93c 6543 bfbc
00000170: 6420 5f3d 5834 be3d 7ff1 84bd f1d0 1cbd
00000180: 0a54 9a3d 76db 6fbd fe32 c53d 2ca6 9b3c
00000190: 1c91 6abd 6787 7cbc 2b99 873c b86d 0a3d
000001a0: 3d0c 0f3d ca81 6b3c c782 8fbc 406b 16bd
000001b0: b0a6 8c3b 6506 fbbc db66 27bd 8ff5 c2bb
000001c0: e937 2f3d 0090 053d 6bcd 2dbc 50db c93c
000001d0: 8b14 5f3d 7790 bfbd ba43 d4bc 2010 74bd
000001e0: 2291 be3d 0f64 e13c 63e5 a3bd ba2b 173d
000001f0: 4e99 82bd 113f abbd 0713 fc3c 2e52 9b3d
00000200: 5379 b33c 1c82 2c3d 9d34 82bc cd87 99bd
00000210: 0df6 afbc 835d 4e3d f1c7 7f3c 1073 acbd
00000220: 213a c93b f0e6 90bc 20fc 27bd 9255 b5bc
00000230: b21c 49bd f504 98bd 3be5 e53b 5e02 9dbd
00000240: fc78 77bd 6aba e2bc e95b a63d 9cfc 443d
00000250: b772 cebc 6fc5 83bd 078f b5bc a1c9 84bd
00000260: 3125 21bc 208b 203b c235 c9bd 9fac 423b
00000270: 9fb1 53bd 0100 42bb b290 1e3d 5a35 a6bd
00000280: a07d 56bd de38 c43d 5211 1d3d bf1a 163d
00000290: ecbc f3bc 82af 68bd bba0 a9bc 3334 02bd
000002a0: db46 a93c 8aaa 923d 952a ba3d e121 a53d
000002b0: 790f 97bd d25c ad3d a63c 0dbd 45ec 083d
000002c0: 4697 983c 065c 8ebd b832 5ebd 282b 70bb
000002d0: 7b0f 43bd 1bd2 7abc a08b 53bd 63d7 9e3d
000002e0: 73db b1bd f05f 713d b058 a6bd d8e6 54bd
000002f0: 6440 c33c c40f b53d 5e62 7cbd c411 573d
00000300: 738f 933d dbea 003c 07d9 a1bd ab1c 07bd
00000310: 4f4e 3b3d 7623 e03c a6f7 87bd 6bac 3ebd
00000320: 30b1 413d 583d 463c b087 7abd 64a4 88bd
00000330: 00ed 673d b7a4 7ebd f200 543d c1cb 75bd
00000340: 9bb5 87b9 94d8 f93a 0a13 113d f433 ad3d
00000350: 5f7b 3d3d ed26 89bc 9530 07bd 1a87 c7bb
00000360: 9c8b 22bd 66dd acbd 58e5 2f3d 25ef 073d
00000370: 19ad 2bbd cebf 903d f22a a2bb b8b4 3e3d
00000380: b27c a3bd 17cf f1bc 9d1a 083b c6ea d23c
00000390: d9b2 333c bb65 8abd 8e7b 993d 30ad 4e3d
000003a0: 3ea2 abbd 2ce7 463d b3a2 df3d 223f 623d
000003b0: 82f3 b8bb ce2a cb3c dbad c5bd 69c3 233c
000003c0: 6f97 abbd 8153 1c3d 63ce f13a f245 81bd
000003d0: f393 363d f017 bbbc d030 c33d 5cee 9f3d
000003e0: e578 51bc 93fa a33d e236 8f3d 2ede 533d
000003f0: a83b 823d f5fb 98bd 4ff9 7fbc f034 dcbd

lstm.bias_ih_l0 f4 [504]
0.04381378 -0.05957115 0.04751129 -0.008151222 -0.018303145 0.0029214835 0.061642863 -0.016899077
0.04292678 -0.027082436 0.040173274 -0.032299012 -0.01936507 0.08193358 0.031887103 -0.009306158
0.037533943 0.074671425 -0.08212057 0.060625825 -0.07666825 -0.035092507 -0.039415933 0.09061136
-0.01792524 0.013904612 0.036907323 0.023331206 -0.036932163 0.09266034 -0.024751136 0.03615507
0.09237069 -0.063302815 0.0061159534 0.093696944 0.060154073 0.075808674 0.065068975 0.039700713
-0.039109115 -0.01186081 -0.06537538 0.05582314 0.034773137 0.070745595 0.08240319 0.033786424
-0.05351566 0.030669449 -0.01827027 -0.0022444122 -0.028546887 0.005462633 0.079341725 -0.041941214
0.0323572 0.096037574 0.021984149 0.04262172 0.012849313 0.028983386 -0.042189274 0.025286825
0.052234534 -0.05711024 0.03762972 0.02935749 -0.030033374 0.020693233 0.034541238 -0.036536064
-0.028188959 -0.05196853 0.08628124 -0.076594755 0.069774926 -0.013003137 0.037777342 -0.0657046
-0.050108343 -0.04631793 0.0030576484 -0.035958283 -0.006143082 0.009951185 0.00212087 0.064005286
0.093802236 0.020543827 0.020626782 0.07825686 0.085679606 -0.010153262 0.0785111 0.039907355
0.0033087402 0.05890387 0.026140152 0.017261773 -0.05808768 0.10915013 -0.03497541 0.050429817
0.053152848 -0.04153179 -0.074801855 -0.00025711695 -0.02413714 -0.025227115 -0.0053518256 -0.08840533
-0.025713012 0.03548743 -0.04884938 0.08663323 0.0048954682 0.07963108 -0.020662379 0.07324065
0.019343782 0.09089071 0.04794257 0.03261789 0.08665594 0.032140117 -0.029220967 -0.045775536
0.0024363243 0.027136782 0.021534229 0.011335872 0.009930678 0.10836437 0.020418663 0.060283512
0.088101916 -0.028018743 -0.054568313 -0.042680383 0.0016608201 -0.01780377 -0.03657064 0.012171488
-0.0041778637 0.047873423 0.07366263 0.06925506 0.013068096 0.088715166 -0.08741653 0.08661152
0.014719547 -0.06972529 0.06840134 0.023282064 -0.0011973658 0.03106582 0.08668772 -0.020203052
-0.059557702 0.07163318 0.081000306 0.04274632 -0.049759936 0.064711146 -0.043941706 0.05638547
-0.047008347 -0.041109655 -0.041222636 -0.0070669185 0.08008345 -0.03922117 0.077778906 0.024432642
0.07187607 0.07760522 0.0056309905 0.03753195 0.13287643 0.02603504 -0.064135715 0.022402808
-0.026508207 -0.02270651 0.083134145 0.018749945 0.053823546 0.06993812 0.03552857 -0.06959743
0.05696397 0.024542887 0.060774155 -0.03490077 0.04822836 0.019611105 0.0041892077 0.015345043
0.101161316 0.014167685 0.08040107 0.08527759 0.08107209 -0.05116079 -0.05426606 0.07442896
0.11036006 -0.058478963 0.031648915 0.021543292 0.10246376 0.05733836 0.019410463 0.019142503
0.07200063 0.06618349 -0.027364615 0.037087053 -0.042655885 0.07827805 -0.07711557 0.09288042
0.065182135 0.095833264 0.038799703 -0.0012125613 -0.05119603 -0.003769767 0.07268226 -0.021007674
-0.007991142 0.015436941 -0.018336356 0.06700274 -0.035415076 0.05997943 0.08376896 0.018463962
-0.011648847 -0.04179717 -0.04717526 -0.075588144 0.08934843 0.031072648 0.085141085 -0.023018379
0.06387353 0.065192424 0.016435763 -0.069612615 0.08830676 -0.056723334 -0.06400912 0.0016185737
00000000: 1476 333d e100 74bd 339b 423d b48c 05bc
00000010: 7af0 95bc 5c76 3f3b 3a7d 7c3d ef6f 8abc
00000020: fed3 2f3d fcdb ddbc bb8c 243d f84b 04bd
00000030: 7fa3 9ebc cbcc a73d 0d9c 023d db78 18bc
00000040: 31bd 193d 55ed 983d d42e a8bd c952 783d
00000050: 3e04 9dbd 29bd 0fbd 9a72 21bd 7392 b93d
00000060: f4d7 92bc 2bd0 633c 222c 173d 1621 bf3c
00000070: 2e46 17bd b4c4 bd3d e5c2 cabc 5717 143d
00000080: d82c bd3d e8a4 81bd 5668 c83b 2fe4 bf3d
00000090: 1e64 763d 9441 9b3d e242 853d 379d 223d
000000a0: e130 20bd d853 42bc 87e3 85bd cea6 643d
000000b0: 476e 0e3d 11e3 903d 01c3 a83d a263 0a3d
000000c0: 3d33 5bbd 7f3e fb3c 89ab 95bc fd16 13bb
000000d0: 29db e9bc e3ff b23b ea7d a23d 8dca 2bbd
000000e0: fc88 043d 59af c43d 1a18 b43c 1d94 2e3d
000000f0: ed85 523c 916e ed3c a9ce 2cbd 5126 cf3c
00000100: e1f3 553d 6dec 69bd 9f21 1a3d 1e7f f03c
00000110: 8d08 f6bc db84 a93c 1d7b 0d3d d7a6 15bd
00000120: 88ec e6bc f4dc 54bd 38b4 b03d b6dd 9cbd
00000130: 28e6 8e3d 1c0b 55bc 6abc 1a3d 2290 86bd
00000140: 683e 4dbd dfb7 3dbd d462 483b fe48 13bd
00000150: e84b c9bb 4c0a 233c 4bfe 0a3b 3415 833d
00000160: 631b c03d 874b a83c 7ff9 a83c 2245 a03d
00000170: ca78 af3d de59 26bc 6dca a03d e575 233d
00000180: 73d7 583b 2f45 713d df23 d63c 9068 8d3c
00000190: 59ed 6dbd 1a8a df3d 6042 0fbd 7f8f 4e3d
000001a0: cdb6 593d 3d1d 2abd b731 99bd a7cd 86b9
000001b0: 40bb c5bc 18a9 cebc 5e5e afbb db0d b5bd
000001c0: 18a4 d2bc 445b 113d 4a16 48bd c36c b13d
000001d0: 2a6a a03b 9f15 a33d 2644 a9bc 32ff 953d
000001e0: da76 9e3c e924 ba3d 6e5f 443d 569a 053d
000001f0: ab78 b13d 5ba5 033d cf60 efbc 217f 3bbd
00000200: bdaa 1f3b f54d de3c 8d68 b03c 18ba 393c
00000210: 48b4 223c 24ee dd3d 0a45 a73c d8eb 763d
00000220: c76e b43d 9087 e5bc 0683 5fbd a0d1 2ebd
00000230: e0af d93a 36d9 91bc 18cb 15bd ec6a 473c
00000240: 76e6 88bb ec16 443d 6fdc 963d 99d5 8d3d
00000250: 911b 563c 4cb0 b53d 7007 b3bd 6161 b13d
00000260: 412a 713c 22cc 8ebd 0016 8c3d 07ba be3c
00000270: eef0 9cba bf7d fe3c 5589 b13d df80 a5bc
00000280: c7f2 73bd 6bb4 923d 7de3 a53d c416 2f3d
00000290: 13d1 4bbd 4787 843d 38fc 33bd 73f4 663d
000002a0: d38b 40bd 9962 28bd 11d9 28bd 9c91 e7bb
000002b0: cb02 a43d 61a6 20bd 8c4a 9f3d f726 c83c
000002c0: c333 933d 7cef 9e3d 2c84 b83b 1abb 193d
000002d0: c210 083e 7047 d53c 9659 83bd 1886 b73c
000002e0: bd27 d9bc 0103 babc 3c42 aa3d 7c99 993c
000002f0: 1476 5c3d b83b 8f3d 6886 113d 1989 8ebd
00000300: 0d53 693d 2a0e c93c 52ee 783d 1cf4 0ebd
00000310: 1a8b 453d 78a7 a03c 9f45 893b c669 7b3c
00000320: aa2d cf3d 941f 683c 51a9 a43d 04a6 ae3d
00000330: 2009 a63d fa8d 51bd 1746 5ebd 366e 983d
00000340: 7504 e23d a387 6fbd 4ba2 013d 8f7b b03c
00000350: 85d8 d13d a1db 6a3d b102 9f3c bdd0 9c3c
00000360: 1175 933d 368b 873d c22b e0bc 98e8 173d
00000370: f0b7 2ebd 3e50 a03d c5ee 9dbd 1738 be3d
00000380: 367e 853d 3b44 c43d 70ec 1e3d ceee 9eba
00000390: eeb2 51bd 320e 77bb 70da 943d 4918 acbc
000003a0: 47ed 02bc 39eb 7c3c 2036 96bc bc38 893d
000003b0: 660f 11bd feac 753d 0f8f ab3d bc41 973c
000003c0: ceda 3ebc 8233 2bbd d83a 41bd f5cd 9abd
000003d0: 4ffc b63d 118c fe3c 735e ae3d 0a91 bcbc
000003e0: 20d0 823d 9b83 853d 4ba4 863c 0f91 8ebd
000003f0: 2dda b43d ba56 68bd 3717 83bd 5226 d43a

lstm.bias_hh_l0 f4 [504]
-0.008384844 -0.00079299463 -0.032823317 -0.0073242867 -0.030906457 0.091361046 0.07479267 -0.023980882
0.039186593 -0.003403566 0.03800343 -0.019915838 0.072803974 -0.09165237 0.0847611 0.020440705
-0.0154336225 0.032399774 -0.030222984 -0.042047605 0.082741156 0.08695351 0.021885533 0.056953583
0.010949737 -0.055707358 -0.046899907 0.0761414 -0.0015305403 -0.030066062 0.03273354 0.07167424
-0.06053551 0.007445856 0.086591974 0.055799622 0.015518362 -0.059461232 -0.057244487 -0.056156028
0.0072854008 -0.07212354 -0.03940585 0.010145121 -0.025102077 -0.058849454 0.027447935 0.058203813
0.08835713 -0.032281622 0.057433937 0.09933552 -0.022509426 -0.051616993 0.08582327 0.097317904
0.037118647 0.0015180535 -0.045173813 -0.014328406 -0.013405146 -0.077553354 0.09243901 0.004881295
-0.029449375 0.03888825 0.025359398 0.0033883557 -0.011112755 -0.06746088 0.054294515 0.0045847725
0.08210118 -0.059148192 0.09674525 -0.07338764 0.04063927 0.08594989 -0.06339435 0.08747326
0.017552515 -0.0394869 0.016083213 0.03521662 0.068730846 0.08649035 0.03866333 0.033054315
0.053337127 -0.053306866 0.08557857 -0.0066194967 0.063053474 -0.0358584 0.046858184 -0.0047001136
-0.03102678 -0.06322395 -0.0544359 -0.034015913 0.080804355 0.07648987 0.04640123 0.050222564
-0.027129984 0.082514435 -0.04492834 0.07992482 0.051270254 -0.05450144 0.07362433 -0.08016201
-0.026761597 0.06450076 0.044093028 0.020205267 -0.058636315 0.038105503 0.0959583 0.06458503
0.0047239657 -0.076014504 0.03773769 -0.021733072 -0.034499127 -0.017290452 0.0837225 0.072892435
-0.021828022 0.031703755 -0.058972828 0.08960526 0.09091803 0.112304546 0.06711429 0.016862666
0.086336456 -0.074839815 0.033952635 0.087162085 0.012569732 0.018581925 -0.014313693 0.01769979
-0.04844861 0.08778273 -0.04848075 -0.0053489166 -0.015504556 -0.0012414167 -0.025980799 0.061868627
-0.008967711 0.07462224 0.10252103 0.024839956 0.06125225 0.0008751039 0.045401976 -0.017601764
-0.04838441 -0.06677952 -0.0078087407 -0.062149648 -0.007844885 0.027984597 -0.040216997 -0.003872059
0.05070484 0.01264386 -0.03948289 -0.06495791 -0.07966635 -0.017713567 0.048611287 0.022995587
0.06637307 -0.015892187 0.0015735654 -0.023125103 0.12724897 0.050939362 -0.08445227 -0.03144445
0.053060777 0.06058849 0.036161523 0.012437779 0.065731086 -0.08475069 0.089731425 -0.032723434
0.053020127 0.057043146 -0.060566213 -0.04847382 -0.06573001 -0.022806762 0.08806411 -0.068666354
0.020586537 0.08110843 -0.043440517 -0.003913734 -0.0142798405 0.05051147 0.03538012 -0.0647526
0.092931926 0.02250425 -0.029069904 -0.029191999 0.103446126 -0.068970695 0.014599837 -0.010665843
-0.01218116 0.040797386 -0.0056085065 0.046048548 -0.06443155 0.038129754 0.036670215 0.07215248
-0.030525519 -0.018573605 0.058108345 0.009291288 0.09049023 -0.023088003 0.0716548 0.07394105
-0.060943503 -0.038654838 -0.033315122 0.019955672 0.09666274 -0.016967982 0.096557 0.100696295
0.043462645 0.041743364 -0.042239234 0.024680654 0.056637857 -0.045986958 -0.0122410925 0.0589292
0.07111387 0.0388052 0.049559925 0.026685324 -0.086557366 0.028699238 -0.05024082 -0.049774967
00000000: 9660 09bc f8e0 4fba be71 06bd 9200 f0bb
00000010: 8a2f fdbc 801b bb3d e62c 993d 8e73 c4bc
00000020: 1f82 203d 5d0e 5fbb 7ca9 1b3d 8a26 a3bc
00000030: 401a 953d 3db4 bbbd 3a97 ad3d 4473 a73c
00000040: 4edd 7cbc a0b5 043d 3196 f7bc 1c3a 2cbd
00000050: 3274 a93d af14 b23d 4a49 b33c 2948 693d
00000060: 8766 333c 662d 64bd 1e1a 40bd 06f0 9b3d
00000070: 699c c8ba 1a4d f6bc 9b13 063d f2c9 923d
00000080: 15f4 77bd 5efc f33b 2257 b13d 258e 643d
00000090: ba40 7e3c 9f8d 73bd 3279 6abd dd03 66bd
000000a0: 5fba ee3b 82b5 93bd 0768 21bd b937 263c
000000b0: dfa2 cdbc 200c 71bd 7eda e03c 1f67 6e3d
000000c0: 95f4 b43d bc39 04bd d93f 6b3d 6c70 cb3d
000000d0: b065 b8bc 576c 53bd 1cc4 af3d 9c4e c73d
000000e0: b909 183d 6cf9 c63a 2d08 39bd b1c1 6abc
000000f0: 42a1 5bbc 4bd4 9ebd aa50 bd3d 45f3 9f3b
00000100: d13f f1bc 4949 1f3d 83be cf3c 2d0f 5e3b
00000110: 4612 36bc ee28 8abd ed63 5e3d dc3b 963b
00000120: aa24 a83d 6045 72bd 6022 c63d 424c 96bd
00000130: 5d75 263d 7f06 b03d e6d4 81bd 2e25 b33d
00000140: 4bca 8f3c 04bd 21bd f1c0 833c 4d3f 103d
00000150: c2c2 8c3d da21 b13d 715d 1e3d f663 073d
00000160: 0878 5a3d 4d58 5abd d143 af3d 5de8 d8bb
00000170: 2e22 813d 42e0 12bd 5eee 3f3d 6903 9abb
00000180: e02b febc 8f7b 81bd 2ef8 5ebd 4554 0bbd
00000190: c17c a53d b9a6 9c3d 370f 3e3d 2db6 4d3d
000001a0: b33f debc 54fd a83d c706 38bd a0af a33d
000001b0: c200 523d e73c 5fbd 5ac8 963d fb2b a4bd
000001c0: 233b dbbc f918 843d e49a 343d 8485 a53c
000001d0: a22c 70bd 8414 1c3d c985 c43d 2845 843d
000001e0: 7fcb 9a3b 7ead 9bbd d692 1a3d 8e09 b2bc
000001f0: f54e 0dbd b5a4 8dbc b476 ab3d a148 953d
00000200: aed0 b2bc ccdb 013d 7e8d 71bd f682 b73d
00000210: 3b33 ba3d edff e53d 3873 893d 9323 8a3c
00000220: 2bd1 b03d 9e45 99bd eb11 0b3d 0982 b23d
00000230: 47f1 4d3c 1f39 983c fb83 6abc 26ff 903c
00000240: 0d72 46bd 6fc7 b33d c093 46bd f745 afbb
00000250: d206 7ebc 08b7 a2ba afd5 d4bc f569 7d3d
00000260: 4eed 12bc 8cd3 983d 8cf6 d13d 2a7d cb3c
00000270: a4e3 7a3d 3b67 653a 6cf7 393d 9331 90bc
00000280: bb2e 46bd b3c3 88bd 77e0 ffbb a190 7ebd
00000290: d587 00bc f43f e53c 94ba 24bd 5fc2 7dbb
000002a0: e1af 4f3d 3128 4f3c d0b8 21bd a708 85bd
000002b0: 1c28 a3bd 0b1c 91bc a11c 473d 3e61 bc3c
000002c0: 9bee 873d 5530 82bc 1840 ce3a db70 bdbc
000002d0: 8e4d 023e cba5 503d 50f5 acbd e5cb 00bd
000002e0: 4256 593d a32b 783d 1b1e 143d d4c7 4b3c
000002f0: 059e 863d c591 adbd 1cc5 b73d 0209 06bd
00000300: a22b 593d 13a6 693d 4714 78bd 7c8c 46bd
00000310: 759d 86bd 3fd5 babc f55a b43d f2a0 8cbd
00000320: 19a5 a83c 2d1c a63d afee 31bd c83e 80bb
00000330: fef5 69bc 1de5 4e3d bfea 103d 039d 84bd
00000340: 1853 be3d d55a b83c 0224 eebc 0f24 efbc
00000350: 90db d33d 8240 8dbd 2834 6f3c cabf 2ebc
00000360: 7d93 47bc 291b 273d 90c7 b7bb 679d 3c3d
00000370: b0f4 83bd f22d 1c3d 8233 163d aec4 933d
00000380: a710 fabc ac27 98bc 0403 6e3d 7d3a 183c
00000390: f152 b93d 0d23 bdbc c0bf 923d 686e 973d
000003a0: e59f 79bd 8954 1ebd 7075 08bd 147a a33c
000003b0: 1df7 c53d 7000 8bbc adbf c53d dc39 ce3d
000003c0: e305 323d 17fb 2a3d 0c03 2dbd 152f ca3c
000003d0: 19fd 673d d25c 3cbd dd8e 48bc bf5f 713d
000003e0: 26a4 913d 34f2 1e3d 59ff 4a3d 2e9b da3c
000003f0: fd44 b1bd aa1a eb3c 51c9 4dbd d6e0 4bbd
