surrogate/run/train/routing/saves/train-test2/30sec/river/state_dict.pt (torch, 535012 bytes, 8 tensors)

pre_sequence.0.weight f4 [126, 34]
-0.08150482 -0.018456869 -0.02755722 -0.07410947 -0.02107573 0.011390968 0.10281032 0.08406388
-0.110390946 0.057394367 0.07256232 -0.075743325 -0.018109344 -0.041456927 0.10257982 0.04260124
-0.13801001 -0.006257343 0.14293222 -0.021706222 0.1140231 -0.020049656 0.1327318 0.043297943
0.1541948 -0.13450247 0.08304124 0.095597684 -0.084937975 0.22728194 0.106290095 0.018643072
0.19987194 0.045309756 -0.021790074 0.02577808 0.1000656 -0.14109834 -0.03982847 -0.14578126
0.025364324 -0.03642972 0.12036975 -0.024175178 -0.08134767 -0.025441324 0.016455213 -0.012191081
-0.006138618 -0.045152623 0.054056834 0.026560452 0.111075856 -0.122474685 -0.058374107 -0.123401396
-0.008216441 0.13191466 0.008533696 0.021606412 0.41366678 0.043449342 -0.04452975 -0.15257066
0.01608578 0.47971454 -0.044336732 0.018407235 0.039705068 0.08796694 0.016274858 0.08296437
-0.07636336 0.12642936 0.032682758 -0.04548807 0.0311335 -0.01682229 -0.11417514 0.07315083
0.028931947 0.06471066 -0.119605474 0.10330112 -0.08509166 -0.018456483 0.06467971 -0.008052515
-0.14033613 0.012198213 0.045279134 0.08536375 0.0075674183 0.05058393 -0.27701247 -0.13896869
-0.04905011 -0.047388226 -0.04158604 -0.33303604 0.07865141 -0.0057019317 -0.0017334889 -0.0041277837
-0.01194608 0.08876315 -0.080679715 0.028974183 -0.0007153336 -0.0006925821 0.0069755986 0.061722964
-0.006964286 0.0067627844 -0.13683781 0.05982694 0.025294323 -0.012007753 0.0843637 -0.07285906
0.04306762 -0.04534454 -0.003012158 0.11708875 0.094025396 0.08629618 -0.2767128 0.1405774
0.39400238 -0.17859262 -0.008831349 -0.35237226 -0.025402386 0.2858691 -0.27505022 0.018760981
-0.010878788 -0.0057362774 -0.045465823 0.13249655 -0.10264276 0.098744385 0.011270446 -0.033239137
0.057682678 -0.08664597 0.10849546 -0.03284878 -0.06947416 0.07095557 -0.07161401 -0.056636628
0.08387145 0.032979276 0.121482186 -0.111276634 0.07737979 0.010120436 -0.07973385 -0.04575444
-0.09803561 -0.0050067403 -0.00093358505 -0.07740224 0.3650033 0.05435792 0.0030416974 -0.06597681
-0.1636608 0.23993807 -0.014777579 -0.041137 -0.13818707 -0.0043923073 0.042045012 -0.11735991
-0.041971836 0.020478522 -0.08925571 0.10194541 0.06191941 0.07889662 -0.15896831 0.100967064
0.087925 -0.056339495 -0.10509948 -0.04733191 0.10856284 -0.15431337 0.017427687 -0.1410697
0.14600444 -0.12407911 -0.08100794 0.0476732 0.2086163 0.102389276 -0.21885748 0.055217143
0.042598218 0.24981594 0.18936177 -0.2605372 -0.007308754 -0.010548006 0.009119174 0.15236019
0.09503274 0.22988129 0.03530406 -0.06238177 -0.057964318 -0.05102833 0.071904704 0.068775564
0.032831762 -0.078069866 0.098067254 0.06902885 -0.065534025 0.036866944 0.1481964 -0.021139333
0.049771834 -0.0011338728 0.033121634 0.11634861 0.12394885 -0.07033046 0.063388534 -0.041112658
0.18293244 0.14500377 -0.06534812 0.17435046 -0.09430242 0.005469974 -0.05029829 -0.049988076
0.058261465 -0.10274614 -0.16367996 -0.0011351242 -0.07144272 -0.010748903 0.005148373 0.032374
-0.052676 0.13514034 -0.14188689 0.08649416 -0.067644455 -0.003083752 -0.016813578 0.11074802
00000000: 00ec a6bd dc32 97bc aebf e1bc b5c6 97bd
00000010: 02a7 acbc 2fa1 3a3c 388e d23d af29 ac3d
00000020: a614 e2bd 5b16 6b3d 8e9b 943d 511f 9bbd
00000030: 0c5a 94bc bdce 29bd 5e15 d23d a37e 2e3d
00000040: 7f52 0dbe 660a cdbb d35c 123e 3fd1 b1bc
00000050: f184 e93d 2d3f a4bc d8ea 073e 2f59 313d
00000060: 3ee5 1d3e 04bb 09be 8711 aa3d b8c8 c33d
00000070: f6f3 adbd 99bc 683e 9fae d93d 5bb9 983c
00000080: 3bab 4c3e b996 393d 1981 b2bc 8d2c d33c
00000090: 31ef cc3d 157c 10be 2e23 23bd af47 15be
000000a0: d8c8 cf3c 5537 15bd 6a84 f63d 060b c6bc
000000b0: 9b99 a6bd 536a d0bc 15cd 863c 1abd 47bc
000000c0: 7626 c9bb f5f1 38bd b36a 5d3d 4e95 d93c
000000d0: bd7b e33d 02d4 fabd b019 6fbd dfb9 fcbd
000000e0: 409e 06bc a314 073e ead0 0b3c eeff b03c
000000f0: 22cc d33e f0f7 313d d464 36bd 7c3b 1cbe
00000100: 53c6 833c 259d f53e 6f9a 35bd c5ca 963c
00000110: c8a1 223d 0328 b43d da52 853c 39e9 a93d
00000120: 6564 9cbd b376 013e 5bde 053d b351 3abd
00000130: af0b ff3c e6ce 89bc a8d4 e9bd 1ad0 953d
00000140: b102 ed3c 0687 843d b7f3 f4bd 8a8f d33d
00000150: 8944 aebd 0d32 97bc cc76 843d b2ee 03bc
00000160: 46b4 0fbe 03db 473c 9d76 393d 31d3 ae3d
00000170: 1bf8 f73b 1831 4f3d 94d4 8dbe cf4d 0ebe
00000180: c5e8 48bd 281a 42bd 2056 2abd b383 aabe
00000190: fe13 a13d 45d7 babb 3c36 e3ba 5c42 87bb
000001a0: 7eb9 43bc 74c9 b53d 683b a5bd 445b ed3c
000001b0: 3a85 3bba 668e 35ba 9093 e43b 38d1 7c3d
000001c0: aa34 e4bb 599a dd3b 361f 0cbe 180d 753d
000001d0: 0a36 cf3c 2bbc 44bc e0c6 ac3d 2137 95bd
000001e0: ac67 303d 32bb 39bd a067 45bb 3acc ef3d
000001f0: 6390 c03d 0dbc b03d 4dad 8dbe 86f3 0f3e
00000200: aeba c93e fce0 36be 5db1 10bc 236a b4be
00000210: aa18 d0bc 6f5d 923e 62d3 8cbe a1b0 993c
00000220: f23c 32bc 62f7 bbbb 5f3a 3abd 2dad 073e
00000230: 5e36 d2bd 7f3a ca3d ada7 383c c325 08bd
00000240: ac44 6c3d 7173 b1bd de32 de3d 718c 06bd
00000250: 7848 8ebd 2751 913d 5eaa 92bd cffb 67bd
00000260: cbc4 ab3d 4715 073d a7cb f83d 01e5 e3bd
00000270: 4c79 9e3d 2fd0 253c 804b a3bd 0269 3bbd
00000280: e5c6 c8bd 950f a4bb d5bb 74ba 1185 9ebd
00000290: b6e1 ba3e 69a6 5e3d 3757 473b da1e 87bd
000002a0: b296 27be 53b2 753e a91d 72bc 457f 28bd
000002b0: e980 0dbe 58ed 8fbb 6437 2c3d 645a f0bd
000002c0: a9ea 2bbd 93c2 a73c b3cb b6bd c1c8 d03d
000002d0: 359f 7d3d 8d94 a13d 97c8 22be d2c7 ce3d
000002e0: 0612 b43d 3ec4 66bd 653e d7bd 1bdf 41bd
000002f0: 3256 de3d 5304 1ebe 82c4 8e3c 9374 10be
00000300: 3082 153e 301d febd 7ee7 a5bd f944 433d
00000310: 839f 553e 78b1 d13d 2d1c 60be 5f2b 623d
00000320: 787b 2e3d c0cf 7f3e 0de8 413e 2265 85be
00000330: 467e efbb 8bd1 2cbc 9768 153c 4f04 1c3e
00000340: 86a0 c23d 0066 6b3e fd9a 103d 0784 7fbd
00000350: fe6b 6dbd 1503 51bd c642 933d 34da 8c3d
00000360: 997a 063d 18e3 9fbd 7cd7 c83d ff5e 8d3d
00000370: b436 86bd cb01 173d ccc0 173e 652c adbc
00000380: 8ddd 4b3d 759e 94ba 8daa 073d 2e48 ee3d
00000390: e5d8 fd3d 6b09 90bd d9d1 813d bf65 28bd
000003a0: a452 3b3e de7b 143e 3cd5 85bd ed88 323e
000003b0: a121 c1bd 783d b33b 9405 4ebd 4cc0 4cbd
000003c0: 93a3 6e3d 916c d2bd b89b 27be 73c8 94ba
000003d0: 9050 92bd 2b1c 30bc afb3 a83b 999a 043d
000003e0: cac2 57bd 3b62 0a3e cc4a 11be da23 b13d
000003f0: 2d89 8abd c618 4abb a1bc 89bc dccf e23d

pre_sequence.0.bias f4 [126]
0.054508936 0.15803452 0.01728895 0.016585736 -0.048239414 0.2328364 -0.2007499 0.10268795
0.2619114 -0.15403976 -0.06239958 0.03185426 0.110271946 -0.0286139 0.023885531 -0.08445253
-0.14322528 -0.23220846 0.021128405 -0.072716296 -0.14075717 -0.11850458 0.04679527 0.04275779
-0.06993188 0.2328504 0.111390516 -0.110391326 -0.124198735 -0.05268263 0.1910693 -0.010762181
-0.19857325 -0.13858159 0.042160306 -0.056662966 -0.07968367 -0.10847075 -0.108782634 -0.20914349
0.1624345 0.032924064 0.0065263016 -0.109579384 -0.0419113 -0.021094821 -0.09747121 -0.1572859
0.013844781 -0.18041448 0.017580483 -0.0533657 -0.2992506 -0.11727465 -0.17319193 -0.08097829
-0.27701122 0.062607914 -0.1710685 -0.22106563 -0.16394676 -0.12515102 -0.22449298 -0.18533695
0.13044749 0.087206006 0.33979633 -0.07655973 -0.040524904 -0.18864095 0.024629159 0.008670664
0.03588689 0.12274917 0.00088041427 -0.112359576 -0.16810648 -0.18678607 -0.03562206 -0.11868512
-0.014414115 -0.22209388 -0.12703308 -0.26125082 -0.24656425 -0.07622002 -0.10029146 -0.017903123
-0.07456481 0.06972016 -0.24701051 0.038835365 0.077294454 -0.27493444 -0.2540129 0.08034555
0.01666205 0.065291375 -0.008035808 -0.102352455 -0.1785842 -0.25407413 -0.28237057 -0.20056607
-0.13681674 -0.19712421 -0.18735588 -0.11434782 -0.12105615 -0.08851571 -0.090052664 0.25997597
-0.037734494 -0.15911317 -0.31011975 -0.15347093 -0.07949462 -0.020700727 -0.07413138 -0.062127937
0.13558005 -0.009376282 0.13396008 -0.16620988 0.08338376 0.15229414
00000000: c344 5f3d cdd3 213e 8ea1 8d3c cfde 873c
00000010: b196 45bd aa6c 6e3e 6291 4dbe 0f4e d23d
00000020: 4019 863e 99bc 1dbe b496 7fbd 9d79 023d
00000030: 42d6 e13d b367 eabc 97ab c33c 73f5 acbd
00000040: a6a9 12be 0ec8 6dbe 7a15 ad3c 48ec 94bd
00000050: a622 10be 87b2 f2bd 66ac 3f3d cb22 2f3d
00000060: 7238 8fbd 5670 6e3e b620 e43d d914 e2bd
00000070: e85b febd bec9 57bd aca7 433e dc53 30bc
00000080: c956 4bbe 55e8 0dbe 49b0 2c3d 6d17 68bd
00000090: 3131 a3bd ea25 debd 6ec9 debd b629 56be
000000a0: 3b55 263e 62db 063d 96da d53b 286b e0bd
000000b0: 2fab 2bbd 0ccf acbc fc9e c7bd 8e0f 21be
000000c0: 38d5 623c 93be 38be f204 903c fe95 5abd
000000d0: 6037 99be b12d f0bd 3a59 31be f2d7 a5bd
000000e0: 6ad4 8dbe 9438 803d 952c 2fbe 075f 62be
000000f0: a9e1 27be 9727 00be 7de1 65be f8c8 3dbe
00000100: 0794 053e 1099 b23d c9f9 ad3e 59cb 9cbd
00000110: 71fd 25bd 182b 41be 17c3 c93c 670f 0e3c
00000120: 22fe 123d eb63 fb3d 9acb 663a c71c e6bd
00000130: 1b24 2cbe d944 3fbe 70e8 11bd 2f11 f3bd
00000140: 2e29 6cbc 946c 63be f614 02be abc2 85be
00000150: 577b 7cbe 3e19 9cbd 9c65 cdbd 92a9 92bc
00000160: 6fb5 98bd 71c9 8e3d 53f0 7cbe d511 1f3d
00000170: 8e4c 9e3d 35c4 8cbe fb0d 82be 358c a43d
00000180: da7e 883c 7cb7 853d 9fa8 03bc 2a9e d1bd
00000190: c7de 36be 0116 82be e092 90be 3161 4dbe
000001a0: b019 0cbe eeda 49be 38da 3fbe 312f eabd
000001b0: 49ec f7bd b947 b5bd 886d b8bd 921b 853e
000001c0: 7c8f 1abd 90ee 22be 04c8 9ebe 7c27 1dbe
000001d0: 13ce a2bd 9294 a9bc 31d2 97bd dd79 7ebd
000001e0: 7fd5 0a3e fa9e 19bc d52c 093e ec32 2abe
000001f0: 1bc5 aa3d fff2 1b3e

post_sequence.1.weight f4 [4, 126]
-0.049983207 0.017721578 0.018664837 0.05304577 -0.030834923 0.05532059 -0.111451186 -0.01693761
0.0121 -0.015403179 -0.3768181 0.0059062047 0.046516698 -0.0248272 -0.059679504 -0.03391126
0.04729473 -0.030733708 0.068630934 0.06666284 -0.054935865 0.028061435 0.099053234 0.013787552
0.03864635 -0.028180681 0.21769732 0.05255253 -0.05488185 0.06431484 0.0075028036 -0.04589517
0.03002415 -0.036704455 -0.14643519 0.09744008 0.11306459 0.08223096 -0.03703927 0.03756827
0.072544254 -0.07084004 0.08227915 0.04227023 0.02590441 0.044694584 0.027865632 0.014515199
0.03709052 -0.044396542 0.023380697 0.04364905 -0.05399749 -0.0024163628 0.04592833 0.095373176
0.06676284 0.006970956 0.0297203 -0.050830424 0.14114323 -0.082659885 -0.039775614 -0.066482104
-0.028826747 -0.08741064 -0.055232447 -0.035598952 0.2040187 -0.11750016 -0.045257255 0.08260433
-0.01398805 -0.022174746 -0.0023074248 -0.019627312 -0.077372454 -0.15408781 -0.09898258 -0.059749212
-0.029248834 0.04651588 0.042462833 -0.025306912 -0.022435743 -0.007172 0.02510646 0.042719007
-0.041621096 -0.075761236 -0.14347874 -0.1258398 -0.044504717 0.070314884 -0.009839301 -0.017274782
0.31898534 0.072772965 0.050609715 -0.049163245 -0.23472212 -0.039237343 -0.060091764 0.033288833
-0.03722907 -0.046809085 -0.059610695 0.08474076 -0.044625416 0.00787258 0.037704375 -0.061260525
-0.031643476 -0.062635005 -0.055520788 0.028457627 0.02617541 -0.08072809 -0.017485254 -0.043474045
0.07534353 0.029019762 -0.050986156 -0.08015589 -0.8900516 -0.018787852 -0.04223549 0.032425933
0.016732581 0.09221229 -0.034439407 0.061149474 -0.12457666 -0.013094708 0.010574282 -0.015495895
-0.3443843 -0.001561995 0.053247303 -0.012710037 -0.05856003 -0.03517908 0.050745096 -0.029374126
0.05713543 0.065629594 -0.059031367 0.024844201 0.12270351 0.008242413 0.043161515 -0.0256422
0.19017959 0.04457786 -0.054236434 0.061073896 0.0036137782 -0.03567518 0.03112918 -0.0316811
-0.14610809 0.106989734 0.11089285 0.08563595 -0.03778218 0.030895472 0.0737174 -0.10646959
0.07784514 0.042419773 0.022510277 0.048017986 0.031265873 0.010206592 0.038657658 -0.043981265
0.019913888 0.03915509 -0.053538006 -0.0075797965 0.06845146 0.12131289 0.06513783 0.054340176
0.030309686 -0.053823296 0.124407776 -0.10513964 -0.03635503 -0.06444804 -0.035158623 -0.11096239
-0.05673377 -0.013810903 0.21733388 -0.14239952 -0.04441142 0.07069282 -0.01953887 -0.0150009785
-0.010496507 0.010469305 -0.0781716 -0.1572726 -0.11420913 -0.04035045 -0.031472642 0.05336871
0.05326259 -0.017263979 -0.022821162 -0.021355841 0.021740513 0.04770231 -0.0417755 -0.049085464
-0.12378241 -0.11227711 -0.04849773 0.08083473 -0.008232356 -0.018200375 0.27864486 0.06400148
0.06380973 -0.040645435 -0.18046506 -0.039695308 -0.058543712 0.015821164 -0.026503764 -0.04548274
-0.05912576 0.09188932 -0.04960897 0.008631297 0.03291176 -0.0699299 -0.030443316 -0.06588303
-0.066519186 0.01941652 0.023215326 -0.07758814 -0.010034857 -0.043919757 0.06727875 0.0253248
-0.048709806 -0.08105832 -0.7808372 -0.019041248 -0.041244403 0.06113595 0.017292777 0.07585734
00000000: 31bb 4cbd d82c 913c 00e7 983c 8546 593d
00000010: 8599 fcbc d897 623d 8540 e4bd bec0 8abc
00000020: 143f 463c 9e5d 7cbc 4dee c0be d688 c13b
00000030: 4b88 3e3d 6a62 cbbc 7f72 74bd 89e6 0abd
00000040: 1eb8 413d 42c5 fbbc 608e 8c3d 8786 883d
00000050: 6e04 61bd 18e1 e53c 6cdc ca3d 2fe5 613c
00000060: a34b 1e3d 2cdb e6bc 0cec 5e3e 5241 573d
00000070: cacb 60bd 80b7 833d 14da f53b 93fc 3bbd
00000080: 35f5 f53c 6957 16bd 1bf3 15be aa8e c73d
00000090: 688e e73d b568 a83d 7db6 17bd 30e1 193d
000000a0: 1592 943d 9514 91bd f981 a83d 8c23 2d3d
000000b0: 7c35 d43c ab11 373d 7746 e43c 28d1 6d3c
000000c0: 3bec 173d 26d9 35bd e088 bf3c 59c9 323d
000000d0: 792c 5dbd d75b 1ebb 581f 3c3d 0353 c33d
000000e0: f5ba 883d 9e6c e43b fd77 f33c 9033 50bd
000000f0: da87 103e 9649 a9bd c1eb 22bd c527 88bd
00000100: 1226 ecbc 5a04 b3bd 6b3b 62bd 35d0 11bd
00000110: 47ea 503e eda3 f0bd ac5f 39bd 752c a93d
00000120: 222e 65bc d0a7 b5bc 2a38 17bb 75c9 a0bc
00000130: 7375 9ebd 32c9 1dbe 61b7 cabd 97bb 74bd
00000140: 409b efbc 6f87 3e3d 82ed 2d3d 7150 cfbc
00000150: 2acb b7bc 1903 ebbb 10ac cd3c 20fa 2e3d
00000160: e27a 2abd b528 9bbd 17ec 12be 26dc 00be
00000170: 944a 36bd 4001 903d 0535 21bc d883 8dbc
00000180: 0c52 a33e fe09 953d 224c 4f3d 665f 49bd
00000190: ff5a 70be 56b7 20bd c822 76bd df59 083d
000001a0: 827d 18bd e2ba 3fbd 582a 74bd 908c ad3d
000001b0: 24c9 36bd fefb 003c e76f 1a3d 51ec 7abd
000001c0: 979c 01bd c846 80bd c469 63bd f81f e93c
000001d0: d06d d63c c554 a5bd 3c3d 8fbc d711 32bd
000001e0: b54d 9a3d daba ed3c dcd6 50bd c528 a4bd
000001f0: 6cda 63bf fbe8 99bc 1fff 2cbd 0ed1 043d
00000200: c412 893c ccd9 bc3d 5610 0dbd df77 7a3d
00000210: 0c22 ffbd 308b 56bc c13f 2d3c 7fe2 7dbc
00000220: 2453 b0be dbbb ccba d819 5a3d c23d 50bc
00000230: a4dc 6fbd f017 10bd 17da 4f3d 02a2 f0bc
00000240: d706 6a3d cf68 863d e0ca 71bd 1186 cb3c
00000250: fa4b fb3d 300b 073c 21ca 303d 970f d2bc
00000260: 70be 423e 4697 363d 0627 5ebd 9f28 7a3d
00000270: 23d5 6c3b 2320 12bd 9f02 ff3c 0bc4 01bd
00000280: 5c9d 15be 6f1d db3d ca1b e33d e761 af3d
00000290: 7dc1 1abd 8018 fd3c 26f9 963d ba0c dabd
000002a0: 466d 9f3d 5bc0 2d3d 7967 b83c 82ae 443d
000002b0: a510 003d 8d39 273c 7e57 1e3d b325 34bd
000002c0: 7322 a33c 1661 203d ab4a 5bbd f15f f8bb
000002d0: 4730 8c3d e472 f83d fc66 853d ce93 5e3d
000002e0: 054c f83c d175 5cbd 81c9 fe3d 7453 d7bd
000002f0: 03e9 14bd 56fd 83bd 7d02 10bd 4040 e3bd
00000300: ab61 68bd 2047 62bc c68c 5e3e 2ed1 11be
00000310: c0e8 35bd 66c7 903d fb0f a0bc aac6 75bc
00000320: 8bf9 2bbc 7387 2b3c 6f18 a0bd 120c 21be
00000330: 7ae6 e9bd 8346 25bd 75e9 00bd 2699 5a3d
00000340: e029 5a3d 306d 8dbc 72f3 babc 72f2 aebc
00000350: 2919 b23c 7f63 433d c91c 2bbd d70d 49bd
00000360: a281 fdbd 8bf1 e5bd 8ea5 46bd ae8c a53d
00000370: 01e1 06bc f418 95bc 8aaa 8e3e 3513 833d
00000380: adae 823d d47b 26bd d5cb 38be 8c97 22bd
00000390: 88cb 6fbd 639b 813c 6c1e d9bc 1c4c 3abd
000003a0: da2d 72bd 7830 bc3d c632 4bbd 496a 0d3c
000003b0: 7bce 063d 6837 8fbd 4364 f9bc afed 86bd
000003c0: 363b 88bd 650f 9f3c 112e be3c 88e6 9ebd
000003d0: 3e69 24bc 34e5 33bd 71c9 893d f475 cf3c
000003e0: ef83 47bd e801 a6bd f2e4 47bf 64fc 9bbc
000003f0: e4ef 28bd b169 7a3d 95a9 8d3c 185b 9b3d

post_sequence.1.bias f4 [4]
0.042415667 0.039967556 0.012251826 0.011071257
00000000: 0dbc 2d3d 05b5 233d e2bb 483c 3864 353c

lstm.weight_ih_l0 f4 [504, 126]
-0.17736635 -0.210867 0.37882662 -0.15859312 0.07301963 -0.2830249 0.13658293 -0.3411079
-0.1298324 0.07102457 -0.19921423 0.08278805 -0.03988176 -0.081422195 -0.0046330937 0.33149958
-0.12315114 0.08563079 -0.06069294 0.6421674 -0.030535007 -0.001110729 -0.0173092 -0.19327193
0.09005218 -0.09073234 -0.1154854 -0.052750915 0.21965334 -0.15645912 -0.1500229 0.026045632
0.18962817 -0.036514588 0.0841371 -0.2163679 -0.006495249 -0.16355842 0.07482744 -0.028034164
-0.29982236 0.0040274183 0.13357851 -0.13737133 0.02024892 -0.16721296 -0.016224103 -0.08886851
0.19392125 0.011292135 -0.13398607 -0.23726952 -0.18285628 0.07297201 -0.08415749 0.18579437
0.39978862 -0.1109784 0.18911482 -0.12740365 0.07546641 -0.15019396 0.055040933 0.8062306
-0.28479224 0.20619698 -0.22453201 -0.25301954 -0.07011948 0.028910322 -0.08853599 -0.27527794
-0.07119559 0.09616069 -0.015070868 0.060632944 0.07904647 0.012923863 -0.1268331 -0.6009691
0.1180373 -0.10153311 -0.17226957 0.071447715 -0.012642829 0.010661324 -0.1145056 -0.34781653
0.014181321 -0.10187086 0.37522027 0.024482245 0.1349663 -0.035064925 0.085382044 -0.0330561
-0.14842448 -0.29848546 0.05194266 0.26294947 0.16817725 -0.029328294 0.73078245 -0.13401705
-0.7967863 0.17616504 0.05274351 -0.031586144 -0.035709463 -0.10253099 -0.0009192144 -0.21922083
0.19577774 0.016917117 0.8123594 -0.016257994 -0.15027872 0.048312403 -0.24529688 0.009971459
-0.03809185 -0.08691156 0.06254117 0.5193058 -0.114777885 -0.17782238 0.043974183 0.023261515
0.010372403 -0.12005867 0.062340807 -0.055925954 0.0006922866 -0.11356912 -0.17871824 0.025176547
0.04234036 -0.08992083 -0.003888362 0.051717114 -0.05947162 -0.01781264 0.027798172 0.025675623
-0.047679167 0.06849512 0.007485876 0.02026794 -0.0066980277 -0.04862639 0.077894524 -0.20347863
-0.14896478 -0.061163034 -0.048893802 0.036804486 -0.11517456 -0.18669257 0.06529823 -0.0014518064
-0.10200826 -0.06757628 0.07218336 0.0035422794 -0.018781066 0.13120584 -0.069264665 -0.13212529
-0.07113046 0.022712523 0.0075658318 -0.09325444 0.014356961 0.05413115 -0.10862977 0.06288057
-0.02122889 0.15027107 -0.03138165 0.10411963 0.14595808 -0.068704195 0.07228092 0.11484943
-0.043250076 0.049624395 -0.04286291 0.03664266 0.08796625 -0.03569759 -0.18796355 0.0035068744
-0.14176252 0.010511165 -0.10382078 -0.008950403 0.043625265 -0.24425359 -0.08423894 -0.03807986
0.10761363 -0.0062386002 0.13335614 -0.10985102 -0.023398632 0.036450494 0.07639062 -0.056403637
0.07184253 0.12296939 0.090318695 -0.036193997 0.16891919 -0.07454467 0.0077653076 0.04983567
0.1360648 -0.03801541 -0.028533854 0.018081846 0.110227965 -0.028628452 -0.052600455 -0.049775306
0.048177127 0.01226675 -0.023947317 0.08282558 -0.13391475 -0.060143948 -0.15823705 -0.012577949
-0.019767987 0.030208334 -0.0130112795 0.12557706 0.048355263 -0.104758605 0.0073948787 0.051268067
-0.02679624 -0.019057384 0.03300263 -0.031925112 0.057818454 -0.09795084 -0.13937753 0.0106916195
-0.08299759 -0.018692615 0.030965675 -0.071484275 -0.17116039 -0.0030804889 0.080968045 -0.075562015
00000000: 869f 35be 85ed 57be 90f5 c13e 3c66 22be
00000010: 518b 953d a4e8 90be 65dc 0b3e b2a5 aebe
00000020: c9f2 04be 5475 913d d1fe 4bbe c88c a93d
00000030: 0e5b 23bd aec0 a6bd 35d1 97bb 50ba a93e
00000040: aa36 fcbd 325f af3d 2999 78bd 1565 243f
00000050: 8d24 fabc e195 91ba 06cc 8dbc 14e9 45be
00000060: 476d b83d e1d1 b9bd 9c83 ecbd 5811 58bd
00000070: ceec 603e d236 20be 9a9f 19be a65d d53c
00000080: e32d 423e 5290 15bd 1250 ac3d 8c8f 5dbe
00000090: 19d6 d4bb dc7b 27be 213f 993d e7a7 e5bc
000000a0: 5182 99be 6ff8 833b cec8 083e 12ab 0cbe
000000b0: 10e1 a53c e039 2bbe 69e8 84bc b200 b6bd
000000c0: 4b93 463e a602 393c a533 09be c8f6 72be
000000d0: ad3e 3bbe 5972 953d c35a acbd e140 3e3e
000000e0: 18b1 cc3e a548 e3bd 51a7 413e 1a76 02be
000000f0: 228e 9a3d 72cc 19be 9a72 613d 2165 4e3f
00000100: 4ad0 91be 4d25 533e b8eb 65be c78b 81be
00000110: cd9a 8fbd 57d5 ec3c 5b52 b5bd 3bf1 8cbe
00000120: fece 91bd e5ef c43d cdeb 76bc 405a 783d
00000130: 1ee3 a13d 9cbe 533c 89e0 01be 1cd9 19bf
00000140: 8abd f13d 97f0 cfbd 6f67 30be 2e53 923d
00000150: de23 4fbc d5ac 2e3c e981 eabd 0215 b2be
00000160: c558 683c aba1 d0bd df1c c03e fd8e c83c
00000170: 9b34 0a3e 3da0 0fbd c8dc ae3d d565 07bd
00000180: 96fc 17be 16d3 98be d4c1 543d 50a1 863e
00000190: a836 2c3e e441 f0bc 8f14 3b3f c43b 09be
000001a0: 30fa 4bbf 9c64 343e 9409 583d 7960 01bd
000001b0: 1644 12bd c5fb d1bd 6ff7 70ba 6d7b 60be
000001c0: f679 483e c495 8a3c c9f6 4f3f 7c2f 85bc
000001d0: aae2 19be 3ae3 453d 1b2f 7bbe 555f 233c
000001e0: 3306 1cbd b0fe b1bd 9615 803d 3af1 043f
000001f0: ab10 ebbd 1217 36be 461e 343d ef8e be3c
00000200: 03f1 293c 52e1 f5bd 1359 7f3d 9d12 65bd
00000210: 917a 353a ed96 e8bd ea01 37be 0c3f ce3c
00000220: 166d 2d3d 6a28 b8bd e4d3 7ebb 53d5 533d
00000230: 8398 73bd d0eb 91bc feb8 e33c af55 d23c
00000240: 3b4b 43bd 2b47 8c3d 144c f53b f308 a63c
00000250: 217b dbbb 772c 47bd 2a87 9f3d b45c 50be
00000260: 398a 18be 1786 7abd de44 48bd 4dc0 163d
00000270: a4e0 ebbd 562c 3fbe 14bb 853d 8a4a beba
00000280: b5e9 d0bd 6f65 8abd dfd4 933d 9625 683b
00000290: c0da 99bc d35a 063e a2da 8dbd da4b 07be
000002a0: d9ac 91bd 9d0f ba3c ccea f73b 2ffc bebd
000002b0: 7539 6b3c a0b8 5d3d 4979 debd 87c7 803d
000002c0: 36e8 adbc a9e0 193e 0c8a 00bd ac3c d53d
000002d0: 0976 153e c9b4 8cbd 0508 943d 2e36 eb3d
000002e0: fe26 31bd f342 4b3d 0591 2fbd 9d16 163d
000002f0: a627 b43d a337 12bd 8479 40be 97d3 653b
00000300: 322a 11be 0537 2c3c fd9f d4bd b6a4 12bc
00000310: 68b0 323d 9d1d 7abe 7785 acbd a1f9 1bbd
00000320: 8964 dc3d 2c6d ccbb 838e 083e 92f9 e0bd
00000330: 7dae bfbc 1d4d 153d af72 9c3d 8007 67bd
00000340: 2d22 933d 60d7 fb3d 02f9 b83d 2840 14bd
00000350: 27f9 2c3e e0aa 98bd 1f74 fe3b 7d20 4c3d
00000360: 9254 0b3e 0cb6 1bbd d4bf e9bc 6120 943c
00000370: 33bf e13d 3786 eabc 9373 57bd 31e1 4bbd
00000380: 6155 453d 7bfa 483c 2a2d c4bc 75a0 a93d
00000390: f320 09be 8059 76bd e508 22be be13 4ebc
000003a0: 79f0 a1bc 7877 f73c 432d 55bc 4697 003e
000003b0: 2b10 463d ae8b d6bd bd50 f23b 77fe 513d
000003c0: ca83 dbbc 3b1e 9cbc c42d 073d e8c3 02bd
000003d0: 0bd3 6c3d 739a c8bd fcb8 0ebe e72b 2f3c
000003e0: a4fa a9bd 4121 99bc baab fd3c 5966 92bd
000003f0: ab44 2fbe 07e2 49bb 93d2 a53d 42c0 9abd

lstm.weight_hh_l0 f4 [504, 126]
0.28645235 -0.030593198 0.10562636 -0.079472445 -0.091531746 -0.3855065 0.068010636 0.23463412
0.08117793 0.11015717 -0.14513889 0.05964295 0.10444995 -0.010673739 -0.030488519 -0.21608987
0.012854595 0.019109722 -0.59255475 0.021759186 0.00038703988 0.0312695 0.008451425 -0.19910412
-0.16226341 0.25739998 -0.7716232 -0.35425863 -0.118525915 -0.2265049 0.019637 0.90273404
-0.07929163 0.018642168 0.19455849 -0.12290832 -0.06399963 -0.1771463 -0.007101587 -0.5183186
-0.15098438 0.086470425 -0.16259642 0.17741793 -0.11112278 -0.09927758 -0.05328806 0.06161584
0.017542316 0.02886885 0.1931832 -0.18226303 0.07348668 -0.09085368 0.2092736 -0.17478113
-0.046010748 -0.20683496 -0.0681835 -0.0686213 -0.23761547 -0.15333267 0.06277692 0.25013626
0.10949917 0.2955101 -0.12458481 0.6885494 -0.32423458 -0.12606452 0.11352856 -0.11450129
0.15449177 0.17589791 -0.010667321 -0.19267425 0.03968424 -0.08664256 -0.17641678 0.78361434
-0.07788605 -0.11941908 -0.014849307 0.49339426 0.1167811 0.12039901 0.0035443862 -0.051659334
0.24016944 0.11070442 0.3440824 -0.035731807 0.0659632 -0.1153951 -0.042423833 -0.055094462
-0.150471 -0.27436185 0.1718416 0.048560515 0.34030068 -0.24539496 0.1453784 -0.293751
0.09950711 -0.10469981 -0.10884519 0.054735363 0.4996157 -0.13398434 -0.035154793 0.062465213
0.10469698 -0.08466064 0.116825305 -0.2389744 -0.071157694 -0.16302949 0.13005023 0.02582796
-0.20302331 0.04838025 -0.039611995 0.15750875 0.4726454 -0.12492544 -0.043132544 0.0048834262
0.12218879 0.041081727 -0.050661687 -0.087727636 -0.015714407 0.115535274 0.04672827 -0.056782164
0.026383271 0.10264529 0.008813423 0.013095422 -0.01760884 -0.1160533 0.021177353 -0.046031814
-0.10350138 0.013110634 0.015905235 -0.016976245 0.011164577 -0.073443666 -0.0634643 -0.05176777
-0.022527453 -0.07969075 -0.15700993 -0.049216546 -0.15793946 0.044054065 0.087162 -0.18860576
-0.024343878 0.052424543 0.033717636 0.017280526 -0.034764543 0.013418723 -0.12846762 -0.058740117
0.057653774 0.14501026 -0.099122666 0.040146805 -0.06921995 0.11188182 0.008119767 0.016054766
-0.050083645 -0.15376034 -0.056776013 0.053031195 -0.051245082 -0.004839547 -0.09537863 -0.014011167
-0.17812446 0.048174046 -0.10604917 -0.05319048 0.0089641735 0.071650654 -0.07535731 0.05507049
0.050916743 -0.0241935 -0.01481279 -0.063580476 0.027843937 0.041038178 0.024307963 0.1905278
-0.022315564 -0.062490903 -0.10153489 -0.09035003 0.018536253 -0.124622084 0.022371527 -0.02233072
0.007606763 -0.056241594 0.043553997 0.12488192 0.057091393 -0.040951516 0.038710035 0.010268141
-0.029186672 -0.084960096 0.11233032 -0.016997008 -0.2025827 -0.029638607 -0.023575101 0.05381108
-0.029892595 -0.050745357 0.0019124362 -0.12723856 -0.0039780973 -0.23860036 0.11860829 -0.015419812
-0.062285498 0.03130361 0.093775205 -0.16456804 -0.012197897 0.014668236 -0.062437676 -0.067448266
-0.03130035 -0.023594122 -0.059607312 -0.13315511 0.17165518 -0.030222723 0.14513773 0.1416199
-0.04604817 0.10414178 0.105928145 0.057632722 0.08817504 -0.14272237 0.010204653 -0.09044891
00000000: e2a9 923e 969e fabc a252 d83d 73c2 a2bd
00000010: ff74 bbbd 1c61 c5be 2949 8b3d ed43 703e
00000020: 9d40 a63d 159a e13d 4a9f 14be 2a4c 743d
00000030: dbe9 d53d e8e0 2ebc 0fc3 f9bc aa46 5dbe
00000040: 149c 523c fe8b 9c3c abb1 17bf 5240 b23c
00000050: 9deb ca39 7214 003d d877 0a3c f3e1 4bbe
00000060: 6128 26be eec9 833e 1989 45bf 6361 b5be
00000070: b7bd f2bd e7f0 67be c6dd a03c 9419 673f
00000080: a663 a2bd 76b7 983c 573a 473e 5bb7 fbbd
00000090: 3d12 83bd d765 35be 6eb4 e8bb 87b0 04bf
000000a0: a69b 1abe 6817 b13d ad7f 26be 0cad 353e
000000b0: 5794 e3bd 0b52 cbbd 9544 5abd e460 7c3d
000000c0: e7b4 8f3c 5e7e ec3c d1d1 453e 29a3 3abe
000000d0: 2f80 963d 7f11 babd d24b 563e d3f9 32be
000000e0: c475 3cbd 8bcc 53be caa3 8bbd 5389 8cbd
000000f0: 7851 73be 3d03 1dbe 3091 803d dc11 803e
00000100: 1a41 e03d 1a4d 973e 5226 ffbd c644 303f
00000110: 1302 a6be 0f17 01be a981 e83d a77f eabd
00000120: 1733 1e3e 951e 343e fdc5 2ebc 664c 45be
00000130: f18b 223d a871 b1bd 9aa6 34be f39a 483f
00000140: b982 9fbd fe91 f4bd 824a 73bc 2c9e fc3e
00000150: ee2a ef3d c293 f63d ef48 683b bd98 53bd
00000160: faee 753e 00b9 e23d 912b b03e 845b 12bd
00000170: b717 873d 4454 ecbd 9dc4 2dbd bbaa 61bd
00000180: 1215 1abe 2879 8cbe 3ff7 2f3e 64e7 463d
00000190: e43b ae3e d148 7bbe 13de 143e 8866 96be
000001a0: 62ca cb3d db6c d6bd 3aea debd 3032 603d
000001b0: a1cd ff3e 3133 09be 79fe 0fbd 86db 7f3d
000001c0: 5f6b d63d 8f62 adbd 1b42 ef3d b5b5 74be
000001d0: 20bb 91bd 34f1 26be e32b 053e 2895 d33c
000001e0: 58e5 4fbe 5e2a 463d 3040 22bd f949 213e
000001f0: 94fe f13e e9d8 ffbd c0ab 30bd 2605 a03b
00000200: 1e3e fa3d 5045 283d a182 4fbd 8caa b3bd
00000210: 80bb 80bc c29d ec3d 2466 3f3d 6a94 68bd
00000220: bb21 d83c b237 d23d 2d66 103c 2e8e 563c
00000230: 6a40 90bc 5aad edbd 217c ad3c db8b 3cbd
00000240: 88f8 d3bd fccd 563c b24b 823c c411 8bbc
00000250: a1eb 363c a269 96bd 92f9 81bd 710a 54bd
00000260: 7e8b b8bc e734 a3bd 36c7 20be 4a97 49bd
00000270: e2ba 21be 0972 343d fe81 b23d de21 41be
00000280: d06c c7bc 1ebb 563d 811b 0a3d e48f 8d3c
00000290: 4465 0ebd 34da 5b3c 048d 03be 7a99 70bd
000002a0: 5d26 6c3d 927d 143e d300 cbbd fa70 243d
000002b0: 30c3 8dbd 4c22 e53d c508 053c 4985 833c
000002c0: 8224 4dbd 5a73 1dbe f78d 68bd 3d37 593d
000002d0: 5de6 51bd 1095 9ebb df55 c3bd 188f 65bc
000002e0: 4266 36be 2652 453d 4f30 d9bd 43de 59bd
000002f0: 78de 123c 94bd 923d ef54 9abd 9891 613d
00000300: 138e 503d 7231 c6bc 58b1 72bc 7b36 82bd
00000310: f818 e43c a617 283d 7e21 c73c b819 433e
00000320: 21cf b6bc 76f6 7fbd 86f1 cfbd 7009 b9bd
00000330: 57d9 973c dd39 ffbd 7e44 b73c eaee b6bc
00000340: 2742 f93b 965d 66bd ad65 323d 18c2 ff3d
00000350: aad8 693d c7bc 27bd 6a8e 1e3d b43b 283c
00000360: e318 efbc 8fff adbd 700d e63d 4f3d 8bbc
00000370: d771 4fbe aacc f2bc 9220 c1bc 0269 5c3d
00000380: 51e1 f4bc 5dda 4fbd b6aa fa3a d34a 02be
00000390: b35a 82bb a753 74be e7e8 f23d 61a3 7cbc
000003a0: 141f 7fbd 3738 003d 370d c03d 8684 28be
000003b0: b0d9 47bc 0a53 703c a6be 7fbd 5122 8abd
000003c0: cc34 00bd 7648 c1bc cc26 74bd d059 08be
000003d0: 60c6 2f3e a595 f7bc fc9e 143e cf04 113e
000003e0: 029d 3cbd 4948 d53d dbf0 d83d 4a10 6c3d
000003f0: 1e95 b43d d025 12be 6b31 273c 473d b9bd

lstm.bias_ih_l0 f4 [504]
-0.10957732 -0.16011421 0.0067953174 -0.013378268 -0.13567579 -0.041074097 0.028103143 -0.04744738
0.014273611 -0.15148273 -0.29805037 -0.024036914 -0.10379553 0.011809619 0.09556245 -0.09978613
0.0039458624 -0.01617999 -0.15378134 -0.004212654 -0.15590942 -0.18450089 -0.12600163 -0.001303488
-0.051982824 0.038465004 -0.18602833 -0.058009867 -0.08910646 0.017200664 -0.124207936 -0.020537812
0.0097337365 -0.16132881 -0.09737784 0.14044048 -0.06908829 0.0026773377 0.05303517 0.020762118
-0.10534607 -0.14332059 -0.16328184 0.021068193 0.025105394 -0.088346474 0.013576543 -0.03163522
-0.13740961 -0.05819024 -0.07826078 -0.116981715 -0.059181895 -0.10418237 -0.07178442 -0.159048
0.041112542 0.042474326 -0.07769284 -0.09618369 -0.09764693 -0.075438365 -0.12475216 -0.011422207
0.0017525359 -0.09732988 -0.109370574 0.040535063 -0.035004415 -0.025484895 -0.05238912 -0.18064037
-0.048165843 -0.100594096 -0.03166086 -0.20747198 0.02545651 -0.1843994 -0.042195342 -0.12340051
-0.16140866 -0.10115309 -0.077345915 -0.22008173 0.023579422 0.0024366553 -0.025775407 0.050523914
0.06474498 -0.010515242 -0.06413292 -0.10594671 -0.046958335 -0.09219866 -0.069727376 -0.01329134
0.08347068 -0.12138899 -0.1319685 -0.12987572 0.06785294 0.012680254 -0.11015497 0.0877182
-0.0154950265 -0.164749 -0.17553146 -0.06527661 -0.0071833795 -0.18027501 -0.019579174 -0.113063835
-0.12869237 -0.0951281 -0.15319623 0.05396098 -0.08097248 -0.11117435 -0.015034102 -0.008224537
-0.039395753 -0.053930957 -0.059798703 0.08403378 -0.22874448 -0.06384435 -0.03811687 -0.07175754
0.23211473 0.028696321 0.009179779 0.0331054 0.034447286 -0.033906676 0.14047268 0.03446479
-0.09282862 -0.12968229 -0.06337871 -0.14772741 -0.115200825 0.0006376383 -0.09091037 -0.02438766
0.026122984 0.069528274 0.035153452 -0.038277622 -0.06416274 0.29415864 -0.13994347 0.3039575
-0.06561298 0.0052187326 0.024082856 -0.03943099 -0.04183164 -0.02922407 0.00092814985 -0.028379602
-0.231557 0.08721976 0.015581243 -0.073009655 -0.10071988 0.012823964 -0.14077738 0.06527329
-0.069150046 0.06430594 -0.17682227 -0.15245871 -0.0042693345 -0.078928575 0.018797444 0.00037241992
0.0011382683 -0.07908045 -0.037764877 0.05621356 0.06956801 0.046919685 -0.042470235 0.036779657
0.035007343 -0.059971843 -0.0053983293 0.007878549 0.05944878 0.023956263 -0.019658312 -0.12225039
0.0092552025 0.03999389 0.022363493 -0.123640895 0.0130216265 -0.10254715 -0.14107749 0.16394797
0.0063475897 -0.06759381 0.05722761 0.05010126 0.06457913 -0.2102646 -0.1359508 0.08726882
-0.003019717 0.039757702 0.09178686 -0.032247823 0.2114848 -0.013573228 -0.056815565 0.0029781833
-0.09569356 0.05454431 -0.057178456 -0.011913588 -0.30082 0.0041540936 -0.12800357 0.03658991
-0.018486302 0.03718883 -0.018282397 -0.1706882 -0.09094714 -0.02638696 0.040808573 -0.028228061
0.0063654203 -0.02232477 -0.02287172 0.41079307 -0.053600885 0.0876494 -0.007921467 0.0041575846
-0.011886142 -0.10702767 -0.12394533 -0.04633711 0.029855173 -0.030250734 0.045764826 -0.038768277
0.04467707 0.09214442 -0.11889632 -0.1432977 0.10082502 -0.102515064 -0.09845789 -0.010834784
00000000: 136a e0bd fbf4 23be 41ab de3b 8630 5bbc
00000010: 98ee 0abe 503d 28bd 9038 e63c 2f58 42bd
00000020: dddb 693c 4a1e 1bbe 0f9a 98be 10e9 c4bc
00000030: c092 d4bd 227d 413c 3fb6 c33d ac5c ccbd
00000040: 4b4c 813b e68b 84bc db78 1dbe 4e0a 8abb
00000050: b8a6 1fbe cded 3cbe 9206 01be cdd9 aaba
00000060: f1eb 54bd 7b8d 1d3d 367e 3ebe c19b 6dbd
00000070: 737d b6bd 68e8 8c3c bb60 febd ea3e a8bc
00000080: 407a 1f3c 6133 25be 086e c7bd a1cf 0f3e
00000090: 297e 8dbd 4676 2f3b 683b 593d 5115 aa3c
000000a0: aebf d7bd a2c2 12be 5b33 27be 3497 ac3c
000000b0: d4a9 cd3c ffee b4bd 2670 5e3c ef93 01bd
000000c0: 1bb5 0cbe e458 6ebd 3047 a0bd 1c94 efbd
000000d0: b768 72bd 915d d5bd b603 93bd 7bdd 22be
000000e0: a065 283d 8ff9 2d3d 6c1d 9fbd f4fb c4bd
000000f0: 1dfb c7bd 6e7f 9abd 0f7e ffbd 3524 3bbc
00000100: 59b5 e53a e354 c7bd aefd dfbd 1808 263d
00000110: ca60 0fbd b3c5 d0bc f995 56bd caf9 38be
00000120: 8c49 45bd 4704 cebd d1ae 01bd 8973 54be
00000130: 2c8a d03c 32d3 3cbe 06d5 2cbd 68b9 fcbd
00000140: 5048 25be 5a29 cfbd 8967 9ebd 1b5d 61be
00000150: a229 c13c 4bb0 1f3b f226 d3bc 2af2 4e3d
00000160: 0499 843d 1f48 2cbc 1f58 83bd 97fa d8bd
00000170: 6257 40bd a7d2 bcbd 3acd 8ebd ecc3 59bc
00000180: adf2 aa3d ca9a f8bd c022 07be 24fe 04be
00000190: 7bf6 8a3d d7c0 4f3c ee98 e1bd 9aa5 b33d
000001a0: dade 7dbc f6b3 28be 85be 33be beaf 85bd
000001b0: 8e62 ebbb 039a 38be 8164 a0bc 038e e7bd
000001c0: efc7 03be 85d2 c2bd 79df 1cbe 3006 5d3d
000001d0: e6d4 a5bd 61af e3bd 9851 76bc 35c0 06bc
000001e0: 715d 21bd b5e6 5cbd 7cef 74bd e719 ac3d
000001f0: fe3b 6abe d4c0 82bd 6f20 1cbd 9ef5 92bd
00000200: 7caf 6d3e 8c14 eb3c c966 163c 8799 073d
00000210: 9918 0d3d bae1 0abd 12d8 0f3e f42a 0d3d
00000220: ee1c bebd 6fcb 04be b2cc 81bd db45 17be
00000230: 69ee ebbd 2f27 273a 372f babd a1c8 c7bc
00000240: deff d53c d764 8e3d 11fd 0f3d ffc8 1cbd
00000250: c167 83bd f69b 963e 574d 0fbe 51a0 9b3e
00000260: 1960 86bd e701 ab3b 6949 c53c 6482 21bd
00000270: a757 2bbd 5167 efbc 154f 733a 577c e8bc
00000280: 471d 6dbe 46a0 b23d 7848 7f3c 1686 95bd
00000290: 3946 cebd 9a1b 523c f227 10be 01ae 853d
000002a0: 8a9e 8dbd d5b2 833d e610 35be 231e 1cbe
000002b0: c6e5 8bbb 4ea5 a1bd 19fd 993c 5b41 c339
000002c0: f231 953a eef4 a1bd 58af 1abd 3140 663d
000002d0: ac79 8e3d db2e 403d 45f5 2dbd 44a6 163d
000002e0: dc63 0f3d 09a5 75bd 78e4 b0bb 0815 013c
000002f0: 9080 733d ed3f c43c 780a a1bc 6a5e fabd
00000300: 22a3 173c a2d0 233d a533 b73c 7037 fdbd
00000310: a958 553c 3d04 d2bd 9e76 10be fae1 273e
00000320: 71ff cf3b a06e 8abd 8067 6a3d fb36 4d3d
00000330: 1042 843d 9a4f 57be b036 0bbe ffb9 b23d
00000340: 72e6 45bb f9d8 223d c0fa bb3d 4b16 04bd
00000350: 798f 583e 3f62 5ebc 70b7 68bd a02d 433b
00000360: fcfa c3bd db69 5f3d f533 6abd 3631 43bc
00000370: 1405 9abe 101f 883b 5e13 03be 4ddf 153d
00000380: 9670 97bc 5153 183d f7c4 95bc e3c8 2ebe
00000390: 7e42 babd 7729 d8bc e426 273d 893e e7bc
000003a0: 0495 d03b 70e2 b6bc 795d bbbc 7853 d23e
000003b0: 9a8c 5bbd 8781 b33d 0ac9 01bc 593c 883b
000003c0: 18be 42bc 5331 dbbd 0dd7 fdbd fbcb 3dbd
000003d0: d692 f43c 63d0 f7bc e673 3b3d 7ccb 1ebd
000003e0: 4eff 363d 37b6 bc3d ea7f f3bd a2bc 12be
000003f0: 597d ce3d 6bf3 d1bd 4aa4 c9bd 6184 31bc

lstm.bias_hh_l0 f4 [504]
-0.15493226 -0.10905755 -0.0630365 -0.012665475 -0.1466525 0.03579428 0.039532714 -0.053609297
0.011033386 -0.13082835 -0.29989618 -0.013271903 -0.023690464 -0.13904847 0.14153251 -0.073877685
-0.04208224 -0.0529263 -0.10871856 -0.09347603 -0.017359396 -0.07841171 -0.07277892 -0.03054122
-0.026887586 -0.02205231 -0.25872955 -0.012112694 -0.058243476 -0.08948545 -0.07432098 0.010332885
-0.12306317 -0.09990768 -0.027419442 0.107484594 -0.10789566 -0.11484253 -0.053295393 -0.06251048
-0.065008655 -0.19577375 -0.14074521 -0.018627148 -0.026921786 -0.20095417 -0.034187846 -0.010402561
-0.014119467 -0.112884715 -0.012479818 -0.028708272 -0.05395116 -0.1537502 -0.06615775 -0.038075577
0.045250442 -0.03968531 -0.13600303 -0.14569418 -0.120450854 -0.16803075 -0.007922793 -0.029154308
-0.069211096 -0.0138901295 -0.1199976 0.017972045 -0.018554479 -0.10211264 -0.03523271 -0.14487997
0.04770599 -0.10684936 -0.022560365 -0.20463993 0.00014059254 -0.09833774 -0.13000108 0.0095799
-0.102644295 -0.095139936 -0.066012874 -0.15822142 0.08865446 0.06892961 0.0059815994 0.023628464
0.029592918 -0.0747138 -0.0077186483 -0.17967151 -0.066579305 -0.114545405 -0.09723391 -0.05204631
0.053644437 -0.22757076 -0.20210135 -0.17452037 0.18854515 -0.015688663 -0.0394541 0.08753898
-0.08526911 -0.056961935 -0.14948492 0.0043810355 0.05835138 -0.2057052 0.04903637 -0.105972685
-0.12962031 -0.069894426 -0.07242014 -0.0037723412 -0.13609557 -0.14726327 0.08634742 -0.01573898
-0.05210225 -0.1989806 -0.06872109 0.03681369 -0.33406332 -0.106825516 0.060046762 0.031327177
0.21108632 0.03264569 -0.060734857 0.10116737 0.10480198 -0.030467078 0.18111601 -0.0032725048
-0.09434205 -0.17054331 0.0134829255 -0.03494909 -0.10570503 0.032242816 -0.07154982 -0.019585764
-0.012357188 0.10422369 -0.07099823 -0.103128836 -0.089044705 0.21605553 -0.08658573 0.28258774
-0.086206324 0.13053018 0.053752396 -0.038072187 0.01244435 -0.055479705 -0.03495481 -0.026106445
-0.22181062 -0.033078168 -0.06157464 -0.16418402 -0.064199366 -0.01910278 -0.13755867 0.012961083
0.015785348 0.111089386 -0.17527652 -0.20274282 -0.14308916 -0.06019867 -0.006535873 -0.00087725255
-0.0036311008 -0.16032925 -0.041276563 0.0034812058 0.06462655 0.068558335 -0.060106054 -0.010007312
0.104133636 0.012357509 -0.04622291 0.0023951784 0.0697939 -0.11045179 0.027439116 -0.09032051
0.0058297603 0.06818367 -0.08308133 -0.13550583 -0.08605791 -0.13938233 -0.06814985 0.09096777
-0.06367664 -0.0094290795 -0.050354376 -0.027409079 -0.018204179 -0.1217994 -0.05804215 -0.033661
-0.018167475 0.11015199 0.03900909 -0.07635524 0.21230993 -0.12320784 -0.060991682 -0.022926237
-0.16894211 0.03245577 -0.038293287 -0.004126342 -0.319627 -0.030727435 -0.029193614 0.018556632
-0.10170645 -0.062226307 -0.0015101911 -0.16154681 0.03219552 -0.043189272 0.03992899 0.054277267
-0.039638594 -0.06933484 -0.03588761 0.3699433 0.061173618 0.020778466 0.0031925796 0.07563349
0.036017474 -0.03441819 -0.11966723 0.04079843 0.0014307637 -0.09720761 -0.038890325 0.032422796
0.0509774 0.0691618 -0.090168536 -0.059604894 -0.051156197 -0.028263394 -0.08651561 -0.055470288
00000000: 90a6 1ebe 9159 dfbd 4819 81bd da82 4fbc
00000010: 132c 16be 069d 123d 0eed 213d 6c95 5bbd
00000020: 60c5 343c def7 05be fe8b 99be 6572 59bc
00000030: 8112 c2bc b962 0ebe e6ed 103e 2f4d 97bd
00000040: 6d5e 2cbd 3fc9 58bd d6a7 debd 5c70 bfbd
00000050: 4b35 8ebc 5296 a0bd 1d0d 95bd 9531 fabc
00000060: 5b43 dcbc 0ca7 b4bc 3378 84be 5274 46bc
00000070: b690 6ebd 2644 b7bd 9935 98bd 434b 293c
00000080: 8b08 fcbd 669c ccbd bd9e e0bc e220 dc3d
00000090: 66f8 dcbd 8f32 ebbd 454c 5abd 7f05 80bd
000000a0: 4223 85bd ea78 48be 831f 10be f697 98bc
000000b0: 148b dcbc eec6 4dbe 8e08 0cbd 816f 2abc
000000c0: 5655 67bc 1a30 e7bd 2778 4cbc 9c2d ebbc
000000d0: e4fb 5cbd b170 1dbe b77d 87bd 23f5 1bbd
000000e0: 8758 393d 108d 22bd 6144 0bbe db30 15be
000000f0: f0ae f6bd 4110 2cbe 9ace 01bc 04d5 eebc
00000100: 8cbe 8dbd 6d93 63bc 4dc1 f5bd 1c3a 933c
00000110: 90ff 97bc 6f20 d1bd 2d50 10bd 6a5b 14be
00000120: 5b67 433d d6d3 dabd 84d0 b8bc 218d 51be
00000130: 066c 1339 4c65 c9bd 011f 05be 03f5 1c3c
00000140: 2c37 d2bd bad8 c2bd c231 87bd cc04 22be
00000150: 7890 b53d f82a 8d3d 4b01 c43b 7b90 c13c
00000160: d96c f23c 8c03 99bd b7ec fcbb cffb 37be
00000170: bb5a 88bd c896 eabd 9222 c7bd 832e 55bd
00000180: 45ba 5b3d 4f08 69be a8f3 4ebe 78b5 32be
00000190: fb11 413e 8385 80bc 9f9a 21bd a347 b33d
000001a0: 92a1 aebd eb50 69bd 9312 19be ca8e 8f3b
000001b0: db01 6f3d 62a4 52be 5cda 483d 3508 d9bd
000001c0: 30bb 04be cf24 8fbd 0351 94bd 6239 77bb
000001d0: a35c 0bbe 2fcc 16be ebd6 b03d 09ef 80bc
000001e0: 2b69 55bd 92c1 4bbe a5bd 8cbd f4c9 163d
000001f0: 590a abbe 56c7 dabd 98f3 753d ed50 003d
00000200: 0327 583e 7db7 053d 1dc5 78bd d730 cf3d
00000210: 6ca2 d63d 1896 f9bc 7a76 393e 8577 56bb
00000220: 6836 c1bd e8a2 2ebe 7de7 5c3c c726 0fbd
00000230: e17b d8bd 0b11 043d b688 92bd 5372 a0bc
00000240: ce75 4abc 3b73 d53d 8567 91bd 3635 d3bd
00000250: 125d b6bd a93d 5d3e dc53 b1bd 57af 903e
00000260: f18c b0bd b4a9 053e 792b 5c3d 95f1 1bbd
00000270: 63e3 4b3c b03e 63bd c62c 0fbd 2fdd d5bc
00000280: 5322 63be f97c 07bd b135 7cbd db1f 28be
00000290: f57a 83bd 6f7d 9cbc 2edc 0cbe b95a 543c
000002a0: 4650 813c d582 e33d b07b 33be d09b 4fbe
000002b0: f785 12be e192 76bd e02a d6bb 6cf7 65ba
000002c0: c3f7 6dbb 5a2d 24be 9d11 29bd f124 643b
000002d0: ed5a 843d 5068 8c3d c431 76bd b5f5 23bc
000002e0: 0444 d53d 2677 4a3c 3c54 3dbd 6df8 1c3b
000002f0: 1bf0 8e3d 8c34 e2bd ffc7 e03c f6f9 b8bd
00000300: 9307 bf3b e1a3 8b3d 8b26 aabd 0ac2 0abe
00000310: 213f b0bd 3eba 0ebe 2692 8bbd 4f4d ba3d
00000320: e668 82bd 6d7c 1abc 6440 4ebd 0189 e0bc
00000330: ee20 95bc f771 f9bd 9bbd 6dbd 1ee0 09bd
00000340: f5d3 94bc 5e97 e13d ffc7 1f3d 2360 9cbd
00000350: c667 593e 6454 fcbd 6ad2 79bd cecf bbbc
00000360: 29ff 2cbe 57f0 043d 6cd9 1cbd 4436 87bb
00000370: 26a6 a3be 1ab8 fbbc 7227 efbc 1404 983c
00000380: 794b d0bd 03e1 7ebd 9bf1 c5ba 876c 25be
00000390: 73df 033d 3ce7 30bd 958c 233d d751 5e3d
000003a0: 145c 22bd 6dff 8dbd e3fe 12bd 3569 bd3e
000003b0: 3091 7a3d 9a37 aa3c 993a 513b bbe5 9a3d
000003c0: 0f87 133d 17fa 0cbd 1814 f5bd 411c 273d
000003d0: 7788 bb3a c914 c7bd 764b 1fbd c4cd 043d
000003e0: aecd 503d b4a4 8d3d 48aa b8bd 4324 74bd
000003f0: 2989 51bd a288 e7bc 192f b1bd d034 63bd
