surrogate/run/train/routing/saves/train-test2/30sec/lake/state_dict.pt (torch, 535012 bytes, 8 tensors)

pre_sequence.0.weight f4 [126, 34]
000000 f9 e2 ca bc d5 88 8f 3c bc 03 35 3d da 13 68 3c
       -0.024766432 0.017521301 0.044193015 0.014164889
000010 77 20 9a 3d ab e8 69 bd be 02 17 3e 3e c0 c7 3d
       0.075257234 -0.057106655 0.1474714 0.09753464
000020 fb 5e 23 be ba ef d6 3c ac 07 33 3d a3 06 2c be
       -0.15954201 0.026237357 0.04370849 -0.16799407
000030 98 6c ad bd 0a f4 9d bd 7f 42 15 3e 37 3b fa 3d
       -0.08467978 -0.077125624 0.14576147 0.122183256
000040 bb 6a d3 bd 6a 05 b3 3d 3f 67 31 3e 8e 83 ec bc
       -0.103230916 0.08741267 0.17324542 -0.028871324
000050 6d 04 04 3e 30 6b ca bd ff a7 1c 3e ee 5a 4c 3d
       0.12892313 -0.09883726 0.1529846 0.049891405
000060 ec f5 b6 3d 6c d8 d7 bd 6a 22 db 3d 2b e4 04 3d
       0.089336246 -0.10539326 0.10699923 0.03244416
000070 8c fe b7 bd 13 5b 2c 3e 23 d0 1e 3e a7 de aa 3c
       -0.08984098 0.16831617 0.15509085 0.020858122
000080 e0 ca 0b 3e 2d 2f 87 3d 57 d3 27 be 18 0d ed 3d
       0.1365161 0.06600795 -0.16389214 0.11574763
000090 24 e4 1e 3e 22 c6 af bd 56 e3 fc 3c 81 69 03 be
       0.15516716 -0.08582713 0.030870121 -0.12833215
0000a0 de 1b 16 3d 47 f9 d9 bc f7 07 c4 3d c6 f5 8a bd
       0.03664767 -0.026608123 0.09571832 -0.06785159
0000b0 ca ba 16 be 00 f7 b1 bd 09 42 d3 bc 02 11 f9 bc
       -0.14719692 -0.0868969 -0.025788324 -0.030403618
0000c0 b2 de 77 bd 25 9a 58 bd ec 46 18 3e 49 82 13 3e
       -0.060515113 -0.05288138 0.14870805 0.14405169
0000d0 ac eb 17 3e db dc e2 bd 8b 98 90 bd ea 1d c8 bd
       0.14835995 -0.11077281 -0.07060345 -0.09771331
0000e0 8d 02 1b bc 1b 8e 1b 3e 3a 01 ba bc 29 ba 5b bd
       -0.009461057 0.15190928 -0.022705663 -0.053644333
0000f0 4a bc 80 3d a3 76 b6 3d c2 a9 2b 3c 3e 36 c7 bd
       0.06285913 0.08909347 0.010477485 -0.09727143
000100 e3 38 53 bd 46 65 0e 3e 56 7d 0b 3d e9 0a 94 3d
       -0.051567923 0.1390582 0.034055077 0.072286434
000110 93 46 ef bc 07 e4 a8 3d 9d f7 49 3d d9 e8 db 3d
       -0.029208457 0.08246618 0.049308408 0.107377715
000120 b8 05 9c bd 63 71 2f 3d 69 31 00 3e 9c 9e 19 bd
       -0.07618278 0.042832743 0.12518848 -0.037504777
000130 c9 bc 8b 3d 13 f4 89 bc 3e 4c 3a be e4 02 3f 3d
       0.06823117 -0.016840016 -0.18193147 0.046633616
000140 78 ec 23 3d 80 26 9b 3d 03 2a 37 be 46 63 f1 3d
       0.040020436 0.07575703 -0.1788712 0.11786513
000150 fa 32 0c be e8 05 85 bd ab ff de 3d d5 bc fe 3b
       -0.13691321 -0.06495267 0.108886085 0.0077739754
000160 99 e1 2d be 28 7b a6 bd 6c 92 55 3d 07 69 c9 3d
       -0.1698059 -0.08128959 0.052141592 0.098344855
000170 7a 41 9b bd 82 6a 3d bd e5 67 fe bd c2 07 11 be
       -0.07580848 -0.046244152 -0.1242216 -0.14163116
000180 d7 b6 1f bc dc e6 05 be 91 89 23 be ae f4 d5 bd
       -0.009748182 -0.13076347 -0.15970446 -0.104470596
000190 1c a5 eb 3d a1 76 6f 3d c9 53 20 be b0 46 a6 bd
       0.115061015 0.058462743 -0.15656962 -0.08118951
0001a0 ec 96 b5 bd f9 b2 27 3d 9d ef 1d be 56 90 10 3e
       -0.08866677 0.040942166 -0.15423436 0.1411756
0001b0 07 0f 13 3d b1 86 51 3d 5b 16 98 3c b1 b0 12 3e
       0.035903003 0.051153842 0.018565347 0.14325215
0001c0 9a 2c 9b 3d 02 4d 9f 3d 01 cb f4 bd a7 f2 17 3e
       0.075768664 0.0777836 -0.119527824 0.14838658
0001d0 ec ea cf 3d 32 37 11 3c de 54 c2 3d 5d 9d 35 be
       0.1015223 0.008863257 0.094888434 -0.1773581
0001e0 42 ed 71 bd 0d eb 1f be e5 1e a6 3b f3 b8 2e 3d
       -0.059064157 -0.15617009 0.005069601 0.04265685
0001f0 dd ea dd 3d 0e a7 cb 3d 90 fb 5c 3d c8 84 fe 3d
       0.10835812 0.099439725 0.053950846 0.1242767
000200 91 d2 f9 3d ac 13 11 bd 47 61 96 bd 40 72 95 3d
       0.121983655 -0.03541915 -0.07342773 0.07297182
000210 12 de 70 bd 90 95 6d 3c 59 83 13 be f0 7c aa bc
       -0.058805533 0.0145009905 -0.14405574 -0.020811528
000220 f8 bd 47 3d bb bc c4 3d ce 78 88 bd d3 dd 2d 3e
       0.048765153 0.0960631 -0.06663667 0.1697915
000230 69 f7 ce bd 11 98 e2 3c f7 2a 0c bc 3d f6 b6 bd
       -0.101057835 0.027660402 -0.0085551655 -0.08933685
000240 f4 86 71 3c 2c 93 e2 bd f2 98 19 3e 0b 99 89 bc
       0.014741648 -0.11063227 0.1499975 -0.01679661
000250 43 9c bf bd 21 d4 bf 3d d1 bc 27 be 01 01 5e bd
       -0.093559764 0.09366632 -0.16380621 -0.054200176
000260 c3 7a d0 3d 2e 5b ac 3d b5 b4 df 3d 24 c7 12 be
       0.10179665 0.08415829 0.10923139 -0.14333779
000270 3a 4e b5 3d b2 f4 8d bd b6 2a bc bd 23 bd 57 bd
       0.08852811 -0.069314376 -0.09187834 -0.05267061
000280 0e 34 b8 bd 08 a4 08 3c 95 15 d9 3d 90 1a 48 bd
       -0.08994304 0.008339889 0.105998196 -0.048853457
000290 b7 d8 28 3e f4 07 98 3d da 4c 19 3d f7 ad d4 bb
       0.1648892 0.07423392 0.037426807 -0.006490465
0002a0 d1 6a 2c be 6d 0d 9c bc bc 29 b6 bc c5 c0 0e be
       -0.16837622 -0.01904937 -0.022236697 -0.13940723
0002b0 9c 32 11 be 8e 9d 89 bb c5 ec 49 3d e4 82 12 bd
       -0.14179462 -0.00419969 0.049298067 -0.03576936
0002c0 59 df 87 bc 4b 0e c7 3c a6 41 e5 bd 92 7a 29 3e
       -0.016585993 0.024298808 -0.11194162 0.16550663
0002d0 94 5b 04 3e a2 85 23 3e 7b 13 1c be d0 99 17 3e
       0.1292556 0.15968946 -0.15241806 0.14804769
0002e0 72 c7 d7 3d 54 0a a5 bd 5d 38 ef bd d9 ee 6e bd
       0.10536088 -0.080586106 -0.11680672 -0.05833325
0002f0 b9 f1 45 3e a3 7b 0c be de 9d 71 3c e4 29 60 bd
       0.19330491 -0.13719039 0.014747111 -0.05472745
000300 20 30 2c 3e ab 8d 12 be 02 41 33 bd d9 1b 4c 3d
       0.16815233 -0.14311855 -0.04376317 0.049831245
000310 46 8b c1 3c 8c fb da 3c 5d ec f1 bd e2 92 1a 3e
       0.023625981 0.026731275 -0.11812661 0.15095094
000320 30 5d 13 3d 80 82 9a 3d 85 20 1e 3e 07 0c 06 be
       0.035977542 0.07544422 0.15442093 -0.13090526
000330 ac e0 61 3d 08 35 69 bd 76 44 9a 3c d6 c3 33 3e
       0.055145904 -0.05693534 0.018831473 0.17555174
000340 a5 29 e0 3d c2 f1 b2 3d f0 79 02 3d 60 4e e2 bd
       0.10945443 0.08737518 0.03185457 -0.11050105
000350 c9 bb ed bd 8c 70 a2 bd a5 ad 9a 3d 41 9c a6 3d
       -0.11608083 -0.07931623 0.07552651 0.08135272
000360 8a a0 a8 ba 5d 34 1c be 46 19 04 3d 66 63 2c 3d
       -0.0012865227 -0.1525435 0.032250665 0.04208698
000370 b5 36 ca bd 61 75 58 bd d4 24 02 3e 3b d7 4d bd
       -0.09873716 -0.052846316 0.12709361 -0.050254088
000380 30 6a 61 3d cb a3 01 3d 11 4a 1c 3d 15 4c 09 3e
       0.05503291 0.031650346 0.038156573 0.13407929
000390 e2 d0 1b 3e df 42 28 be 51 1e 39 3d a9 6a 39 3c
       0.15216401 -0.1643176 0.045194928 0.011316934
0003a0 4d 19 27 3e fb 2c 22 3e 67 b1 2a be 6d 09 17 3e
       0.16318245 0.15837471 -0.16669236 0.1474969
0003b0 64 c2 91 bd a3 55 72 bd e3 c4 a9 bc fc f3 b8 bb
       -0.07117155 -0.0591637 -0.020723766 -0.0056443196
0003c0 22 9b fb 3d 26 21 24 bd 70 d9 e1 bd 93 7c 01 bc
       0.122854486 -0.040070675 -0.11027801 -0.007903236
0003d0 92 ec 20 be d6 17 92 3d 00 61 9f 3d d2 e0 fb 3d
       -0.15715244 0.071334526 0.07782173 0.122987404
0003e0 34 1d 1c bd 3b d0 25 3e 2c 4e 27 be b5 a4 30 3e
       -0.038113788 0.16192715 -0.16338414 0.17250331
0003f0 c7 03 2a bd fc 81 98 3c 34 f9 07 bd d4 0d 02 3e
       -0.04150751 0.018616669 -0.033196643 0.12700588

pre_sequence.0.bias f4 [126]
000000 9b b5 0f 3e 67 f8 10 3e 4d 45 05 3e 0b 4c bd bd
       0.1403412 0.14157258 0.13014717 -0.0924302
000010 0c 50 6e 3d 5e 9a 33 3e 56 7d 4f bd e4 6c 0f 3e
       0.058181807 0.17539355 -0.05065664 0.14006382
000020 f1 6c 07 3e 8d 5f 93 3d dc 83 92 3d be 1e 1f 3e
       0.13225152 0.07195959 0.071540564 0.15539071
000030 fa 0a 58 3d ef 77 ec 3d ec 6e 9c 3d 0a e1 ba 3d
       0.052744843 0.11546313 0.07638344 0.09124954
000040 e3 d6 49 bd 29 40 18 be b8 19 39 3e 67 f6 1b 3e
       -0.049277198 -0.14868225 0.18076217 0.15230714
000050 7d 54 66 bd f7 8f 2d 3d 8b 4c 7d 3d 05 c1 de 3d
       -0.056232918 0.042373624 0.061840575 0.10876659
000060 1f b1 1e 3e f0 f6 de 3d 69 49 87 bb 01 26 ae bd
       0.15497254 0.10886943 -0.004128624 -0.085033424
000070 04 e8 1c be 1a 83 03 3e 3b 51 ca 3d 1f 82 00 bd
       -0.15322882 0.1284298 0.09878775 -0.031374093
000080 29 77 a7 bd 12 75 91 bc 83 c9 8b bd ed 33 86 3d
       -0.08177025 -0.017756019 -0.06825545 0.06552873
000090 51 51 93 3c 29 e7 b8 3c 49 bc 47 3b 36 49 0f be
       0.01798311 0.022571163 0.0030477217 -0.13992772
0000a0 50 64 b2 3d ac 8b a6 3d f2 6d de 3d e4 eb b7 bc
       0.08710539 0.08132109 0.10860814 -0.022451349
0000b0 2f f7 83 bd 91 7f 02 3e e2 34 6d bd 58 ff a5 bd
       -0.06443631 0.12743975 -0.05791176 -0.081053436
0000c0 d3 8d 2e 3e 3e 3f 9c bd 47 7b e3 3d 9e 27 c2 3d
       0.17046289 -0.0762925 0.11107498 0.09480213
0000d0 2f 07 2f be c9 35 50 3d c8 8f e5 bb 0e 7a 13 3d
       -0.17092584 0.050832544 -0.0070056655 0.036005072
0000e0 92 dc 15 be 00 64 c7 3c 21 98 21 be 3a e0 7e bd
       -0.14634922 0.024339676 -0.15780689 -0.062225558
0000f0 3c 85 1d be da b1 25 bd 03 1f 2d be b9 7a db 3c
       -0.15382856 -0.040452816 -0.16906361 0.026791917
000100 49 40 82 3d 4c bc bb 3d ac 57 10 3e d2 aa 91 3d
       0.06359918 0.09166774 0.14095944 0.071126595
000110 86 f8 12 3e 49 1b 83 bd 86 fa f3 3d dc 8e 0c be
       0.14352617 -0.064016886 0.11913018 -0.13726372
000120 80 b2 d1 3d 03 15 19 3e 82 b2 2b 3e 52 b3 41 bd
       0.10239124 0.14949422 0.16767314 -0.047290154
000130 8d 3f 7b bb 8d 3f ff bc 36 72 d0 3d 2e 93 2c be
       -0.003833744 -0.031158233 0.10178034 -0.1685302
000140 fc e1 bd 3c f6 79 51 bd ab 3f 20 3d bc d0 21 be
       0.023179047 -0.0511417 0.03912322 -0.15802282
000150 06 54 05 be 63 5c 00 be d3 78 e6 3b ff 3b f6 39
       -0.13020334 -0.12535243 0.0070334463 0.00046965477
000160 28 cc 18 be 3e 15 23 3e a6 b0 0c be c7 f5 12 3e
       -0.1492163 0.15926072 -0.13739261 0.14351569
000170 98 69 1a 3e 66 81 0a bd b3 1b 06 be 26 8e 4f bd
       0.15079343 -0.03381481 -0.13096504 -0.050672673
000180 01 6f 8e bd 1a cf 80 bd 80 51 f7 3d 3e b8 f2 3a
       -0.06954766 -0.062895015 0.12076092 0.0018518043
000190 02 83 ee bd 2f e1 eb bd d5 15 ca bd 95 21 15 be
       -0.116460815 -0.1151756 -0.098674454 -0.14563592
0001a0 4c 2f dd bd a3 56 12 be a5 10 e3 bd a4 27 e0 3d
       -0.10800037 -0.14290862 -0.11087159 0.10945061
0001b0 87 e1 f3 bd 01 a7 b3 3d 8e a3 db 3d ff a5 17 3e
       -0.1190825 0.08772088 0.10724555 0.14809416
0001c0 96 a9 01 be d6 61 98 3b 52 c0 f5 bc f4 01 c1 bc
       -0.12662348 0.004650335 -0.029998932 -0.023560502
0001d0 23 61 7c 3d 41 2e b5 3d db f6 8b 3d 34 7e c8 3d
       0.061616074 0.08846713 0.06834193 0.09789696
0001e0 24 a0 0c 3e d2 13 0a 3e 01 08 ee 3d 57 e6 ba bd
       0.13732964 0.13484123 0.116226204 -0.09125965
0001f0 6e d9 3e 3e dd 19 cb 3d
       0.1863763 0.099170424

post_sequence.1.weight f4 [4, 126]
000000 c4 b8 2f bd bf 2a b7 3d 42 cd a1 3d c0 88 3b bb
       -0.042900816 0.089437 0.07900478 -0.0028615445
000010 fa 4e d0 bc 65 12 08 3d 5f e0 97 bb 8e 27 19 bd
       -0.025428284 0.033220667 -0.0046349014 -0.037391238
000020 bf 42 93 3d b6 45 2a bc 74 38 b2 bd 85 75 ce 3c
       0.07190465 -0.010392597 -0.08702174 0.025202522
000030 07 df 1d 3d 11 ea f2 3c a9 c0 af bd d7 e5 90 bd
       0.038542774 0.029652627 -0.08581669 -0.070750885
000040 b0 33 df 3c 5c ca 0c 3d 64 d9 d2 3c b1 97 83 3d
       0.027246326 0.034372672 0.025738426 0.06425417
000050 1a b6 9b bd 50 0d 0e 3d f0 1f 9e 3d 22 1c 4c 3d
       -0.076030925 0.034680665 0.07720935 0.049831517
000060 69 54 38 bd 3d 8a 39 bd 4b 67 1d 3d 30 fa 80 3d
       -0.045002375 -0.04529785 0.038428586 0.062977195
000070 02 14 9a bc 67 8a 9f 3d 37 dd 33 3d 7e 97 ba bd
       -0.018808369 0.0779007 0.04391214 -0.09110926
000080 8f 24 b4 3c 58 59 89 bd 7f 38 65 bd 85 ea 59 3d
       0.021990089 -0.06706494 -0.055962082 0.05320217
000090 cc e9 ce 3d 90 83 2c 3d c2 f2 8c 3d b5 61 58 3d
       0.10103187 0.042117655 0.0688224 0.052827556
0000a0 ea 0c 8c 3c 9a b3 ca bd 00 21 40 3d 70 24 98 3d
       0.017096002 -0.098975375 0.04690647 0.07428825
0000b0 28 80 3f 3c fc 6e ec 3c 36 38 90 bd 30 3c 6f 3d
       0.01168827 0.028861515 -0.070419714 0.05840701
0000c0 83 6a 23 3c ff 39 aa bd 60 b0 66 3d 8f 85 4c 3d
       0.009974125 -0.08311843 0.056320548 0.04993206
0000d0 20 97 b1 bd bb c4 03 3c 52 69 46 3b cb 63 35 3d
       -0.08671403 0.00804251 0.0030275178 0.044284623
0000e0 f5 3e e3 3c c6 ac ae bc 4a 49 0d bd 44 5b 0c bd
       0.027739981 -0.02132262 -0.034493722 -0.034266725
0000f0 da 6c 96 3d ae df b3 bd cd fa 8a bd 6b 62 e5 bb
       0.073449805 -0.08782898 -0.06786118 -0.0070002577
000100 64 64 89 bb 4d 52 bf bd 1c 59 98 bd db 28 84 bd
       -0.0041928757 -0.093418695 -0.07438871 -0.06453105
000110 89 7d ba 3d b5 e5 ce bd df 06 39 bd 35 a0 7b 3d
       0.09105975 -0.10102407 -0.04517257 0.061432082
000120 2d e4 8f 3d cc 58 36 3d 19 06 91 3d 4a 66 87 3d
       0.07025943 0.044518277 0.07081241 0.06611307
000130 59 0b 8b bd 3f 09 02 bd af c0 af bd c2 c8 35 bc
       -0.06789274 -0.0317471 -0.08581673 -0.011095228
000140 a0 88 6f bd 38 9e 13 3d 43 fd ad bd 60 dc e7 bc
       -0.058479905 0.03603956 -0.084955715 -0.028303325
000150 37 59 68 3d ba 39 d0 3c 16 85 5a 3b a6 e5 a0 3d
       0.056725707 0.025418151 0.0033343486 0.07856302
000160 e0 43 60 bd 51 0a d0 bd 06 e6 18 3d 2e f5 af bd
       -0.05475223 -0.10158218 0.037328742 -0.08591686
000170 0c 29 cc bc 24 9e 05 3d 92 f9 b6 bd 7f c9 75 bd
       -0.024921916 0.032621518 -0.089343205 -0.060006615
000180 d8 01 c1 3d 56 6d 1e 3d ec 8c 04 bd 82 34 8a bd
       0.0942418 0.03867849 -0.032360956 -0.06748296
000190 6c 31 8f bd d1 fe 85 3d ed f8 86 bc 12 df b9 bd
       -0.06991848 0.06542743 -0.016476119 -0.090757504
0001a0 dd 55 94 bd c6 ce ce bd 69 ce 2d bd 43 86 bf 3d
       -0.072429396 -0.10098033 -0.042433176 0.0935178
0001b0 14 c3 a7 3a 5e af 29 3c bf 07 06 3d 3d 57 37 bd
       0.0012799227 0.010356752 0.03272223 -0.04476093
0001c0 f7 85 12 bd bf a8 a7 3c 03 ae cf 3c f6 a0 8c 3d
       -0.03577229 0.020466207 0.02535153 0.06866638
0001d0 39 59 4b 3d 70 23 d3 bd 5b 46 b2 3c e2 f5 b9 3a
       0.049645636 -0.103094935 0.021762064 0.0014187659
0001e0 db da 68 3d e1 59 ef bc 08 55 b7 bd c1 1f 8d bd
       0.05684934 -0.029217662 -0.08951765 -0.06890822
0001f0 00 e1 c6 bd 77 8e fe 3a cb 88 b6 bd 06 5b 40 3d
       -0.09710884 0.001942112 -0.0891281 0.046961807
000200 e0 0a 7a bd 53 53 ce 3d 41 8f d1 bd 6f df 20 3d
       -0.061045527 0.100744866 -0.10232402 0.039275583
000210 24 f3 9a bd d9 58 2f 3d 9b f3 04 bd 8c db ab 3d
       -0.07565907 0.04280934 -0.032458883 0.083914846
000220 c1 e8 26 3d c4 7d 60 bd 66 b6 6a 3d 34 66 68 bd
       0.040749315 -0.05480744 0.057302855 -0.056738093
000230 eb 4f 24 3d b5 96 23 bd 70 20 c0 3d 89 17 87 bd
       0.04011528 -0.039938647 0.09381187 -0.06596286
000240 d5 89 d3 3d 3d 11 43 3c 28 3c 68 bd d8 9d 6c 3d
       0.10329024 0.011905965 -0.056697994 0.05776772
000250 a9 08 b8 3d 33 83 7f ba db 39 b7 3d 5f 75 43 bd
       0.08986027 -0.0009747028 0.08946582 -0.047719356
000260 48 2e 91 3d a4 6e 83 3d 7a 87 d4 bd 06 92 84 3d
       0.070889056 0.064175874 -0.103774026 0.06473164
000270 7a ba 80 3d 22 71 5b bc f4 46 0b bc c3 0b eb 3d
       0.062855676 -0.013393672 -0.008500803 0.11476853
000280 24 07 a8 bd 8e b6 c9 3c 0d 74 53 3d 18 93 81 3d
       -0.08204487 0.024623182 0.051624347 0.06326884
000290 17 2a 3e bd 50 77 c6 3d fe 4c cd 3d 4a 28 d8 bd
       -0.04642686 0.09690726 0.10024451 -0.105545595
0002a0 df 70 af bb 32 13 77 bb 34 4d e0 3b 52 de c1 3d
       -0.0053540315 -0.003770065 0.006845141 0.09466232
0002b0 b2 33 f7 3c 85 74 86 bc 7d 96 77 3d 3a 0e 53 3d
       0.030176017 -0.016412983 0.06044625 0.05152724
0002c0 15 15 85 bd ab a1 cc bd e3 49 31 bd c5 a1 b3 bd
       -0.06498162 -0.09991773 -0.043283354 -0.087710895
0002d0 23 d7 c6 3d 7b 87 b9 3d 75 c8 d6 3d 01 92 c2 3d
       0.09709003 0.09059044 0.10487453 0.09500504
0002e0 20 70 93 3d 4a a5 87 bd a2 b5 fb 3b 29 d3 df bc
       0.071991205 -0.06623323 0.0076815644 -0.027322369
0002f0 52 05 39 bc 79 2c 52 bd 95 34 9f bd 8d a3 df bd
       -0.011292772 -0.051311944 -0.07773701 -0.10919867
000300 86 03 ca bc 1c b3 2a bb 7c b8 80 3d 71 4d d3 bd
       -0.024659883 -0.00260467 0.062851876 -0.10317505
000310 2a 9e 82 3c 31 04 b7 3d 01 8a ca bc 27 b6 3f bd
       0.01594456 0.08936346 -0.024724009 -0.046804573
000320 73 b6 1f bd 5a ae b0 bd 7c 02 b9 bd 02 ce 97 bd
       -0.038992357 -0.08627005 -0.09033677 -0.0741234
000330 88 db 7f bd 5e ef 9a bd bb 83 6a 3c 59 b1 49 3d
       -0.06246522 -0.07565187 0.014313634 0.049241398
000340 5c ef c5 3d 6f 9e 50 3d 82 16 59 bc f3 50 98 3d
       0.09664795 0.050932344 -0.013249995 0.07437315
000350 24 c2 76 3d b1 81 88 bd 09 3a b8 3d 93 80 67 3d
       0.06024374 -0.06665362 0.08995444 0.056519102
000360 fb 8b cc bc 9c ea f5 bc 70 da 01 bd db 3a 99 3d
       -0.024969092 -0.030019097 -0.03170246 0.07481929
000370 6f 15 37 3d 97 d3 c0 3d 20 28 70 3d 75 c8 68 3d
       0.044698175 0.094153576 0.058632016 0.056831796
000380 0f 85 d2 3c 8a 84 a4 bb 24 90 b1 bd a7 51 d0 bc
       0.025698213 -0.0050206827 -0.08670071 -0.02542956
000390 4a 2e d6 bd ba 40 5c 3d b9 be 82 3d 99 d2 85 bc
       -0.10458048 0.053772666 0.06384034 -0.016335772
0003a0 a3 c2 8a bd 35 a0 34 b8 41 2b 93 bd 55 93 8f 3c
       -0.06775405 -4.306455e-05 -0.071859844 0.017526308
0003b0 fb 62 e2 bc d2 2e 97 bd f4 f5 ef 3c c9 13 de bd
       -0.027635088 -0.07381977 0.029292084 -0.108436175
0003c0 88 c1 af bd 59 ac 15 3c c9 17 60 bc 99 3a e3 bd
       -0.08581835 0.009135329 -0.013677546 -0.11095161
0003d0 d0 d2 b2 3d ee f2 c1 bc e5 ca 17 3d 3d 2e df 3c
       0.087316155 -0.023675408 0.03705873 0.027243728
0003e0 5b 99 9c bc dd 6e 94 bd ac cf 67 3d 05 0b ae 3c
       -0.019116094 -0.07247708 0.056594536 0.021245489
0003f0 1c da 2a bd ed 06 e2 3d b9 43 93 3d 1e 2d d5 3d
       -0.04171191 0.11036477 0.071906514 0.10408996

post_sequence.1.bias f4 [4]
000000 93 6d ec bc a3 72 2b 3d 9d 86 42 3d 56 45 b3 bc
       -0.028860843 0.041857373 0.04749166 -0.021883648

lstm.weight_ih_l0 f4 [504, 126]
000000 23 58 7d bc e4 f7 87 bd a9 9d 8d 3a 88 34 86 3d
       -0.015462908 -0.06639078 0.0010804433 0.06552988
000010 7f c3 a6 3c 69 dd 8b bd 55 1c 52 3d 53 29 62 bd
       0.020356892 -0.0682934 0.05129655 -0.05521519
000020 6c c4 04 3d 9f 1c bb 3d 47 cb 63 bd 14 2e 4f bc
       0.032413885 0.091363184 -0.055613782 -0.012645263
000030 e7 21 99 3c 3d 2f 1b bc 18 e9 b9 3d 25 57 8e 3d
       0.018692924 -0.009471712 0.09077662 0.06950215
000040 16 50 4f bd 39 7a a1 3d ed c9 65 bd 06 82 1a bd
       -0.050613485 0.0788464 -0.056100775 -0.037721656
000050 9e 30 96 bd 16 06 7e bc 33 10 ba 3d da d7 6d bd
       -0.07333492 -0.015504381 0.09085121 -0.05806718
000060 2e 45 2e 3d 4f 37 83 3d 9f b4 7b bc 94 48 c8 bb
       0.042546444 0.06407034 -0.015362888 -0.0061121676
000070 6c 1f b5 3d 61 7a 79 bd 77 3e 36 3b 16 00 e0 bb
       0.08843884 -0.060907725 0.0027808228 -0.0068359477
000080 d3 f1 80 3d 1a 99 62 3d 98 3b 8f 3d dd bd 5d bd
       0.06296124 0.05532179 0.069937885 -0.054136146
000090 e6 90 12 3d bf fe 91 bd 7e 21 05 bd 3e 3d 1e bc
       0.035782717 -0.07128667 -0.032502644 -0.009658156
0000a0 75 6a b4 bd b7 c8 83 3d 37 0c 95 3d 03 23 00 3c
       -0.088093676 0.06434768 0.072777204 0.007820847
0000b0 5c 84 81 3d cc d5 90 bd 67 59 d3 38 7c 98 61 bd
       0.06324074 -0.070720285 0.000100779165 -0.05507706
0000c0 3d c8 7d bd 7e 9e 99 3d 79 cd 93 bd 09 10 84 bd
       -0.06195854 0.07500933 -0.07216925 -0.06448371
0000d0 92 e2 98 bd 36 9e 82 3c 43 56 1e 3c 9a 76 9a 3d
       -0.0746509 0.015944581 0.009664121 0.07542153
0000e0 b1 9f 1b 3d 2a 2f 87 bd 3d 8b 86 3d 67 09 03 3b
       0.03799409 -0.06600793 0.06569526 0.0019994618
0000f0 38 c6 8c 3d 27 bd f4 3c 43 b6 1a 3d 6f 89 93 3d
       0.06873745 0.029875351 0.037771475 0.07203948
000100 3d 4a 7e bd df d2 c2 bc 6c 12 d8 bc 8f ae 9f bd
       -0.062082518 -0.023782192 -0.026375972 -0.07796966
000110 80 05 e2 3c 7d 2a 02 bd ae 51 96 bc b2 a0 98 bd
       0.027590513 -0.0317788 -0.018349495 -0.07452525
000120 a9 36 4e bd ba 30 7a 3d bc 97 96 3d 89 c4 24 3d
       -0.050345097 0.061081626 0.0735316 0.040226493
000130 a4 a7 83 3d fa 91 86 3b 92 3f 11 bd 1b 6e 49 bd
       0.06428459 0.004106757 -0.035461016 -0.04917727
000140 0a 3f 80 3d a8 54 a3 bc e5 03 8f bd 59 2c c7 ba
       0.06262024 -0.019937828 -0.06983165 -0.0015195712
000150 5b 57 de 3d 73 3b d1 3c 17 27 29 bd 90 1e 48 bd
       0.108565055 0.025541043 -0.041297045 -0.04885727
000160 d6 64 98 3c 33 02 6a 3c 59 e4 68 3d 8f b1 a6 3d
       0.01860277 0.014282751 0.056858394 0.08139335
000170 5c b6 a1 3d 97 3b 2c bd 54 59 83 bd c2 8c 00 3d
       0.078961104 -0.042049017 -0.06413522 0.031384237
000180 c1 ea d8 3c cc 99 9b bd eb 86 28 bd 4a 0b 2d 3d
       0.026479127 -0.07597694 -0.041144293 0.042247094
000190 92 40 33 3d 19 00 28 bd 5c 3b 82 bd 46 9f 46 3d
       0.04376275 -0.041015718 -0.06358978 0.04849174
0001a0 00 a9 19 bd 7c b4 8a 3d 60 fd 0f 3d c0 b4 51 3d
       -0.037514687 0.06772706 0.035153747 0.051197767
0001b0 8e 81 ad 3d dc ae 5a bc 92 f2 21 bc 04 02 81 bb
       0.08471976 -0.013347354 -0.009884493 -0.003937008
0001c0 65 a9 c0 bc 1f 7d 93 3d e4 87 bf 3d 2a f1 cd 3c
       -0.023518274 0.07201599 0.09352091 0.02513941
0001d0 50 4c 9b bd f4 cc ae 3c f1 54 1d bc 87 50 ac 3d
       -0.07582915 0.021337964 -0.009602771 0.08413797
0001e0 58 43 91 3d 9f 8c 8c 3d 51 cf 8d 3d ba 50 4b bd
       0.07092923 0.06862759 0.06924308 -0.049637534
0001f0 83 59 95 3d c6 d0 98 3d 7d 7b bc ba fc 1f a8 3c
       0.07292464 0.074616954 -0.0014380064 0.020523064
000200 3a f4 80 3d 81 71 c4 bd cc b0 8d 3d e2 c7 84 3d
       0.062965825 -0.09591962 0.06918487 0.06483437
000210 66 fe 0a bd 5b 1b 64 bd de bd a9 bd fc 2e 26 3d
       -0.03393402 -0.05569015 -0.082881674 0.04057215
000220 39 41 93 3c d3 c7 89 bd 77 b4 1b 3d 7d 6c ef bb
       0.017975437 -0.067275666 0.0380139 -0.007306634
000230 d8 80 5e bd 72 09 8e 3d 48 d0 5c 3c 8b 32 34 bc
       -0.054322094 0.06935395 0.0134773925 -0.0109983785
000240 72 0a 19 3b a4 3c 85 3d 02 e7 21 3b ce 50 20 bd
       0.0023352173 0.06505707 0.0024704342 -0.03913956
000250 29 97 80 3d f3 2d 5d 3d c5 60 12 3d c0 81 40 bd
       0.062788315 0.0539989 0.035736818 -0.04699874
000260 aa 7e a4 bc f1 00 3e 3c 1e e4 68 3d 02 98 45 bc
       -0.02007993 0.011596904 0.056858175 -0.012060167
000270 09 ea a7 b9 f0 81 c6 bd 03 b8 82 3d fa 5f 86 3d
       -0.00032027092 -0.09692752 0.06382754 0.06561275
000280 ef fd 71 3d 75 24 6c bc 9d 14 89 3d c7 7e 02 bc
       0.05908006 -0.014412989 0.06693385 -0.007964796
000290 2c 8e 5f bc 9d 41 74 3d 50 e9 a8 bd 79 19 c7 bd
       -0.013644736 0.059632886 -0.08247626 -0.097216554
0002a0 c4 31 c9 3c f2 91 85 3c 3d 4b 23 3b db a5 de b7
       0.024559863 0.016304944 0.0024916672 -2.6541695e-05
0002b0 21 bb b9 3d 11 7b 9f bc c3 12 b7 bc 8a ae f8 bb
       0.09068895 -0.019467862 -0.022347813 -0.007589166
0002c0 d3 19 87 bd 35 37 23 3d 50 06 4b 3b af e4 a6 3d
       -0.065967225 0.03984757 0.0030979104 0.08149087
0002d0 63 c9 b6 3d e0 b2 17 bd 0a a7 59 3d 4f a5 18 bc
       0.0892513 -0.037035823 0.053137816 -0.009316756
0002e0 15 f0 d5 3c f9 65 a0 3d 62 28 b1 bc 44 3f b8 3d
       0.026115457 0.0783195 -0.021625701 0.08996442
0002f0 f6 37 1f 3c d7 5a 5f bd 98 65 b7 bd c9 9b 6b 3d
       0.009717932 -0.05452999 -0.08954924 0.057521615
000300 83 e2 fa bb 32 20 67 bd ef 56 92 bd c9 16 26 bc
       -0.007656397 -0.05642719 -0.071454875 -0.010137268
000310 30 1c b0 3c 3c 4c 75 bd 6a b1 f2 3b 53 04 60 3d
       0.021497816 -0.059887156 0.0074064033 0.054691624
000320 3e ee 46 3d 47 b2 0f bd e5 6a b4 3d 64 1f fd bb
       0.04856705 -0.035082128 0.08809451 -0.0077246893
000330 aa 30 1b bc ea 0a 35 3d ff 4c 91 3d fc d6 fb bc
       -0.009472052 0.04419986 0.07094764 -0.030742161
000340 91 5b 6f 3c f5 4f 30 3d a1 e9 12 3d 90 16 e2 3b
       0.0146092335 0.043045003 0.035867337 0.0068996623
000350 b4 24 ae bb 77 fb 9d 3d bc 7a bf bc c4 9f bb 3d
       -0.005314434 0.07713979 -0.023373954 0.09161332
000360 dc fc 62 3d 58 09 86 bd e1 d2 81 3d e7 33 24 bd
       0.055416927 -0.06544751 0.0633905 -0.04008856
000370 cd 10 14 3d e9 b0 dc 3a 65 86 80 bd f2 98 b6 bc
       0.036148835 0.0016837391 -0.06275634 -0.022289727
000380 6e de 0f 3c a2 fe 9f 3d bd d4 00 bc a5 96 9f bd
       0.008781059 0.07812239 -0.007863221 -0.07792405
000390 d1 a2 49 bd 09 cc 49 3c e6 36 97 bd 27 a2 97 b9
       -0.04922754 0.012316712 -0.07383518 -0.00028921777
0003a0 bd 90 94 bd 6b e8 6d bc 73 d0 42 bd 2f df 23 3b
       -0.07254169 -0.014520745 -0.047562074 0.0025004854
0003b0 a0 4e c1 3d df de 93 bd ba 56 f7 3c d0 cf 85 3d
       0.09438825 -0.07220244 0.030192722 0.06533778
0003c0 a8 a8 83 bb 4b 08 6d bd 07 f8 0d 3c ba dd 8c bd
       -0.004017908 -0.057869237 0.008665091 -0.068782285
0003d0 2e fc a9 3d 7f 4c 83 bd 1f eb 82 bd cb d3 ad 3d
       0.083000526 -0.06411075 -0.06392502 0.08487662
0003e0 92 b0 ea bc 63 7b 38 3c 37 a4 8c 3d 90 99 ac bd
       -0.028648648 0.011259886 0.06867259 -0.08427727
0003f0 ef 47 ad 3d 9a 2a fa 3c c0 10 ba 3c 49 f5 8b bb
       0.08460986 0.030537892 0.022713065 -0.0042711836

lstm.weight_hh_l0 f4 [504, 126]
000000 28 14 3f 3d 12 aa 2e 3d 6f ee b3 3c 7c 3a 87 bd
       0.046650082 0.04264266 0.02196428 -0.06602952
000010 b1 78 90 bd c3 f7 83 3b 7a 1c 9b 3d dd 79 9e 3d
       -0.0705427 0.0040273382 0.07573791 0.07738087
000020 49 4e a3 3d b7 8f 7f 3b 8b 64 cd 3b 9f b3 4b bd
       0.07973916 0.0038995573 0.006268089 -0.049731847
000030 f5 26 b6 bb 5d 5f 5a bd 5f d5 68 bd 95 88 b1 bd
       -0.0055588433 -0.0533136 -0.05684411 -0.08668629
000040 4a ed ad 3d 8e 2a b8 bd 41 09 0d 3d fd 74 5f 3d
       0.08492525 -0.08992492 0.034432653 0.054554928
000050 c2 eb 0c bd d7 7b 7f 3c f2 c7 44 3c fe 0c 6a bd
       -0.034404524 0.015593491 0.012010561 -0.057141297
000060 d7 a4 cb bb 8d 38 a1 3d 2d e8 31 bd 72 94 9a bd
       -0.006214719 0.07872114 -0.04343431 -0.07547845
000070 a1 5b 90 3d 85 1a 81 bd 9e b6 15 3d 19 37 8d 3d
       0.07048727 -0.06303886 0.03655111 0.06895275
000080 0c 26 df bc a2 89 7e 3d 07 68 15 bd bd 6e a8 bd
       -0.027239822 0.062142976 -0.03647616 -0.08224247
000090 51 48 7f bd 00 0e 1e bd c2 f1 81 bd d9 ec 89 bd
       -0.062324826 -0.03858757 -0.0634494 -0.06734628
0000a0 29 c8 5a 3d a4 09 5d bd e6 f8 ba 3a c1 fd c3 3d
       0.053413544 -0.053964272 0.0014264851 0.09569884
0000b0 8e af 76 3d a7 5f 8e bd 6f ca 51 bd c1 bf 4e 3d
       0.060226016 -0.06951838 -0.051218446 0.05047584
0000c0 af 39 22 3c 0a f5 2d 3d ed e7 c9 3d e2 72 a1 bd
       0.009901448 0.042470016 0.098586895 -0.0788324
0000d0 bd 5a 2e bd 6f 2c 58 3d 11 4d 68 3c 5d 9b 9b bd
       -0.042567004 0.05277675 0.01417853 -0.075979926
0000e0 a1 b8 0b bd 25 2e 3a bd f0 b7 ef bb 53 ef 2f 3d
       -0.034111623 -0.045454163 -0.007315628 0.042952847
0000f0 6a b8 d1 3d a6 8e cf bd d8 36 34 bd c3 02 ce bc
       0.10240252 -0.1013463 -0.043997616 -0.025147801
000100 b9 9e d5 3c 21 26 9d 3d e8 4a 9a bd ec a0 c3 bc
       0.026076661 0.07673288 -0.075338185 -0.023880444
000110 73 64 c5 3c 22 56 4c bd b8 f4 3d 3d e6 55 2b 3d
       0.02409575 -0.04988683 0.04637596 0.041829966
000120 0c ec 1c 3d 60 0a f9 bc 46 8e c2 bd e5 bc b9 bc
       0.03831105 -0.030400455 -0.09499793 -0.02267308
000130 d1 71 3c 3d 6d 77 93 3c 54 cf cd bd 0e a2 69 bc
       0.04600698 0.018001283 -0.1004931 -0.014259828
000140 0d 6d c1 bd e0 d1 86 bd 9d e7 81 bd 4b 75 9d 3d
       -0.09444628 -0.06582999 -0.06343005 0.076883875
000150 cf bd 70 3d ae 8a 6c 3d 0d b3 0a 3d 07 7a 98 3b
       0.058774766 0.057749443 0.033862162 0.0046532187
000160 79 6a ca 3c 9b 1a 40 3d 12 5f 22 3d 66 05 c6 bc
       0.024708973 0.046900373 0.039641447 -0.024172496
000170 42 34 86 3d cd 42 97 3d 2d 6f 36 bd 2c 0c b8 bc
       0.06552936 0.07385788 -0.04453962 -0.022466742
000180 2d 56 ac 3d e3 4b 72 bd a4 07 cc 3d 08 c5 ee 3b
       0.08414874 -0.059154402 0.09962395 0.0072866715
000190 40 ed 5f bd 33 73 14 bd 9c db be 3c 10 25 1d 3d
       -0.05466962 -0.036242675 0.023298077 0.038365424
0001a0 03 6e 05 3d 5c fa b1 3c 31 39 87 bc 7f 18 28 bd
       0.03257562 0.021725826 -0.016506763 -0.041038986
0001b0 37 fb 31 bc 9e ab 9b bc 48 09 05 bd d3 be 4f bb
       -0.010863117 -0.019002732 -0.032479554 -0.0031699433
0001c0 f5 00 49 3d 56 40 fb 3c 0b 4e a4 bc a9 59 8f 3c
       0.04907318 0.030670326 -0.020056745 0.017498808
0001d0 e6 a9 62 3d 30 c3 b4 bd 76 0d 21 bd 26 7f 4f bd
       0.05533781 -0.088262916 -0.039319478 -0.050658368
0001e0 3a 0a aa 3d ab e3 f0 3c e2 66 b1 bd 36 6a 25 3c
       0.08302732 0.029405436 -0.086622015 0.010096123
0001f0 fc 57 7c bd d7 5a aa bd 46 79 46 3d 9b 2e 8c 3d
       -0.061607346 -0.083181076 0.0484555 0.06844827
000200 5b 53 87 3c df 96 3b 3d e6 03 a3 bc 8a 5f 77 bd
       0.01651924 0.04579818 -0.01989932 -0.060393848
000210 f5 b3 ac bc be 96 4e 3d 85 5d 12 3c 5d 65 9b bd
       -0.021081904 0.050436728 0.00893343 -0.07587693
000220 a6 83 8f bc c3 15 54 bc c2 08 43 bd 86 c2 35 bc
       -0.01751883 -0.0129446415 -0.047615774 -0.011093741
000230 33 11 4a bd 3b 87 93 bd b7 cb 03 3c db 2b 8e bd
       -0.04933281 -0.072035275 0.008044175 -0.069419585
000240 d2 4a 58 bd 62 bd c2 bc e3 cc 97 3d ca 83 32 3d
       -0.05280573 -0.023771945 0.07412126 0.043582715
000250 a2 e3 d2 bc 53 78 bc bd 7e 39 50 bc 66 4e 4d bd
       -0.02574331 -0.092026375 -0.01270902 -0.050123595
000260 cc d4 68 bc 65 f8 2d bb 2a 08 c0 bd bf ab b6 bc
       -0.014210891 -0.002654576 -0.09376557 -0.022298692
000270 14 87 28 bd 61 ae 38 3c 97 f3 22 3d ff 06 71 bd
       -0.041144446 0.011272044 0.039783087 -0.058844563
000280 33 ad 68 bd 6f 88 8c 3d b4 83 13 3d 7a 9f 2e 3d
       -0.0568058 0.0686196 0.036014274 0.042632557
000290 fd 40 63 ba ee f5 6e bd 56 34 87 bc 73 db 0a bd
       -0.0008669047 -0.058340006 -0.016504448 -0.03390069
0002a0 93 53 dd 3b 87 20 a5 3d ab f2 95 3d 1a 51 9a 3d
       0.0067543476 0.08062845 0.07321676 0.07535
0002b0 93 a1 a9 bd b2 3d b0 3d 56 0e e4 bc ea 58 6b 3d
       -0.08282771 0.086055174 -0.027838867 0.057457842
0002c0 ec f3 92 3c b5 b5 be bd a2 c4 3e bd fa 23 06 3c
       0.017938577 -0.093120016 -0.046574242 0.008187288
0002d0 4c f0 23 bd 01 b1 83 bc b5 e8 5f bd 7f 0c 92 3d
       -0.040024087 -0.016075613 -0.054665286 0.0713129
0002e0 93 01 90 bd 4e 5a 70 3d 0b ac 91 bd db 3b 47 bd
       -0.0703155 0.05867987 -0.07112893 -0.048641067
0002f0 c1 c7 d1 3c ee c1 bc 3d 91 4b 84 bd 89 34 63 3d
       0.025607945 0.09216677 -0.06459726 0.055470023
000300 57 2c 98 3d 5c 5e 6a 3c 95 33 97 bd 51 6f 14 bd
       0.07430332 0.014304724 -0.07382885 -0.036238972
000310 dc 74 41 3d f0 a1 cc 3c 29 2b 7e bd 40 ba 3f bd
       0.047230586 0.024979562 -0.06205288 -0.04680848
000320 54 19 61 3d 95 52 5f 3c 17 df 7d bd 31 83 86 bd
       0.054955795 0.013630529 -0.061980333 -0.065679915
000330 55 f6 8a 3d aa e4 97 bd 46 d0 5d 3d b5 82 81 bd
       0.06785265 -0.07416661 0.054153703 -0.063237585
000340 29 76 0b bc b7 9c db ba 3b c5 13 3d 77 4e b1 3d
       -0.008512058 -0.0016755079 0.036076766 0.08657544
000350 85 0e 13 3d 61 00 9b bc ce 37 9f bc f7 81 b5 bb
       0.03590252 -0.01892108 -0.01943579 -0.0055391747
000360 fb 31 a3 bc d7 2d b8 bd 29 07 04 3d f6 fe 35 3c
       -0.019921293 -0.08993118 0.03223339 0.011108151
000370 81 fa 67 bd e0 29 bb 3d 4c 18 de bb 11 61 d7 3c
       -0.056635384 0.091388464 -0.0067777988 0.026291402
000380 50 9e ac bd a7 2e 87 bc 51 85 d8 bb 8f d6 a8 3c
       -0.08428633 -0.016501738 -0.0066076894 0.020610122
000390 e0 43 8b 3c 64 11 92 bd 68 1b ad 3d 11 6f 4c 3d
       0.017000139 -0.07132223 0.08452493 0.04991061
0003a0 4a c4 92 bd 2f d4 67 3d 94 b3 a9 3d 8d 24 8b 3d
       -0.071663454 0.05659884 0.08286205 0.06794081
0003b0 ea 86 8b 3c 2e 61 c4 3c 02 4f bb bd 39 64 24 3c
       0.017032105 0.02397212 -0.09145929 0.010033661
0003c0 60 e0 6f bd 95 d1 36 3d 5e cc df 39 63 5b 94 bd
       -0.05856359 0.044633467 0.0004268614 -0.07243993
0003d0 3b 03 90 3d c8 fb b6 bc d4 9a 9b 3d 46 18 9c 3d
       0.07031866 -0.022336856 0.075978905 0.07621817
0003e0 a1 10 2e bc ea e9 af 3d 52 8e ad 3d 5c d4 74 3d
       -0.010624082 0.085895374 0.08474411 0.059772834
0003f0 fa f7 7f 3d 62 73 a9 bd 95 cf eb bc da 65 ce bd
       0.06249235 -0.08273961 -0.028785506 -0.100780204

lstm.bias_ih_l0 f4 [504]
000000 09 02 41 3d 5f 68 52 bd 03 64 5c 3d ed 15 27 3c
       0.04712108 -0.051369067 0.053806316 0.010198099
000010 9e c9 20 bc 48 c3 09 bc b5 e2 71 3d 6d 0e c2 bc
       -0.009813694 -0.008408375 0.059054095 -0.02368852
000020 76 1d 08 3d ad 87 31 bd ca 98 a8 3c e2 42 e5 bc
       0.03323122 -0.04334228 0.020580668 -0.027985994
000030 45 d5 39 bc 27 23 ac 3d 90 d5 13 3d 94 cf 01 bc
       -0.011342351 0.08405142 0.03609234 -0.007923026
000040 75 63 31 3d 7e a4 ba 3d c2 16 98 bd d1 cb 5d 3d
       0.04330774 0.09113406 -0.07426216 0.054149453
000050 7d f0 9f bd 51 b1 1a bd f6 ee 3b bd 41 5a 9d 3d
       -0.078095414 -0.03776676 -0.045882188 0.0768323
000060 09 62 28 3c ed 6e 9a 3c 96 d7 2e 3d 26 6a c9 3c
       0.01027728 0.018851722 0.042686068 0.024586748
000070 a9 9a 08 bd 5c e7 c1 3d 55 19 a0 bc 5e b5 1e 3d
       -0.03335062 0.094679564 -0.01954333 0.038747184
000080 14 8b ca 3d 4d 51 92 bd 57 96 57 3c 9f 5d af 3d
       0.09889808 -0.07144413 0.013158402 0.08562779
000090 56 cd 53 3d 79 9c b3 3d a6 69 86 3d c9 f0 5f 3d
       0.051709495 0.08770079 0.065631196 0.05467299
0000a0 3d b6 1f bd 41 a1 1d bc 9f 07 8b bd 3c 1d 98 3d
       -0.038992155 -0.009620965 -0.06788563 0.07427451
0000b0 74 73 ff 3c a7 c4 9d 3d 2a 18 a9 3d 7f e3 21 3d
       0.031182982 0.07703524 0.08256562 0.039523598
0000c0 76 6b 6a bd 1c 36 d4 3c 1c 70 85 bc 6a 00 30 bc
       -0.05723139 0.025904708 -0.01628881 -0.010742286
0000d0 bd 21 a7 bc cb 63 4a 3c 49 1e 66 3d 41 cd 41 bd
       -0.02040183 0.012352894 0.056181226 -0.047314886
0000e0 5f 44 39 3d 3e 83 c8 3d 2e 4c 12 3d 20 97 2d 3d
       0.04523122 0.097906575 0.03571718 0.042380452
0000f0 9b 36 90 bb ac 3d b2 3c 8e a9 31 bd a1 04 07 3d
       -0.0044010407 0.021757923 -0.04337459 0.0329634
000100 e6 9b 21 3d bc f7 75 bd 59 93 2e 3d 64 6e ff 3c
       0.039455317 -0.06005071 0.04262099 0.031180568
000110 0f 82 cc bc 4b 3b c3 3c f2 79 1c 3d 70 e7 29 bd
       -0.02496436 0.023831984 0.038202234 -0.04148048
000120 a2 4d b5 bc 22 dc 77 bd 0d 1b 81 3d 91 99 7b bd
       -0.022131745 -0.06051267 0.06303988 -0.06142575
000130 87 66 91 3d f1 df 1d bc 99 d2 14 3d 04 1b 81 bd
       0.07099634 -0.009635911 0.036333654 -0.06303981
000140 80 3a 68 bd c0 79 15 bd 68 2f 70 bb 4c 97 22 bd
       -0.056696415 -0.036493063 -0.003664935 -0.03969507
000150 24 74 cc bc 22 99 1b 3c 51 11 b0 3b 10 60 8c 3d
       -0.024957724 0.009496959 0.005373158 0.0685426
000160 6a 70 d2 3d 70 69 a9 3c 40 3e 0a 3d 56 2a af 3d
       0.102753475 0.02068016 0.033750772 0.08552997
000170 50 9c 9b 3d 80 ec a5 bb 45 17 b6 3d 4c d2 24 3d
       0.075981736 -0.0050635934 0.08891157 0.040239617
000180 ed db e1 3b b0 f9 5c 3d 8f 67 de 3c bb f9 b7 3c
       0.0068926723 0.053949058 0.02714899 0.022457948
000190 44 17 6f bd 8e 81 d2 3d dd d2 eb bc 2d 44 5a 3d
       -0.058371797 0.10278617 -0.02878707 0.053287674
0001a0 a1 2e 35 3d 4a 6f 3d bd e0 de 8c bd 99 3b f3 bb
       0.044233922 -0.04624871 -0.068784475 -0.007422876
0001b0 34 ea c1 bc 24 2c ad bb c9 4f ac bc 10 5b 9d bd
       -0.023671247 -0.005284803 -0.021034138 -0.076833844
0001c0 2c 8b f5 bc de a8 05 3d bb 80 37 bd d4 83 a2 3d
       -0.029973589 0.032631747 -0.0448005 0.079353005
0001d0 34 30 b7 3b be 35 ae 3d 78 13 1a bd 24 9d aa 3d
       0.005590463 0.08506344 -0.037616223 0.083307534
0001e0 e0 67 76 3c e5 33 a5 3d a0 fb 4c 3d 83 5a 10 3d
       0.015039414 0.08066539 0.050044656 0.03524257
0001f0 25 cd b5 3d 0e 2b 04 3d cb 26 cb bc fb a3 1b bd
       0.08877019 0.032267623 -0.024798771 -0.03799818
000200 94 b6 72 3a 0d 99 2f 3d df 3e eb 3c e7 ef b0 b9
       0.00092587736 0.04287057 0.028716503 -0.00033748077
000210 85 35 bb ba cb b2 bf 3d 11 95 78 3b 1b 51 16 3d
       -0.0014282918 0.09360274 0.0037930647 0.036698442
000220 47 8d 82 3d d1 84 e3 bc 73 9e 45 bd 46 ec 34 bd
       0.06374603 -0.027773293 -0.048246812 -0.04417064
000230 d0 46 77 3b c9 b9 93 bc 90 7c 03 bd 5c e5 b0 3c
       0.0037731417 -0.018032925 -0.032101214 0.021593742
000240 24 11 e4 3a e4 e9 2a 3d 1b ca 91 3d a5 95 81 3d
       0.0017400128 0.04172696 0.07118627 0.063273706
000250 56 88 1c 3b 68 7f 99 3d 7d 94 88 bd 53 d9 bf 3d
       0.0023884973 0.07495004 -0.06668947 0.09367623
000260 f2 c0 90 3c 15 1d 97 bd 02 f9 90 3d 2b 69 a5 3c
       0.017670128 -0.07378594 0.070787445 0.02019175
000270 97 f4 22 3c 80 87 cf 3c 76 90 b4 3d d4 83 0d bd
       0.00994601 0.025333166 0.08816616 -0.03454955
000280 81 99 5b bd cd a8 6d 3d 6f a4 8c 3d 9c f6 52 3d
       -0.05361319 0.05802231 0.06867301 0.051504716
000290 6c 1b 51 bd b9 c6 95 3d 89 60 3b bd 94 cd 6a 3d
       -0.051051542 0.07313294 -0.04574636 0.05732496
0002a0 18 17 51 bd 54 81 02 bd 16 00 4d bd e6 68 b9 bb
       -0.051047415 -0.03186162 -0.05004891 -0.005658257
0002b0 14 ec 9b 3d d1 2a 06 bd cc b1 97 3d c3 df 98 3c
       0.07613388 -0.032755677 0.07406959 0.018661385
0002c0 c3 26 90 3d 7c ad 84 3d 94 87 5d 3c e6 2e 2b 3d
       0.07038643 0.06478402 0.013521094 0.041792773
0002d0 1b bd c6 3d 4f 3b a9 3c b2 16 5c bd bb b6 b1 3c
       0.09704038 0.020658163 -0.05373258 0.021693578
0002e0 00 e1 79 bc 2a 7d e2 bc 86 33 74 3d 5c 20 5f 3c
       -0.015251398 -0.027647574 0.05961945 0.013618555
0002f0 51 b2 4f 3d d8 42 9c 3d 84 bf c4 3c 45 f8 97 bd
       0.050707165 0.07629937 0.024017103 -0.074204005
000300 48 3e 7a 3d af 42 c7 3c 1f 61 82 3d fa ec 0b bd
       0.061094552 0.02432379 0.06366181 -0.034161545
000310 b4 f1 52 3d 36 7c 4b 3c f7 15 44 3c 3a c7 89 3b
       0.051500037 0.012419751 0.011968127 0.004204658
000320 68 00 90 3d 1c 70 af 3c ff 34 a1 3d a1 8a a6 3d
       0.070313275 0.021415763 0.07871436 0.0813191
000330 31 e8 9a 3d 47 3d 99 bd 98 40 67 bd 04 b2 a4 3d
       0.07563818 -0.07482391 -0.056458086 0.08041766
000340 2d 22 cb 3d d3 66 8c bd 4b 88 9d 3a 9a 06 92 3c
       0.09918628 -0.0685555 0.0012018768 0.017825413
000350 b9 4d cb 3d 6f df 7b 3d da 5a c1 3c 40 db 94 3c
       0.09926934 0.06149238 0.023602892 0.018170953
000360 fa c1 94 3d 80 ee 8e 3d c3 68 1d bd ae d3 1d 3d
       0.072635606 0.06979084 -0.038429987 0.03853195
000370 e0 ac 18 bd ea 7b a6 3d ba f5 a4 bd bb e6 ac 3d
       -0.03727424 0.081291035 -0.08054681 0.08442446
000380 da f0 81 3d 32 36 cb 3d b9 77 05 3d d9 81 64 bc
       0.06344767 0.09922446 0.03258488 -0.013946974
000390 f0 aa 46 bd 0f 27 b2 3b f8 5f 51 3d 1c 69 04 bd
       -0.048502862 0.005436785 0.051116914 -0.032326803
0003a0 47 e7 a3 bb 42 8e c2 3b 37 7a 09 bd 18 23 8d 3d
       -0.0050019356 0.0059373686 -0.03356382 0.06891459
0003b0 14 ff 49 bd 90 38 8f 3d 01 7a a3 3d ed 31 70 3c
       -0.049315527 0.0699321 0.07982255 0.014660341
0003c0 5b b4 87 bc 48 f2 67 bd b4 bc 50 bd 6c fe 98 bd
       -0.016565492 -0.05662754 -0.05096121 -0.07470402
0003d0 3d 09 82 3d 1c 7f 24 3d 99 4c 9c 3d 2b 3c 12 bd
       0.06349418 0.040160283 0.07631797 -0.035701912
0003e0 fc 7b 85 3d e7 d9 84 3d 5c b0 84 3c 08 fd 8c bd
       0.06517789 0.06486874 0.016197376 -0.068841994
0003f0 19 09 c1 3d 68 d1 6d bd 1b 3f 63 bd c9 a5 21 bb
       0.09425563 -0.058061033 -0.055480104 -0.0024665466

lstm.bias_hh_l0 f4 [504]
000000 e8 84 a8 bb 89 2f f5 3b de 24 da bc f9 a6 34 3c
       -0.005142797 0.0074824733 -0.026628908 0.0110261375
000010 e4 c4 b7 bc 4e 21 a4 3d ab e7 93 3d 95 24 fc bc
       -0.022432752 0.08014165 0.072219215 -0.030779162
000020 2f 8d f1 3c de d6 a0 bc 27 cc 96 3c ec 5f 7f bc
       0.029486267 -0.019633707 0.018407894 -0.015586834
000030 cb c4 a5 3d 9d cf b7 bd 58 56 b6 3d e1 15 b3 3c
       0.08094176 -0.08975146 0.089031875 0.021861019
000040 33 59 1f bc fe ec 47 3d cc ae b6 bc c2 47 47 bd
       -0.009725857 0.048809998 -0.022300147 -0.048652418
000050 60 f0 a6 3d cd ea ac 3d ac e1 7d 3c 87 ab 30 3d
       0.08151317 0.08443222 0.015495699 0.04313233
000060 08 84 20 3d 4e 45 50 bd 57 dc 28 bd f4 a4 9e 3d
       0.039188415 -0.050847344 -0.041225757 0.07746306
000070 a5 55 09 3b 52 03 e7 bc 3d b4 1b 3d 6f 30 98 3d
       0.002095559 -0.028199825 0.038013685 0.07431113
000080 12 00 5e bd 99 00 1f ba 09 f8 bf 3d d7 4e 43 3d
       -0.054199286 -0.0006065458 0.09373481 0.04768261
000090 a1 f5 e5 3b 9b 88 43 bd 5b cc 68 bd 43 2e 29 bd
       0.0070178066 -0.0477377 -0.056835514 -0.041303884
0000a0 3f 76 f4 3b e0 46 8f bd f0 8d 2b bd c4 cb e9 3c
       0.007460385 -0.0699594 -0.04188341 0.028539546
0000b0 0a a9 eb bc 07 f3 57 bd da 9f e1 3c 62 03 83 3d
       -0.028767128 -0.052722003 0.027542043 0.063971296
0000c0 97 b5 ad 3d a2 10 18 bd b6 c0 73 3d b8 4b ba 3d
       0.08481901 -0.037125237 0.059509955 0.090964735
0000d0 c3 38 6b bc e3 7d 37 bd 4b 59 80 3d 7d a8 bc 3d
       -0.014356795 -0.04479779 0.06267031 0.09211824
0000e0 2e cb 4c 3d 62 36 56 3b d0 1f 01 bd ea df 6f bc
       0.049998455 0.0032686223 -0.03152448 -0.014640788
0000f0 ed 65 fb bc 3b e6 ad bd 65 3b bb 3d bb 54 4d 3c
       -0.03068825 -0.084911786 0.09142188 0.012532408
000100 23 63 2d bd 7f bb 13 3d 8c 81 f8 3c c0 b4 a9 3b
       -0.042330872 0.036067482 0.03033521 0.005179018
000110 91 41 c5 bb 0a f5 83 bd 85 7c 6d 3d e3 b3 a1 b9
       -0.006019779 -0.06443222 0.05798008 -0.0003084234
000120 0d d5 b4 3d 1d a7 8a bd 39 90 96 3d ac 72 6e bd
       0.08829699 -0.067701556 0.07351727 -0.05821483
000130 ee 4f 2b 3d d8 2c b7 3d d0 0c 85 bd f2 fe b8 3d
       0.041824274 0.089441 -0.064965844 0.09033002
000140 61 06 35 3c 5e ec f2 bc 14 a2 19 3c 0e 4e 01 3d
       0.011048884 -0.029653724 0.009377021 0.03156858
000150 49 d7 4c 3d 10 66 b0 3d 9c df 2b 3d df d0 19 3d
       0.05001 0.08613217 0.041961297 0.03755271
000160 9b ec 7e 3d 5d 2a 5a bd 55 4f ca 3d 78 90 0f 3a
       0.062237363 -0.053263057 0.09878413 0.00054765446
000170 46 6f 5a 3d 6f 52 fc bc ac 5e 6a 3d d4 f3 90 bb
       0.053328775 -0.030801026 0.057219192 -0.004423598
000180 5a 2a e1 bc fd f1 8b bd dc 3f 5b bd b2 9d ec bc
       -0.027486015 -0.06833265 -0.053527698 -0.028883789
000190 0d 43 a5 3d b2 88 8f 3d 8d d2 57 3d 84 6a 59 3d
       0.080694295 0.070084944 0.05269103 0.053080097
0001a0 4d 11 14 bd fa a5 9f 3d 01 3a 1f bd 67 37 95 3d
       -0.03614931 0.077953294 -0.038873676 0.07285958
0001b0 fc 4b 54 3d 2b b4 0d bd 0a bc 6d 3d e8 73 8c bd
       0.051830277 -0.03459565 0.058040656 -0.06858045
0001c0 1c 25 fe bc 17 a6 7c 3d 21 aa 45 3d 5c 67 52 3c
       -0.031023555 0.061681833 0.04825795 0.012842026
0001d0 50 a7 6d bd 95 1d 32 3d 54 19 a2 3d e5 dd 98 3d
       -0.05802089 0.043485243 0.07914987 0.07464198
0001e0 7a 6a d2 39 93 0b b1 bd 69 21 23 3d 64 18 9d bc
       0.00040133653 -0.08644786 0.039826784 -0.01917667
0001f0 2f 44 05 bd 75 1b 8d bc 1b cf b4 3d e9 83 a5 3d
       -0.032535728 -0.017225007 0.08828565 0.080818005
000200 b5 6f bf bc 43 54 42 3d e3 8b 54 bd 3d ce 9f 3d
       -0.023368696 0.04744364 -0.05189122 0.07803009
000210 e8 24 a3 3d 13 c7 c7 3d f1 0a 4f 3d d3 0f de bb
       0.07966024 0.09754767 0.050547544 -0.0067767887
000220 b4 dd 7d 3d 9f e3 98 bd 68 6a 25 3d d8 c9 af 3d
       0.06197901 -0.0746529 0.04038468 0.085834205
000230 23 c6 70 3c db b7 96 3c 2b d6 20 bc 9a 3d de 3c
       0.014695677 0.018398216 -0.009816687 0.027128983
000240 8e 6e 2e bd fb 4a a7 3d 8a 58 51 bd 10 28 3b bc
       -0.042585902 0.08168598 -0.051109828 -0.011423126
000250 2a cb d6 bc 0e b3 77 bc c8 a1 a9 bb cf 1c 8d 3d
       -0.026219923 -0.015118374 -0.0051767565 0.068902604
000260 23 23 c6 bb 4a e1 90 3d e2 ef d6 3d 87 30 b2 3c
       -0.006046669 0.070742205 0.10494973 0.021751655
000270 3d 6d 94 3d 0b 6a a0 bb 40 d0 3f 3d b6 d8 02 bd
       0.07247398 -0.004895454 0.046829462 -0.031944953
000280 b5 c6 2d bd 8e fe a4 bd 6c dd a5 bc 9e 3a 5b bd
       -0.04242583 -0.08056365 -0.020247184 -0.0535227
000290 e6 d4 14 bc 74 ee 14 3d f5 19 2c bd c1 21 45 bb
       -0.009083962 0.03636022 -0.042016942 -0.0030079933
0002a0 c9 a4 3f 3d 97 e3 b3 3c 85 dd 45 bd 38 4c 82 bd
       0.04678801 0.02195911 -0.04830696 -0.06362194
0002b0 e0 a7 ab bd 8f d9 37 bc 21 c5 37 3d 3e 16 8d 3c
       -0.08381629 -0.011221304 0.04486573 0.01722252
0002c0 19 de 84 3d 8f 2c ec bc 2d f8 1a 3c 0f 28 9b bc
       0.06487674 -0.028829841 0.009458584 -0.01894
0002d0 97 33 bb 3d 40 c0 3a 3d 32 b4 97 bd 64 fa 03 bd
       0.09140699 0.0455935 -0.074074164 -0.032221213
0002e0 e8 ec 83 3d bf 5b 64 3d 38 3f 4e 3c 02 28 ef 3b
       0.06441671 0.05575156 0.012588315 0.0072984705
0002f0 29 44 80 3d e6 ef a0 bd 58 55 a0 3d ed b6 18 bd
       0.062630005 -0.07858257 0.07828778 -0.037283827
000300 b7 11 6a 3d d0 ea 68 3d 3c df 6c bd eb 96 43 bd
       0.0571458 0.05686456 -0.05783008 -0.04775135
000310 cb 34 80 bd 84 2d f6 bc 95 80 c4 3d d0 a8 a3 bd
       -0.062600695 -0.030051 0.095948376 -0.07991183
000320 77 c7 29 bc 3c 20 b5 3d aa 79 39 bd 93 cc 02 bc
       -0.0103624975 0.08844039 -0.045282044 -0.007983345
000330 1a 7a a2 bc b7 fa dc 3c 8f 65 08 3d 91 69 71 bd
       -0.019833613 0.026975019 0.03329998 -0.058938567
000340 75 65 a7 3d bb 45 4d 3c a7 17 74 bd 04 0f 07 bd
       0.08173648 0.012528832 -0.05959287 -0.032973304
000350 6d 51 cd 3d 47 11 85 bd 75 e5 99 3c 7d 46 3f bc
       0.10025296 -0.06497436 0.018786171 -0.011674521
000360 d4 e5 3e bc e9 bf 35 3d 54 5e 88 bc e9 93 42 3d
       -0.011651475 0.044372473 -0.016646542 0.04750434
000370 c0 fa 71 bd dc 50 28 3d 58 ba 08 3d e5 65 82 3d
       -0.059077024 0.04109274 0.033380836 0.06367091
000380 c4 a0 04 bd 6c 15 7b bc 84 a7 54 3d f4 c8 60 bb
       -0.03237988 -0.015324932 0.051917568 -0.0034299465
000390 ae 33 bf 3d 03 d4 63 bc d5 28 4d 3d 61 7e 80 3d
       0.09336029 -0.013905528 0.05008777 0.06274105
0003a0 49 a7 6d bd 8d 84 45 bd 33 e8 46 bd 44 a8 b2 3c
       -0.058020864 -0.048222113 -0.048561286 0.02180875
0003b0 d0 d5 a9 3d 8e 08 e9 bb d6 b2 bd 3d 6a a5 c6 3d
       0.082927346 -0.0071116155 0.09262626 0.09699519
0003c0 e0 2a 1e 3d ec 53 dd 3c d0 7e 3c bd ae 73 d2 3c
       0.038615108 0.027017556 -0.046019375 0.025689926
0003d0 b8 d8 fb 3c b6 88 17 bd d5 8d ad bc 8a d7 3d 3d
       0.030742988 -0.036995612 -0.021185795 0.046348132
0003e0 74 54 94 3d 80 7b 1d 3d cb 30 4a 3d df e7 e1 3c
       0.07242671 0.038447857 0.04936294 0.027576385
0003f0 7a 88 a5 bd a5 05 e1 3c bd c6 2a bd b8 df 5c bd
       -0.080826715 0.027468512 -0.041693438 -0.053924292
