surrogate/run/train/routing/saves/train-test2/mulres/reservoir/state_dict.pt (torch, 534351 bytes, 8 tensors)

pre_sequence.0.weight f4 [126, 34]
000000 6e 0a 6d bd 77 36 14 3d f9 31 94 3c 58 1e 91 bc
       -0.057871275 0.036184754 0.018090235 -0.017714664
000010 bd 98 31 3d 96 45 76 bd 75 96 1a 3e fe 00 e0 3d
       0.043358553 -0.060124956 0.15096457 0.10937689
000020 8b 24 15 be 47 87 e9 3c 67 27 36 3d 58 7c 2a be
       -0.14564721 0.028506888 0.04447117 -0.16648996
000030 6b 7f af bd 0f b4 a2 bd 3c 5c 12 3e 51 5a f3 3d
       -0.08569225 -0.079445 0.14292997 0.11882461
000040 81 46 da bd 97 1f aa 3d eb 0e 16 3e 3c 5a 01 bd
       -0.10657979 0.083068065 0.14654128 -0.031580195
000050 57 48 0e 3e 7e e3 94 bd e6 5b 31 3e de 2f 9f 3d
       0.13894783 -0.07269953 0.17320213 0.07772802
000060 2d af c6 3d 65 42 ee bd a9 1c 03 3e a6 67 d1 3b
       0.09701381 -0.116337575 0.12803902 0.0063905297
000070 3f 86 e9 bd 31 49 30 3e 74 5f 12 3e ac 2c 3a 3d
       -0.114025585 0.1721542 0.14294225 0.04545276
000080 1b 7e e0 3d 53 a2 0b 3d dd 87 14 be e9 6e fa 3d
       0.10961553 0.03409035 -0.14504953 0.12228186
000090 c7 f9 18 3e e2 a9 a1 bd 9c 84 1a 3d 0b b9 fb bd
       0.14939032 -0.07893731 0.037724122 -0.122911535
0000a0 84 5e 3d 3d 21 46 5d bc 18 ce b5 3d 3d a5 9f bd
       0.046232715 -0.01350549 0.088772 -0.077951886
0000b0 41 9a 34 be 65 f5 e3 bd 9f f9 38 bd 0e d3 4c bd
       -0.17636968 -0.1113079 -0.045159932 -0.050005965
0000c0 dd ee a3 bd 10 ff 98 bd 4c 39 00 3e d9 fc f1 3d
       -0.08004544 -0.07470524 0.12521857 0.11815805
0000d0 dc fb 18 3e b5 f6 f8 bd 77 f9 86 bd 14 e4 d0 bd
       0.14939827 -0.12156431 -0.065905504 -0.101997524
0000e0 3f 29 58 bb ac a5 2d 3e 59 46 17 bd 39 d3 09 bd
       -0.003298357 0.1695773 -0.036932323 -0.033648703
0000f0 27 11 9b 3d 30 bc a0 3d 95 06 92 3b f7 cc f9 bd
       0.07571631 0.07848394 0.004456351 -0.12197297
000100 85 e5 0b bd bf cd 27 3e 37 3c 54 3c 8e e7 a4 3d
       -0.034154434 0.1638708 0.012953809 0.08051978
000110 80 37 96 bc ac b4 c1 3d ce fa fa 3c 4e 72 c8 3d
       -0.018337011 0.094582886 0.030637171 0.09787427
000120 19 5f af bd ad c7 f6 3c 47 54 ea 3d 43 b6 1d bd
       -0.0856306 0.03012451 0.11441856 -0.038503896
000130 48 50 82 3d 79 c5 87 bc 87 60 29 be 76 f4 80 3d
       0.06362969 -0.016573654 -0.16540729 0.06296627
000140 03 65 68 3d b6 18 bd 3d 49 9e 26 be 09 31 08 3e
       0.056736957 0.09233229 -0.16271318 0.13299955
000150 0e 51 fa bd 63 31 53 bd cb 50 bc 3d ac 0b c4 3c
       -0.12222491 -0.05156077 0.091950975 0.023931347
000160 1e f9 23 be ad 59 ac bd 1b 05 60 3d 06 dd d0 3d
       -0.16013 -0.08415542 0.05469237 0.10198407
000170 4c fe a7 bd 4b 3f 1a bd 5c 5c cc bd 60 d2 14 be
       -0.082028 -0.037658017 -0.09978554 -0.14533377
000180 34 fa 6e bc dd d5 08 be 5a ca 15 be 74 f0 a1 bd
       -0.01458602 -0.13362832 -0.14627972 -0.07907191
000190 72 89 e0 3d a9 87 0b 3d 41 33 2b be 86 d2 a4 bd
       0.109637156 0.034064922 -0.1671877 -0.08047967
0001a0 9f b0 9d bd 5e 68 51 3d d4 72 13 be 64 41 11 3e
       -0.076997034 0.051124923 -0.14399272 0.14185101
0001b0 1f 50 07 3d b2 0f 76 3d 05 fb be 3c fa ac 13 3e
       0.033035394 0.060073562 0.023313055 0.14421454
0001c0 1f 24 96 3d cd 60 95 3d 5f ae fe bd f5 ab 12 3e
       0.07331108 0.07293854 -0.124356024 0.14323409
0001d0 4b b4 c2 3d 00 c1 c6 3a c0 d2 b0 3d 52 f4 3e be
       0.095070444 0.001516372 0.08633947 -0.18647888
0001e0 a4 6d 7a bd 4d b2 24 be 69 24 8c bc be 4c 44 3d
       -0.061139718 -0.16083641 -0.017107205 0.04792475
0001f0 3e df f7 3d 24 48 e6 3d 9a 3f 91 3d c2 2e da 3d
       0.12103127 0.112442285 0.07092209 0.106534496
000200 93 e0 22 3e c6 53 e0 bc a0 7e 71 bd fb ee d0 3d
       0.15905981 -0.027383696 -0.05895865 0.10201832
000210 39 55 8e bd 14 ab 8c 3d 59 57 08 be ba 64 85 bc
       -0.06949849 0.06868568 -0.1331457 -0.016283382
000220 ed bb 8a 3d 8b 88 ed 3d 2a ad 84 bd 65 61 21 3e
       0.06774125 0.11598309 -0.06478341 0.1575981
000230 b6 c3 e7 bd ca b3 0c 3d 3b 61 b0 3c f8 06 b2 bd
       -0.11316626 0.034351148 0.021530738 -0.086927354
000240 2f 4d b4 3c 67 c0 de bd 93 a8 14 3e db 37 b5 bc
       0.02200946 -0.108765416 0.14517431 -0.02212136
000250 ac 1e e0 bd 1a 68 9d 3d 8c 36 37 be 46 4a 8d bd
       -0.1094335 0.076858714 -0.17891902 -0.06898932
000260 3b 6f b2 3d 44 b7 8e 3d 8f b5 01 3e 51 05 12 be
       0.08712622 0.06968549 0.12666915 -0.1425984
000270 05 34 c9 3d 14 e4 30 bd 59 e3 ad bd 2d f5 43 bd
       0.09824375 -0.043186262 -0.08490629 -0.04784124
000280 d6 a2 b7 bd 5f f6 88 3b 65 b6 ab 3d ec 85 87 bd
       -0.08966605 0.0041797603 0.08384398 -0.066173404
000290 fb 5d 07 3e 4f 2c 91 3d 20 cb 0d 3d c3 ff 09 bd
       0.13219444 0.07088529 0.034617543 -0.03369118
0002a0 e2 f1 34 be 6b af ea bc fc 18 3f bd 04 cc 10 be
       -0.17670396 -0.028648099 -0.046654686 -0.14140326
0002b0 25 3a 1d be ea 7c 88 bc e7 d0 16 3d 14 ba ee bc
       -0.15354212 -0.016661126 0.03682032 -0.029141463
0002c0 7f de 1b bd 78 26 3f 3c ba 92 de bd 4a 60 14 3e
       -0.038053986 0.0116668865 -0.108678296 0.14489856
0002d0 88 26 e8 3d ad 01 16 3e 15 7f 30 be a5 d3 03 3e
       0.11335474 0.14649077 -0.17235978 0.12873705
0002e0 23 a8 b2 3d 06 14 c8 bd 79 6f 08 be 66 5e 9e bd
       0.08723476 -0.09769444 -0.13323773 -0.07732849
0002f0 16 07 28 3e 38 91 03 be 75 4d 05 3d c2 9b 58 bd
       0.16408953 -0.12848365 0.032544572 -0.052882917
000300 f3 68 2d 3e ec f6 10 be f4 b4 11 bd 85 89 20 3d
       0.16934566 -0.14156693 -0.03557296 0.03919365
000310 7a ef b3 3c 85 ea 22 3d 09 7a c7 bd 39 f8 20 3e
       0.021964777 0.039774437 -0.09740073 0.1571969
000320 ab 8d b7 3c c4 c8 8a 3d 32 42 2b 3e 6d 25 08 be
       0.02240642 0.06776574 0.1672447 -0.13295527
000330 52 32 55 3d b9 42 32 bd dd 50 5b 3c 8b d7 37 3e
       0.052049942 -0.043520663 0.0133859785 0.17953317
000340 02 5b e8 3d 4e 1c ab 3d f3 5e e7 3c 6d bd da bd
       0.11345483 0.08355008 0.028243518 -0.10680661
000350 ef 62 f4 bd 78 8e 9c bd 8b c3 6b 3d 4c b2 92 3d
       -0.119329326 -0.07644361 0.05755953 0.07162914
000360 15 f7 1c bc 15 05 24 be dd 2f d2 3c 73 eb 0e 3d
       -0.009580393 -0.16017564 0.025657589 0.03489251
000370 dd 7a da bd c3 86 7d bd ad 00 f7 3d aa 6c 93 bd
       -0.106679656 -0.061896097 0.12060676 -0.071984604
000380 e4 02 89 3d b3 83 0b 3d ee 10 08 3d ae 44 0b 3e
       0.066900045 0.034061145 0.03321927 0.13600418
000390 91 c0 14 3e b0 1c 27 be 47 71 37 3d c0 3b 8b bb
       0.14526583 -0.16319537 0.044785764 -0.004249066
0003a0 14 4c 21 3e 55 41 2c 3e 86 13 20 be 3c 06 2e 3e
       0.15751678 0.16821797 -0.15632448 0.16994566
0003b0 12 00 ae bd 98 70 56 bd 47 e6 e0 bc 93 bc cc bc
       -0.08496107 -0.05235347 -0.027453555 -0.024992263
0003c0 c3 7a ee 3d f1 bd 4a bd c0 1b f5 bd 43 66 2d bc
       0.11644509 -0.04949755 -0.119681835 -0.010583463
0003d0 99 5a 0b be 99 22 91 3d e6 b2 97 3d 90 44 ef 3d
       -0.13608779 0.07086677 0.07407169 0.11682999
0003e0 a3 80 3b bd 11 dc 1c 3e ee b4 2a be a4 df 2b 3e
       -0.045776974 0.15318324 -0.16670582 0.16784531
0003f0 36 d4 42 bd 1b e9 2b 3c e9 e1 32 bd 44 4c f5 3d
       -0.04756566 0.010492588 -0.043672476 0.11977437

pre_sequence.0.bias f4 [126]
000000 3a 12 05 3e 66 55 17 3e e8 60 e1 3d 6f 01 b4 bd
       0.12995234 0.1477867 0.110048115 -0.08789336
000010 fd 77 18 3d da 92 33 3e 9c 6f 6b bd 40 2f fa 3d
       0.037223805 0.17536488 -0.057479486 0.122160435
000020 26 1f ff 3d 72 69 53 3d 1e e9 71 3d 38 93 21 3e
       0.12457113 0.051614232 0.05906021 0.15778816
000030 c3 eb 63 3d 80 90 bf 3d 08 50 81 3d da 81 97 3d
       0.05564476 0.09353733 0.06314093 0.07397814
000040 ed 8d 76 bd ec 47 2a be 49 48 2e 3e 99 a9 1d 3e
       -0.060193945 -0.16628999 0.17019762 0.15396728
000050 7c 63 70 bd de 8f ef 3c ed 19 3f 3d 3d 19 cb 3d
       -0.058688626 0.029243406 0.046655584 0.09916923
000060 8a 61 15 3e 95 6e d1 3d c0 7d 93 bc 16 3d b2 bd
       0.1458799 0.1022617 -0.018004298 -0.087030575
000070 b5 21 15 be a6 8d e5 3d 9b a1 cf 3d 58 48 28 bd
       -0.1456364 0.11208658 0.10138246 -0.041084617
000080 99 14 95 bd 77 ec d3 bc 4b e4 98 bd 46 a5 1b 3d
       -0.07279319 -0.025869591 -0.074654184 0.037999414
000090 2b 3a 8f bb 0f 2e ac 3c ad 90 b7 bc 84 e5 02 be
       -0.004370948 0.021018056 -0.022407854 -0.12782866
0000a0 5a 32 bc 3d ae 58 b7 3d 9c e4 cd 3d a3 5c cc bc
       0.09189291 0.08952461 0.100533694 -0.024946516
0000b0 61 3b 92 bd 9c b5 01 3e 24 4e 96 bd a2 25 a4 bd
       -0.07140232 0.12666935 -0.07339123 -0.080149904
0000c0 98 f1 2c 3e 3b 47 ba bd 77 3f be 3d 2d 49 b4 3d
       0.16889036 -0.090956174 0.09289449 0.0880302
0000d0 71 bd 2d be 4c 7e 1c 3d 7c e2 22 bc 3c a8 36 3d
       -0.16966797 0.038206384 -0.009941693 0.044594035
0000e0 7a cd 17 be cf 1e e3 3c 9b f8 2b be ab c5 94 bd
       -0.14824477 0.027724652 -0.16794054 -0.07264265
0000f0 b2 88 29 be 08 5b 71 bd c2 7e 2d be d0 4a 3b 3c
       -0.16556051 -0.058924705 -0.16942886 0.011431411
000100 c2 74 64 3d 1c 46 cd 3d ac 22 0d 3e df ae 69 3d
       0.05577541 0.10023138 0.13782758 0.057051536
000110 35 3e 09 3e ae dd 83 bd 6c ae d5 3d 70 fa 1b be
       0.13402636 -0.064387664 0.10433659 -0.15232253
000120 7a 69 d5 3d 9a ff 16 3e 38 db 27 3e 37 89 52 bd
       0.10420509 0.14745942 0.16392219 -0.05140039
000130 f1 e6 ab bc ab 6b 34 bd 95 a8 a5 3d 74 57 12 be
       -0.020984145 -0.044047993 0.08088795 -0.14291173
000140 ec 69 3b 3c b1 c1 3a bd 69 54 06 3d c7 be 32 be
       0.011438828 -0.045594875 0.032795344 -0.17455588
000150 ee 58 13 be 51 ec 0d be 9b b8 b0 bc c9 a5 45 bc
       -0.14389393 -0.13859679 -0.021572402 -0.012063452
000160 1c 95 21 be e8 34 16 3e d5 76 18 be f2 e1 0c 3e
       -0.15779537 0.1466862 -0.14889081 0.13758066
000170 ce 2b 0d 3e 64 02 01 bd 0d 0c ff bd 02 8a 4d bd
       0.13786241 -0.03149642 -0.124534704 -0.050180443
000180 72 13 a0 bd a4 99 5e bd 02 4e e3 3d 73 06 07 bc
       -0.07816209 -0.054345742 0.11098863 -0.008241284
000190 d3 51 ea bd 43 b3 08 be 5e 86 ca bd 14 e0 1c be
       -0.11441388 -0.13349633 -0.0988891 -0.15319854
0001a0 75 92 c1 bd e3 a8 2a be 2a 4f db bd e6 f9 da 3d
       -0.094517626 -0.16665988 -0.10708459 0.106921956
0001b0 95 51 01 be c4 7c 7d 3d 7b 7a da 3d 57 7a 19 3e
       -0.12628777 0.061886564 0.106678925 0.14988075
0001c0 ed 74 11 be 25 ff 9e ba 2d 62 0e bd fd 31 30 bd
       -0.1420476 -0.0012130482 -0.034761596 -0.043016423
0001d0 29 53 71 3d b2 5b 9f 3d 23 21 90 3d 70 9b b9 3d
       0.0589172 0.07781161 0.0703757 0.090628505
0001e0 7b 49 06 3e 8c ff 0a 3e 77 ce bb 3d 56 9d b2 bd
       0.13113968 0.13574046 0.091702394 -0.08721416
0001f0 90 96 22 3e 71 38 b1 3d
       0.15877748 0.086533435

post_sequence.1.weight f4 [4, 126]
000000 c1 e6 18 bd b4 6d ab 3d 8a f1 86 3d 3f 4d af bb
       -0.03732944 0.083705336 0.06589039 -0.0053497846
000010 2c 18 cc bc af 07 74 3d a7 c0 87 bc f8 59 01 bd
       -0.02491387 0.05957764 -0.016571356 -0.03157994
000020 0d 9a 69 3d 52 cf 69 bc 27 6c 87 bd a7 51 9a 3b
       0.05703168 -0.01427062 -0.06612425 0.0047094407
000030 97 1b f3 3c 22 6f bd 3c 36 21 95 bd be f9 94 bd
       0.029676242 0.023124281 -0.07281725 -0.07274197
000040 1f 0c cf 3c 04 bc dd 3c bf 3f 1b 3d 8d d2 54 3d
       0.025274334 0.027067192 0.03790259 0.05195861
000050 33 b7 86 bd bf 4f 3f 3d 5d f6 90 3d 84 4f 5b 3d
       -0.06577911 0.04670691 0.0707824 0.05354263
000060 d1 2d 04 bd af dd 19 bd e5 eb 4d 3d 59 79 70 3d
       -0.032270256 -0.03756493 0.050273795 0.058709476
000070 72 ee 05 bc 81 c0 83 3d 7d e3 32 3d 78 23 b8 bd
       -0.008174526 0.064332016 0.04367398 -0.0899114
000080 cd d3 01 3c e5 06 89 bd bb 2b 7b bd 6a bf 54 3d
       0.007924032 -0.06690768 -0.061321 0.05194036
000090 3e 2d d0 3d 78 dd 11 3d 18 72 69 3d a9 10 62 3d
       0.10164879 0.0356116 0.056993574 0.05519167
0000a0 8b dd be 3c ca 26 ca bd 0d dc f7 3c d9 c0 1d 3d
       0.023299 -0.0987068 0.030256296 0.038513992
0000b0 81 a2 87 3b 97 62 01 3d 55 b0 5b bd 66 c0 50 3d
       0.004139245 0.031588163 -0.05363496 0.050964735
0000c0 61 53 99 3c f6 d7 a1 bd 08 74 32 3d b4 fe 59 3d
       0.018716516 -0.079025194 0.043567687 0.05322142
0000d0 ff 11 9a bd 0b e6 67 bb b3 b4 0b bc ca 2a 34 3d
       -0.07522964 -0.003538492 -0.008526969 0.04398612
0000e0 47 22 81 3c 47 a6 cf bc 38 f4 fc bb ea 80 22 bd
       0.015763415 -0.025347842 -0.007719543 -0.039673723
0000f0 e1 1a 9e 3d a5 d1 7c bd 9b 48 68 bd d8 b9 85 bc
       0.077199705 -0.06172337 -0.056709867 -0.016323969
000100 06 c3 1e bc 15 dd c3 bd 82 41 90 bd ae 4b 94 bd
       -0.009690052 -0.095636524 -0.070437446 -0.07240997
000110 63 2a c3 3d ba ab b6 bd af 25 26 bd c1 8e 77 3d
       0.09529569 -0.08919473 -0.04056328 0.060438875
000120 83 11 ea 3c dc 6b 1f 3d 27 e1 8b 3d 24 40 84 3d
       0.028572803 0.038921222 0.06830054 0.06457546
000130 c6 e6 83 bd d4 fe 22 bd b1 96 90 bd 6b f4 28 bd
       -0.06440501 -0.039793804 -0.07059992 -0.04124872
000140 b7 4c 3b bd 37 13 31 3d 74 84 3f bd ce 60 1c bc
       -0.045727458 0.043231215 -0.046757177 -0.009544564
000150 0d 94 f5 3c 8c 7c 1a 3d d3 eb 9e 3b b6 6b 87 3d
       0.029977823 0.037716433 0.00484989 0.06612341
000160 ff 53 5b bd 64 b9 c6 bd 0e 32 cb 3c 77 35 76 bd
       -0.0535469 -0.09703329 0.024804141 -0.06010958
000170 78 8e c4 bc 76 af e8 3c e7 be 96 bd 29 2a 26 bd
       -0.023993716 0.028403979 -0.073606305 -0.04056755
000180 e4 1e b0 3d ee a3 34 3d 8e db 2d bd 74 8d 85 bd
       0.08599642 0.044101648 -0.04244571 -0.06521121
000190 ff ee 96 bd c2 de 7b 3d 02 18 90 bc 04 34 47 bd
       -0.07369804 0.061491735 -0.017589573 -0.04863359
0001a0 c4 b4 c1 bd cb bf d0 bd 84 fb 37 bd fe 96 81 3d
       -0.094583064 -0.101928316 -0.0449176 0.063276276
0001b0 d4 96 87 bc 5f c5 26 3d ac a4 1d 3d db a1 d4 bc
       -0.016551413 0.04071557 0.03848712 -0.025956085
0001c0 32 93 b0 bc 1f 53 dc 3c 92 59 b7 3c 36 df 58 3d
       -0.021554563 0.026895104 0.022381578 0.052947246
0001d0 ba 04 3a 3d 68 67 ca bd 4c 4e af 3c 85 27 f2 bb
       0.045414664 -0.098830044 0.02139964 -0.007389965
0001e0 96 bc 2d 3d 1a f7 c9 bc 5c 11 aa bd 70 f8 71 bd
       0.042416178 -0.02465396 -0.08304092 -0.05907482
0001f0 56 0b b9 bd ca dd d5 3c ae 1a a0 bd 0b e2 41 3d
       -0.09035365 0.026106734 -0.07817589 0.047334712
000200 8e ca 38 bd 4f 87 92 3d cc 38 99 bd d8 28 8b 3d
       -0.045115046 0.07154714 -0.07481536 0.067949
000210 bb fc 9a bd a6 78 3b 3d 0b 0f 0d bd 6c ed 64 3d
       -0.07567736 0.045769356 -0.034438174 0.055890486
000220 74 85 2e 3d 26 27 4a bd 22 84 64 3d 45 12 df bc
       0.04260774 -0.04935374 0.055790074 -0.027230391
000230 61 93 e5 3c 6b 09 37 bd c1 4c a0 3d 0a 8f 3f bd
       0.028024377 -0.044686716 0.0782714 -0.046767272
000240 b0 a1 93 3d ae b3 3c 3b 7b b6 fe bc 17 c7 46 3d
       0.07208574 0.002879362 -0.031092873 0.04852971
000250 7c fa ab 3d 4a 25 83 3c 1a 2b 9b 3d 35 59 4f bd
       0.083973855 0.016008992 0.0757658 -0.050622184
000260 89 b3 87 3d ff 79 25 3d 85 7e a8 bd 51 42 53 3d
       0.066260405 0.040399548 -0.08227257 0.051576916
000270 f2 f3 61 3d 97 71 f6 bc 2d 9c be bc d5 0c 6a 3d
       0.055164285 -0.03008346 -0.02326783 0.057141144
000280 08 03 aa bd 10 dd 23 3d b6 d7 47 3d a0 8c 4a 3d
       -0.083013594 0.040005744 0.048789702 0.049450517
000290 b9 85 3e bd 05 8b d0 3d 45 35 9e 3d 18 fb c3 bd
       -0.046514247 0.10182766 0.07725004 -0.09569377
0002a0 9e c9 b4 3c 90 5e d8 bc 18 aa 83 3b 8d 81 aa 3d
       0.022068795 -0.026412278 0.0040180795 0.08325491
0002b0 96 5a 6f 3c dd 8f e8 bc f8 84 5c 3d d8 a1 19 3d
       0.014609 -0.028388912 0.053837746 0.03750786
0002c0 a2 17 94 bd 6b 1f 46 bd 03 d7 1f bd c3 5f 92 bd
       -0.0723107 -0.048369806 -0.03902341 -0.07147171
0002d0 da b8 89 3d 49 e0 a9 3d e6 89 a6 3d 9e 3e 9b 3d
       0.06724711 0.08294732 0.08131771 0.07580303
0002e0 0b 88 4e 3d 70 a1 78 bd b9 fd 92 3a 0e 3a 87 bb
       0.05042271 -0.060700834 0.0011214531 -0.0041267937
0002f0 71 0d 16 bc cc 36 2d bd 27 66 83 bd 33 63 d4 bd
       -0.009158478 -0.042288586 -0.064159684 -0.10370483
000300 83 6d 9d bc 43 e7 e9 bb 9f 5c be 3d a0 fc ac bd
       -0.019217258 -0.0071381642 0.0929501 -0.08446622
000310 b5 bc 2d 3c 7f c0 9a 3d eb 7d 3d bd 53 9c 34 bd
       0.010604073 0.07556247 -0.046262663 -0.044094395
000320 89 44 bc bc 7a 0d 4f bd 14 8d 98 bd 5d 8a 97 bd
       -0.022981899 -0.05054996 -0.074487835 -0.073994376
000330 5c 74 72 bd df e5 b4 bd ac d0 a6 3c 90 ec 5d 3d
       -0.059193 -0.08832907 0.020363174 0.05418068
000340 40 64 96 3d 50 46 cb 3c 69 44 e1 bc a0 3f 8a 3d
       0.0734334 0.024813801 -0.02749844 0.06750417
000350 a6 2a dc 3c c2 22 80 bd 90 ad 56 3d 7f 89 41 3d
       0.026875805 -0.062566295 0.052411616 0.047250267
000360 88 d1 8d bd e6 0c 41 bc be 1c ac bc 16 dd b6 3d
       -0.069247305 -0.01178286 -0.0210098 0.089288875
000370 45 98 c0 3c d8 14 83 3d a0 60 49 3d 43 a9 74 3d
       0.023510108 0.0640046 0.049164414 0.059731733
000380 51 f4 9c 3c aa 3d e0 bc 03 5e ab bd db 6c 93 bc
       0.019159468 -0.027373154 -0.08367541 -0.017996242
000390 5d 8f a7 bd 66 31 8b 3d 29 4e 3e 3c c1 ea 01 bd
       -0.08181641 0.067965314 0.0116153145 -0.03171802
0003a0 10 f5 8c bd 1f d6 44 bc fd f2 9e bd e9 09 49 3d
       -0.068826795 -0.012013941 -0.0776119 0.049081717
0003b0 7d 30 01 bc b4 aa 47 bd a8 71 10 3d ec b4 b5 bd
       -0.007885096 -0.04874678 0.03526464 -0.08872399
0003c0 08 52 91 bd 03 40 0b 3c 0e c7 8d bc 28 e4 d6 bd
       -0.07095724 0.008499148 -0.01730683 -0.10492736
0003d0 ed f5 7d 3d 07 d5 c6 bc a8 20 b8 3c 4e 9f 17 3c
       0.06200211 -0.024271501 0.02247651 0.00925429
0003e0 45 b8 6c bc fd f7 51 bd e8 58 13 3d cf 64 41 3d
       -0.01444823 -0.05126189 0.03597346 0.04721528
0003f0 b1 3c 47 bd 57 1b d7 3d 2c 61 af 3d 43 c0 c3 3d
       -0.048641864 0.105032615 0.08563456 0.095581554

post_sequence.1.bias f4 [4]
000000 bf 87 fc bc b4 7e bf 3c d8 b1 1c 3d 59 d3 17 bd
       -0.030826448 0.023375846 0.038255543 -0.03706679

lstm.weight_ih_l0 f4 [504, 126]
000000 76 2f 9d bc 2a 2d 7e bd d0 e4 27 bc 20 78 a4 3d
       -0.01918767 -0.06205479 -0.010247424 0.080307245
000010 e2 db 70 3c 09 31 c0 bd 8f aa 2e 3d 62 7f 86 bd
       0.014700862 -0.09384353 0.042643126 -0.06567265
000020 53 af d6 3b 44 11 87 3d f0 9f 55 bd 3c 17 f1 bb
       0.006551662 0.0659509 -0.05215448 -0.007357506
000030 a7 7a b1 3b a4 25 d1 bc 9a 42 c7 3d 0c f0 87 3d
       0.0054162326 -0.025530644 0.097295 0.06637582
000040 e0 b8 34 bd 47 46 a1 3d 7b 01 8d bd b2 0a 58 bd
       -0.044121623 0.078747325 -0.06885048 -0.052744575
000050 8f 21 84 bd e2 4a f3 bc c4 80 99 3d 5d 6d 52 bd
       -0.06451713 -0.029698793 0.07495263 -0.05137383
000060 0c 63 19 3d d1 c0 0f 3d fb aa a1 bc da 51 6c bc
       0.037447974 0.035095993 -0.01973485 -0.014423812
000070 70 f4 87 3d 7f 5e 7b bd 23 bd 17 3c 5e 3c 4a bc
       0.0663842 -0.061369415 0.009261402 -0.012343494
000080 a6 ce 51 3d f7 97 5a 3d 38 ab 2a 3d 68 0d 9b bd
       0.051222466 0.05336758 0.041667193 -0.075709164
000090 c5 f8 74 3c 47 ed 86 bd c3 ba 15 bd 26 ff 92 bc
       0.014951889 -0.06588226 -0.036555063 -0.01794393
0000a0 53 46 9e bd e9 6e 80 3d 8c 4a 8b 3d 06 fb 46 3c
       -0.07728257 0.062711544 0.06801328 0.01214481
0000b0 1b 12 76 3d 2f d0 a9 bd f2 08 15 3c d5 45 74 bd
       0.06007586 -0.08291661 0.009096371 -0.05963691
0000c0 04 3a 86 bd 85 6e a3 3d 5d c4 af bd ae 0c a1 bd
       -0.06554034 0.07980064 -0.08582375 -0.078637466
0000d0 3b 7b b3 bd e7 dc 8d bb 9a 88 66 3b b8 10 86 3d
       -0.08763739 -0.004329312 0.0035176636 0.065461576
0000e0 17 6f d2 3c 70 c1 ab bd 2a a9 52 3d 39 36 83 bc
       0.025687737 -0.08386505 0.05143086 -0.016017066
0000f0 f6 66 82 3d 07 e0 79 3c 35 9f cb 3c dd 3a 84 3d
       0.063672945 0.015251166 0.02485619 0.0645654
000100 02 f5 8c bd ed f5 10 bd f5 25 24 bd be 9d ac bd
       -0.06882669 -0.035390783 -0.04007526 -0.084285244
000110 ac a5 45 3c 79 32 2f bd a6 0a 1b bd 71 7b ea bd
       0.012063425 -0.042772744 -0.037851952 -0.11449326
000120 57 fd 65 bd 5d 8e 4c 3d c6 dd 69 3d 17 0f cf 3c
       -0.056149807 0.049940456 0.057096265 0.02527575
000130 0c d0 93 3d d9 20 c5 3b e2 fb 32 bd 70 7e 95 bd
       0.07217416 0.0060158786 -0.043697245 -0.07299507
000140 28 2a 41 3d 70 b6 2b bc dd 8b d2 bd d6 dc 56 bc
       0.047159344 -0.010480508 -0.10280583 -0.013114175
000150 2b 7e c2 3d 6b fe a9 3c 10 14 3d bd 8b 7a 37 bd
       0.09496721 0.020751199 -0.04616171 -0.0447946
000160 eb 1d 42 3b 0e 65 25 3c d0 02 5b 3d 0d dc 74 3d
       0.0029619883 0.010094894 0.05346948 0.05978017
000170 e6 90 91 3d c8 20 7f bd e3 c3 bc bd 8a 39 a8 3c
       0.07107715 -0.062287122 -0.0921705 0.02053525
000180 d8 0c 9a 3c 46 39 c7 bd fb 95 57 bd 7b c7 da 3c
       0.018804953 -0.09727721 -0.052633267 0.026706448
000190 2b bb 4e 3d fd 82 33 bd 3b 14 b0 bd 14 a0 19 3d
       0.050471466 -0.043826092 -0.08597609 0.037506178
0001a0 d7 e5 09 bd cd 25 7e 3d 51 ea 72 3c de 36 37 3d
       -0.033666458 0.06204777 0.014826373 0.04473006
0001b0 1d d5 96 3d cc e3 ad bc d0 16 8b bc aa 07 24 bc
       0.07364867 -0.021226786 -0.016978651 -0.010011593
0001c0 14 90 c0 bc e3 42 8a 3d f7 e5 b0 3d 47 75 25 3d
       -0.023506202 0.06751039 0.08637612 0.040395048
0001d0 c1 d2 b0 bd 6e d7 cc 3b 75 7e de bc 1a 31 a5 3d
       -0.08633948 0.006251267 -0.027159909 0.08066006
0001e0 cb 44 8b 3d 78 8e 4c 3d 1b f5 3a 3d 11 f1 78 bd
       0.068002306 0.049940556 0.045643907 -0.060776774
0001f0 96 19 9f 3d 52 f4 85 3d f4 86 9d bc d3 58 01 bc
       0.07768552 0.06540741 -0.01922939 -0.0078947125
000200 9a eb 82 3d 12 f1 aa bd ea f8 8b 3d 8f 2b 3e 3d
       0.06392594 -0.08346762 0.06834586 0.04642826
000210 79 83 4c bd 86 a0 96 bd 72 1b b7 bd 10 15 4c 3d
       -0.04993007 -0.07354836 -0.08940782 0.049824774
000220 52 5b 90 3b 4b 8b 71 bd 59 29 d4 3c 81 e8 4b bc
       0.0044054175 -0.05897073 0.025898622 -0.01244557
000230 5f 69 0c bd 39 a0 8a 3d 11 80 56 3c d0 3a 88 bc
       -0.034280177 0.06768841 0.013092057 -0.016629606
000240 be 23 17 bc dd 89 79 3d be 26 20 bc f5 bb 1a bd
       -0.00922483 0.060922492 -0.009774862 -0.037776906
000250 49 0a 56 3d 3e 3c 3f 3d 98 1c f9 3b 17 de ae bc
       0.052255902 0.04668831 0.0076022856 -0.021346135
000260 e0 1c 62 bc 66 66 81 3c 67 ed 4f 3d 73 af 51 bd
       -0.01380083 0.015795898 0.050763514 -0.051192712
000270 da ce 89 3a 19 df aa bd 54 93 90 3d 26 fb 94 3d
       0.0010513917 -0.08343334 0.070593506 0.07274465
000280 cc 0e 6e 3d ae 78 9b bc 59 51 63 3d 78 7b 98 bc
       0.05811958 -0.018978443 0.0554975 -0.018613562
000290 f4 15 49 bc 8f 72 41 3d 46 e4 9f bd 18 c4 88 bd
       -0.0122733 0.047228392 -0.078072116 -0.06678027
0002a0 c1 ca 12 3d 33 db 71 3c 6c 7e 93 ba 37 fa 0f bc
       0.035837892 0.014761734 -0.0011252887 -0.008787683
0002b0 c0 cc b0 3d 8e 43 99 bc 0d a6 c0 bc 0e 25 7d bc
       0.08632803 -0.01870897 -0.02351668 -0.015450729
0002c0 1b de 94 bd 77 12 9e 3c 18 41 8d 3c f7 95 98 3d
       -0.07268926 0.019295914 0.017242953 0.074504785
0002d0 b4 f9 90 3d 00 5a 30 bd f8 66 69 3d 99 0b f1 bc
       0.07078877 -0.04305458 0.056982964 -0.029424476
0002e0 ba f4 d3 3c 6b 59 6c 3d 93 c8 2b bc 25 f0 95 3d
       0.02587353 0.057702463 -0.010484832 0.073211946
0002f0 30 1a 46 3b af 6c 66 bd bc 25 bb bd 32 c3 90 3d
       0.0030228011 -0.056255993 -0.09138057 0.070684806
000300 1a e6 32 3a 3d f5 97 bd 67 6b 98 bd 29 ec 4f bc
       0.0006824449 -0.07419822 -0.0744236 -0.012690582
000310 98 6d 67 3c 8a 63 70 bd dd 92 90 b8 0d bd 96 3d
       0.01412525 -0.058688678 -6.8938105e-05 0.07360277
000320 d2 fb 0f 3d 9a fd 2b bd 6e 33 91 3d ad 96 f1 bc
       0.035152264 -0.0419899 0.070898876 -0.029490793
000330 82 3c 31 3c 02 d8 28 3d 58 38 89 3d 1c b4 e7 bc
       0.010817649 0.041221626 0.067002 -0.028284125
000340 3b b9 28 3b d0 50 ef 3c 67 49 1d 3d fc e9 dd 3c
       0.0025745172 0.02921334 0.03840008 0.027089112
000350 11 78 10 3b c4 96 b8 3d 25 d5 4f bd d9 43 9d 3d
       0.0022044221 0.09013131 -0.05074038 0.076789565
000360 0a 1e 60 3d 63 7b 55 bd 09 02 4c 3d c4 40 7c bd
       0.054716147 -0.052119624 0.04980663 -0.061585203
000370 91 c9 1c 3d 01 b0 3b 3c 3b cb a4 bd c2 c6 6c bc
       0.038278166 0.011455537 -0.08046576 -0.014451684
000380 82 c6 35 bb 63 2c 89 3d 25 aa c3 bc f2 cb a7 bd
       -0.0027736728 0.06697919 -0.023884842 -0.08193196
000390 e1 94 1b bd 53 e2 2f 3c 60 cd 96 bd c9 33 03 bb
       -0.03798378 0.010735112 -0.07363391 -0.002001988
0003a0 00 5a 5c bd 4c 67 56 bc 9d 98 70 bd 8c 1e 06 3c
       -0.05379677 -0.013086151 -0.058739293 0.008185994
0003b0 05 6d 9d 3d cb c0 8d bd 2c b5 2e 3d f9 27 9e 3d
       0.076868095 -0.06921538 0.042653248 0.07722468
0003c0 ee 0c a1 3c b6 1c 9e bd 09 be d6 3b 52 4f 9a bd
       0.019659486 -0.0772032 0.0065534157 -0.075346604
0003d0 1f 77 a6 3d dc 9a 8c bd c0 18 82 bd ec 64 79 3d
       0.08128189 -0.068654746 -0.06352377 0.060887262
0003e0 c7 53 55 bc 90 d7 fe 3c 17 27 9d 3d 12 0f 7b bd
       -0.013020462 0.031108648 0.076734714 -0.06129367
0003f0 d6 95 8e 3d 5b 5a 43 3c 11 df a6 3c a6 44 f4 bc
       0.06962173 0.011923398 0.020370038 -0.02981789

lstm.weight_hh_l0 f4 [504, 126]
000000 5d 8f 28 3d f4 16 0b 3d bc 94 f5 3c f0 41 8a bd
       0.041152347 0.033957437 0.029978149 -0.06750858
000010 6d ff 8d bd b4 91 4f bc 76 1d a9 3d 4b 07 a4 3d
       -0.06933484 -0.012669016 0.08257572 0.080092035
000020 f5 b3 a1 3d d5 31 b3 bb 3c bc 15 3c d2 9e 31 bd
       0.07895652 -0.005468587 0.009139117 -0.043364353
000030 64 58 ba bb fb 75 50 bd be 7a 88 bd 44 a6 b6 bd
       -0.0056868065 -0.050893765 -0.06664036 -0.089184314
000040 e6 11 84 3d 53 f8 ae bd fa ed e8 3c ba d7 61 3d
       0.06448726 -0.08543458 0.028433789 0.055137374
000050 65 e5 f2 bc f3 1c 4f 3c d5 cc 95 3c 89 49 80 bd
       -0.0296504 0.012641179 0.018286148 -0.06264026
000060 9a 53 1c bc ef 00 62 3d cb 2e 3e bd fd 70 94 bd
       -0.009541417 0.05517667 -0.046431344 -0.07248113
000070 e8 21 a6 3d 4c 24 a5 bd 5f 40 af 3c 3f 5a 9c 3d
       0.08111936 -0.08063564 0.021393 0.076344006
000080 e2 29 db bc 31 14 29 3d 40 7f e8 bc fd 10 a0 bd
       -0.02675337 0.04127902 -0.02838099 -0.0781574
000090 0e b3 8d bd 75 d5 5c bd b6 70 78 bd a1 63 ab bd
       -0.069189176 -0.053914506 -0.060654365 -0.08368612
0000a0 27 03 31 3d 30 58 42 bd 4b de 93 3c 67 e1 a1 3d
       0.043215897 -0.047447383 0.018050333 0.0790432
0000b0 88 94 9d 3d 7c 25 ac bd ee cf 5f bd 77 42 31 3d
       0.07694346 -0.08405587 -0.054641657 0.043276276
0000c0 e8 e1 00 ba fb df 14 3d c4 1e a9 3d 56 a1 68 bd
       -0.0004916475 0.036346417 0.08257821 -0.056794487
0000d0 5d 2f 3b bd b3 45 62 3d 36 75 35 3b 79 af 9d bd
       -0.045699466 0.05524225 0.0027688271 -0.076994844
0000e0 15 7b 17 bd 3a 5a 77 bd 16 30 97 bc 36 cd 19 3d
       -0.036982615 -0.06038878 -0.018455546 0.03754922
0000f0 bd da bd 3d 4e de bc bd 7a bd 45 bd f4 d3 6f bc
       0.09270237 -0.09222089 -0.048276402 -0.014637936
000100 b6 2b b5 3c 00 cb a2 3d 24 33 6f bd 0e a8 f3 bc
       0.02211557 0.079488754 -0.05839838 -0.02974322
000110 22 3c d8 3c 6e 3f 0a bd 94 0e 16 3d 25 d3 05 3d
       0.026395861 -0.033751898 0.036634997 0.032672066
000120 4b 92 fc 3c be d6 c4 bc 19 35 9d bd 41 52 ea bc
       0.030831477 -0.024028178 -0.07676143 -0.028603675
000130 7d ae 25 3d 34 29 d0 3c a6 cf b9 bd 7b f3 38 bc
       0.040449608 0.025410272 -0.09072809 -0.011288519
000140 4f dd bb bd 6f ec 76 bd 71 bf 99 bd 04 9d 54 3d
       -0.09173071 -0.060284074 -0.07507218 0.051907554
000150 c1 39 0b 3d 6a 74 1c 3d 89 6b 0c 3d 7c f5 41 3c
       0.033990625 0.03819696 0.03428224 0.011838313
000160 66 1c 6a 3c a7 be 69 3d e7 0c 10 3d a0 0c 5d bc
       0.014288997 0.057066586 0.035168555 -0.01349178
000170 78 49 89 3d 82 65 aa 3d c1 08 38 bd 30 b7 30 bd
       0.06703466 0.08320142 -0.044930223 -0.04314345
000180 7b ee 93 3d b5 72 91 bd 4c 4b ba 3d 25 26 be 3c
       0.07223221 -0.07101957 0.09096393 0.023211548
000190 dd b2 78 bc 51 90 92 bc 6f bf bf 3c 08 f0 35 3d
       -0.015179363 -0.017891081 0.023406712 0.044418365
0001a0 bb bb 90 3c 8f b9 a6 3c 93 6e 23 bc b3 ad 48 bd
       0.017667642 0.020352153 -0.009975093 -0.048993777
0001b0 a9 0c 97 bb ac cd 88 bc 13 54 b3 bc 16 7d 35 bc
       -0.0046096635 -0.016699634 -0.021890676 -0.011077186
0001c0 62 d3 27 3d 24 be 10 3d bf cd a2 bc 4a 38 c4 bb
       0.040973075 0.035337582 -0.019873498 -0.0059881555
0001d0 4c 7f 55 3d d9 e0 c2 bd 48 aa 82 bd 7d 8f 42 bd
       0.052123353 -0.095155425 -0.06380135 -0.047500122
0001e0 75 47 b7 3d 2f b7 08 3d 65 71 95 bd 04 cb 55 3c
       0.08949176 0.033377822 -0.07297019 0.013048891
0001f0 85 cd 86 bd ca 45 b5 bd b5 d3 2b 3d cb 15 53 3d
       -0.065821685 -0.08851202 0.041949946 0.051534455
000200 a5 8e 0d 3b 6d 8b 1c 3d ab 83 24 bb b7 6d aa bd
       0.0021599915 0.038218904 -0.0025102894 -0.08321708
000210 96 1a 0d bc 36 62 90 3d 2b 4a 01 bc 14 f1 c3 bd
       -0.008612296 0.07049982 -0.007891218 -0.095674664
000220 8d e3 35 bc 82 5f f1 bb 13 d1 42 bd db cf d3 bc
       -0.011101616 -0.0073661217 -0.04756267 -0.02585595
000230 09 4f 38 bd 00 57 41 bd 1e d1 8e bb 27 62 58 bd
       -0.04499725 -0.04720211 -0.004358425 -0.05282798
000240 74 bc 69 bd 96 97 32 bd 0a ae a7 3d d2 05 cd 3c
       -0.05706449 -0.043601595 0.08187492 0.02502719
000250 8a 68 1f bd 5a 11 b3 bd ca 1a 10 bd 64 8a a8 bd
       -0.038918056 -0.08743544 -0.035181798 -0.08229521
000260 16 f4 21 bc ba 19 8b 3b 60 f9 a1 bd 4f 60 8f bc
       -0.009884855 0.00424501 -0.07908893 -0.017501978
000270 02 d5 0b bd 04 cc 3c 3c 8d 5a 21 3d ea 6e a7 bd
       -0.034138687 0.0115232505 0.039392997 -0.08175452
000280 56 3a 14 bd 9c 04 96 3d 00 28 6d 3c 8d 4e 99 3c
       -0.036188446 0.07325098 0.014474869 0.018714214
000290 8f 1c 96 bb 19 ed 3c bd ab c4 35 bd 5b fb 26 bc
       -0.004581041 -0.04612455 -0.04437701 -0.010191764
0002a0 3b 0c b0 3c c7 32 96 3d 79 91 6e 3d c4 79 68 3d
       0.021490207 0.07333904 0.058244202 0.05675675
0002b0 fa 27 96 bd 18 63 98 3d 6a d4 6d bd 4d 68 43 3d
       -0.07331844 0.07440776 -0.058063902 0.04770689
0002c0 52 c4 de 3c 75 2d a8 bd 8c 66 1f bd db a7 fb 3a
       0.027193222 -0.08211795 -0.038916156 0.0019199805
0002d0 8a a9 27 bd 5e f3 0a bd ff 6d 69 bd fe aa 7a 3d
       -0.04093317 -0.0339235 -0.056989666 0.061198227
0002e0 c0 6e c6 bd d2 87 90 3d 4f a2 c6 bd 1a f5 57 bd
       -0.09689093 0.07057156 -0.09698927 -0.05272398
0002f0 96 a5 26 3d ca d9 b9 3d 6f 81 29 bd db 3b a9 3d
       0.04068526 0.09074743 -0.041383203 0.0826337
000300 0f 33 bc 3d 25 8c 1a 3c 4f f1 9c bd b6 8d c7 bc
       0.09189426 0.009432827 -0.076632135 -0.024359565
000310 46 3c 7d 3d 3b 69 a4 3c 5c f9 82 bd 69 5c 5a bd
       0.06182506 0.020069709 -0.06395218 -0.053310785
000320 7a 69 6b 3d 9e 1c 8a 3c f5 b6 2a bd 75 4a 07 bd
       0.057473637 0.016859349 -0.041678388 -0.033029992
000330 ab c0 49 3d 81 7c 97 bd 16 c6 89 3d 54 62 ad bd
       0.049256008 -0.07396794 0.06727235 -0.0846602
000340 6e bf 44 bd c1 74 88 3a 80 ab dc 3c 42 fd bc 3d
       -0.048034124 0.0010410772 0.026937246 0.092279926
000350 e0 9c 34 3d 38 d3 15 bd 4b 26 48 bc 13 b6 a5 3c
       0.04409492 -0.036578387 -0.012216161 0.020228421
000360 b8 d1 4e bc 33 16 a4 bd 07 1c 57 3d 29 cd 65 3c
       -0.012623243 -0.08012047 0.052516963 0.014025965
000370 df 3d 0b bd 58 d2 91 3d be cd ad bc 2c c9 fc 3c
       -0.03399455 0.07120198 -0.02121627 0.030857645
000380 71 26 9d bd 3a 00 88 bc 35 35 e5 3c 25 cb 4d 3a
       -0.07673348 -0.01660167 0.027979473 0.00078504
000390 d4 b4 1c 3d 33 d0 90 bd d6 4c 96 3d f6 11 66 3d
       0.03825839 -0.07070961 0.07338874 0.056169473
0003a0 e9 8c 77 bd ea b0 40 3d de 6f 86 3d 3f 25 91 3d
       -0.060437117 0.04704372 0.06564306 0.07087182
0003b0 b0 8d 3b 3c 9f 6f 11 3d e2 1f 97 bd 40 31 c6 3b
       0.011447355 0.03550684 -0.07379128 0.0060483515
0003c0 45 ff 86 bd e8 6b 5b 3d a3 81 a0 bc d6 ba 9a bd
       -0.065916575 0.053569704 -0.019593066 -0.075551674
0003d0 23 3e f9 3c c4 a2 8b 3b 29 f6 e2 3d 58 25 b1 3d
       0.030425137 0.0042613465 0.110821076 0.08649701
0003e0 b0 5d c2 39 15 42 6f 3d e0 ca a4 3d f1 a4 92 3d
       0.00037072366 0.05841263 0.08046508 0.07160366
0003f0 ae 03 8c 3d 33 9a a7 bd 5b 37 4c bc 67 27 b3 bd
       0.06836639 -0.08183708 -0.01246437 -0.0874775

lstm.bias_ih_l0 f4 [504]
000000 7f f0 24 3d e2 6b 75 bd 0a 15 0b 3d ff 18 04 bc
       0.040268417 -0.05991734 0.03395561 -0.0080626
000010 85 81 8f bc 58 b1 1c bc 23 e0 a0 3d 20 e4 12 bd
       -0.017517814 -0.009563766 0.07855251 -0.03586209
000020 76 ae c0 3c f4 b0 19 bd 07 5a d4 3c bc 16 04 bd
       0.02352069 -0.03752227 0.025921835 -0.032248244
000030 a9 3e 96 bc af 12 bd 3d da 30 08 3d 4a 56 11 bc
       -0.018340426 0.09232079 0.033249713 -0.008870671
000040 12 f8 21 3d b6 8a 97 3d e0 17 ae bd 7a 72 7f 3d
       0.03954322 0.07399504 -0.085006475 0.062365033
000050 1a c1 a9 bd 45 17 40 bd 47 b8 40 bd 3e 82 a9 3d
       -0.08288784 -0.04689719 -0.04705074 0.08276795
000060 2a 6b 16 bc ac 84 42 3c 3a 40 1f 3d c7 5a c0 3c
       -0.009180823 0.011872452 0.03887961 0.023480786
000070 84 7e 0d bd 7e 72 ad 3d 62 fb 0d bc ee dc a5 3c
       -0.034544483 0.08469103 -0.008665891 0.020246949
000080 f3 46 ae 3d d3 cf a8 bd f6 e0 52 3c eb 3d c8 3d
       0.08509626 -0.08242764 0.012871018 0.09777435
000090 0e 4f 2b 3d a8 c4 a6 3d a9 bf 75 3d a3 fe 72 3d
       0.04182344 0.08142978 0.059997234 0.05932487
0000a0 c8 19 25 bd b4 a1 02 bc 60 f1 94 bd 5a 75 65 3d
       -0.04030779 -0.007973123 -0.07272601 0.05602012
0000b0 fd c4 ab 3c 32 97 93 3d dd 46 ab 3d 48 1f 73 3c
       0.020967955 0.072065726 0.083631255 0.014839001
0000c0 9c 05 6d bd 43 c3 90 3c aa 0e a5 bc c5 09 99 bc
       -0.057866678 0.017671233 -0.020148594 -0.018681416
0000d0 0e 9b a9 bc 60 49 86 3c db b5 fb 3c 4d 8d 48 bd
       -0.020703819 0.01639241 0.030726364 -0.04896288
0000e0 26 92 00 3d 07 37 b2 3d 99 e8 c1 3c 27 2b 30 3d
       0.031389378 0.08701902 0.023670482 0.043009903
0000f0 55 3a ec bb b6 44 ac 3c 5f dc 45 bd 1c 0f c8 3c
       -0.007209102 0.021028858 -0.048305865 0.024421267
000100 0e 2e 67 3d 4a 35 82 bd 87 93 07 3d a1 87 82 3c
       0.056440406 -0.0635782 0.033099677 0.015933814
000110 14 23 b3 bc 12 ba c6 3c 6c 27 0b 3d f7 f6 05 bd
       -0.021867312 0.024258647 0.033973143 -0.032706227
000120 27 d9 0e bd f8 04 6f bd d8 56 1a 3d 62 55 8d bd
       -0.03487506 -0.058354348 0.037680477 -0.06901051
000130 1b 73 8a 3d 36 da 82 bc a8 23 17 3d d5 e0 92 bd
       0.06760236 -0.015973192 0.03689924 -0.071717896
000140 18 4b 80 bd 9f bc 10 bd 39 68 8f bc 16 9c 12 bd
       -0.06264323 -0.035336133 -0.017505752 -0.035793386
000150 e9 97 fc bc f6 6f 95 3a 04 03 32 bc 43 73 81 3d
       -0.030834155 0.0011401165 -0.010864977 0.063208126
000160 75 c3 ad 3d eb 9b 91 3c 6d f7 bc 3c 6c 28 9e 3d
       0.08484546 0.017774543 0.0230672 0.077225536
000170 c2 7e 8e 3d 65 a4 95 bc 1f b8 a5 3d 1e 22 a6 3c
       0.06957771 -0.018266866 0.08091759 0.02027994
000180 73 11 fa bb 3a 4d 84 3d d8 d6 70 3b a8 36 a5 3c
       -0.0076314746 0.06460042 0.003674915 0.020167664
000190 bb 06 5f bd 97 47 ba 3d a3 a7 07 bd b4 b9 01 3d
       -0.054449778 0.09095686 -0.033118855 0.03167124
0001a0 37 7d 2f 3d 5a 43 50 bd 7f 04 8d bd d7 62 27 bc
       0.042844024 -0.05084548 -0.06885623 -0.010216436
0001b0 fe ff 85 bc 45 75 7f bb 09 53 2a bc b7 81 a2 bd
       -0.016357418 -0.003897981 -0.010395774 -0.079348974
0001c0 d1 8c 2a bd 45 f2 0d 3d f5 15 fe bc d1 3b a3 3d
       -0.0416382 0.034654874 -0.03101633 0.079703934
0001d0 7f 3b 26 bb 3c c8 b4 3d 85 16 86 bc 50 3f a1 3d
       -0.0025365052 0.08827254 -0.01636816 0.07873404
0001e0 9c e4 83 3c 98 bb ab 3d 4f 50 17 3d 01 6e 28 3d
       0.01610022 0.0838539 0.036941823 0.041120533
0001f0 25 9f aa 3d 9f e6 1d 3d c3 5d e8 bc 8c 26 26 bd
       0.08331136 0.038550016 -0.028365022 -0.040564105
000200 4c 20 1e bc ef d3 f6 3c b0 46 ec 3c 08 b7 89 3b
       -0.009651255 0.030130355 0.0288423 0.004202727
000210 b4 c2 d5 3c d6 e4 ae 3d 6c a3 f9 ba e9 bb 36 3d
       0.026093818 0.08539741 -0.0019045896 0.0446128
000220 66 40 9c 3d 97 89 e0 bc 09 7a 4f bd f7 07 03 bd
       0.076294705 -0.027409358 -0.05065349 -0.031990018
000230 41 a2 26 3c 0b b0 73 bc 43 5a 0b bd b5 ff 06 3c
       0.01017052 -0.014873515 -0.034021627 0.008239676
000240 98 a6 86 bb 8d 5f 56 3d 94 5f 8c 3d b0 4e 83 3d
       -0.004109215 0.052337218 0.068541676 0.06411493
000250 56 81 da 3b 3c bf ab 3d 73 ae a4 bd 9f 45 ae 3d
       0.00666825 0.083860844 -0.08041086 0.08509373
000260 81 85 ab 3c 33 cb 8d bd cd b7 8c 3d 6c 85 6c 3c
       0.020937683 -0.06923523 0.06870995 0.014436107
000270 98 ee 99 3c 95 e3 95 3c 84 04 9e 3d 93 3f 17 bd
       0.018790528 0.018296996 0.07715705 -0.036925863
000280 53 12 56 bd 47 fa 9b 3d 9d 0e 85 3d a8 89 50 3d
       -0.05226357 0.07616096 0.06496928 0.05091253
000290 56 fa 6e bd 3a ca b3 3d 1e c5 41 bd 0a fb 81 3d
       -0.058344208 0.08778806 -0.047307126 0.0634671
0002a0 6c bd 67 bd f6 a4 4a bd 74 99 73 bd 78 c4 09 bc
       -0.05657713 -0.049473725 -0.059472516 -0.008408658
0002b0 d7 05 ac 3d 91 63 6f bd 27 59 a6 3d 20 b8 8e 3c
       0.08399551 -0.058444563 0.08122473 0.017421782
0002c0 04 10 90 3d 1a cb 70 3d 17 96 87 3c 3c 11 53 3d
       0.07034305 0.058787443 0.01655106 0.051530108
0002d0 8a 3c 99 3d d1 f4 b8 3c 6f 17 85 bd 9f 40 5e 3c
       0.0748225 0.022577675 -0.0649861 0.013565212
0002e0 0d 18 a0 bc 6e 58 ac bc 91 2b 87 3d 2d 0a 7e 3c
       -0.019542718 -0.02103826 0.066001065 0.015505356
0002f0 bb e9 50 3d ff 44 8e 3d a0 14 29 3d 44 e2 94 bd
       0.051004153 0.06946754 0.041279435 -0.07269719
000300 c7 c2 78 3d ae 08 55 3c 5e 90 89 3d e3 ac fd bc
       0.06073263 0.013002558 0.06716989 -0.030966228
000310 d2 51 60 3d 87 59 bd 3c 49 42 23 3b 9b bd 34 3c
       0.05476553 0.023113979 0.0024911335 0.011031534
000320 4d 9e 3f 3d 48 75 a2 3c 90 00 a8 3d 5a 01 a9 3d
       0.046781827 0.019831315 0.08203232 0.08252211
000330 72 88 a8 3d 00 9c a1 bd d1 28 5b bd ba 0d b7 3d
       0.0822915 -0.07891083 -0.053505722 0.08938165
000340 fe 2c c2 3d 56 a1 80 bd 07 53 bd 3a f9 66 5c 3c
       0.09481238 -0.062807724 0.00144443 0.013452285
000350 65 e3 aa 3d 4d e0 69 3d 05 de 1b 3c c8 79 bd 3c
       0.08344153 0.057098676 0.009513383 0.023129359
000360 3a 28 85 3d c9 22 86 3d 4f 63 2f bd 2a 1e e8 3c
       0.06501813 0.065496035 -0.042819317 0.028334696
000370 29 a1 39 bd d9 68 7a 3d 38 67 b5 bd 19 3f cb 3d
       -0.04531971 0.061135147 -0.08857578 0.09924144
000380 9a 1e 47 3d 45 19 d4 3d 44 30 3a 3d b9 58 be bc
       0.04861317 0.10356382 0.045456186 -0.023235666
000390 ec 66 45 bd b5 27 28 bc 18 83 80 3d 2f 5a c2 bc
       -0.048193857 -0.010263373 0.06275004 -0.023724644
0003a0 d1 f5 69 3b c5 14 cd 3b 73 3c b6 bc 57 76 93 3d
       0.0035699497 0.0062585794 -0.022245621 0.07200306
0003b0 8e a7 07 bd 86 b1 92 3d 15 6c 98 3d 85 52 b2 3c
       -0.033118777 0.07162766 0.0744249 0.021767864
0003c0 68 9e 7b 3b 42 80 4b bd 77 e9 5e bd b1 e0 78 bd
       0.0038393978 -0.049682863 -0.05442187 -0.060761157
0003d0 e6 ed bf 3d e9 51 1e 3d 16 d0 b6 3d 2f cd 03 bd
       0.093715474 0.038652334 0.08926408 -0.0321781
0003e0 24 94 6c 3d 02 57 97 3d 34 7e 10 3c 99 c7 6d bd
       0.057758465 0.07389642 0.008819152 -0.05805168
0003f0 01 d4 b7 3d 90 46 5b bd 03 db 7a bd c9 4b 92 3c
       0.089759834 -0.05353409 -0.061244022 0.017858403

lstm.bias_hh_l0 f4 [504]
000000 5a 45 44 bc 58 30 8e ba 9d 46 3e bd c8 12 ed bb
       -0.011979425 -0.0010848148 -0.04645406 -0.007234905
000010 f9 d8 f6 bc 60 b5 a1 3d c4 d4 bb 3d 36 ed 2f bd
       -0.030132757 0.07895923 0.09171441 -0.04295083
000020 97 03 a2 3c f8 6f 62 bc 0d 8e c2 3c f8 a2 a2 bc
       0.019777102 -0.013820641 0.023749376 -0.0198531
000030 bd 60 97 3d a8 c4 a6 bd 33 7c b0 3d ad 3f ab 3c
       0.07391498 -0.08142978 0.08617439 0.020904386
000040 f1 c1 5c bc b7 c6 01 3d 53 69 07 bd cd 7f 25 bd
       -0.013473974 0.03168365 -0.03305943 -0.040405083
000050 94 06 9d 3d 94 24 9a 3d 0c 6a 6a 3c 08 06 49 3d
       0.0766727 0.07526508 0.01430751 0.049078017
000060 14 8f a1 3c 56 c4 6c bd 8f 58 38 bd d7 58 9c 3d
       0.019721545 -0.057804428 -0.04500633 0.07634132
000070 5a 91 69 3a 15 45 1c bd 93 2f 48 3d 4b 8e 64 3d
       0.00089099037 -0.03815182 0.048873495 0.055799764
000080 d3 2b 8b bd 6a 3b 3e bc ec 54 bf 3d 0d 1b 75 3d
       -0.06795468 -0.011610845 0.093423694 0.05984025
000090 c0 1a 3b bb ac 0c 5d bd 7d b6 7f bd 25 01 16 bd
       -0.002854988 -0.053967163 -0.062429894 -0.036622185
0000a0 ac e0 c8 3b 1c dd 8b bd 07 69 3f bd 5d bd 28 3c
       0.0061302986 -0.06829283 -0.04673102 0.010299054
0000b0 40 98 1f bd 61 23 6c bd 30 7b ea 3c af e3 20 3d
       -0.038963556 -0.057650927 0.028623194 0.039279636
0000c0 8d 51 ac 3d 31 b6 39 bd 1e d9 63 3d 23 f9 a9 3d
       0.08413992 -0.045339767 0.05562698 0.08299472
0000d0 b9 32 70 bc 5b df 26 bd cb 6d 18 3d f7 31 b9 3d
       -0.014660531 -0.040740352 0.03721408 0.09042733
0000e0 6c 17 14 3d d1 bf f8 bb 8c 62 32 bd bc 46 65 bc
       0.03615515 -0.0075912257 -0.043551013 -0.013993915
0000f0 03 2b 09 bd 0a 54 af bd 70 0c b1 3d 98 f4 82 3b
       -0.033488285 -0.08560951 0.086449504 0.003996443
000100 64 6d cf bc 01 27 05 3d ab 8a aa 3c 9d d0 24 bc
       -0.025320716 0.0325079 0.020818075 -0.010059503
000110 42 ef 3f bb c1 06 83 bd c1 23 5c 3d a6 7e 0a 3c
       -0.0029286896 -0.063977726 0.053745035 0.008453047
000120 2a aa 9a 3d ab 3a 86 bd 30 3d 45 3d bc c1 86 bd
       0.075519875 -0.06554159 0.048154056 -0.06579921
000130 c7 72 1d 3d da 22 aa 3d 8a d3 83 bd dc 20 a7 3d
       0.03843954 0.08307429 -0.06436832 0.08160564
000140 5e 7f a6 3b c3 75 e9 bc 75 66 92 bb 50 32 11 3d
       0.0050811013 -0.028498536 -0.0044677802 0.035448372
000150 f7 ac 34 3d be 3c 9f 3d cb a1 d2 3c 50 02 04 3d
       0.044110265 0.077752575 0.025711915 0.032228768
000160 55 9f 35 3d 54 f9 65 bd 69 63 b4 3d 2f 51 fd bb
       0.044341404 -0.05614598 0.088080235 -0.007730625
000170 31 3b 40 3d 62 36 34 bd fe aa 49 3d 82 a2 c7 bc
       0.04693145 -0.043997176 0.049235336 -0.024369482
000180 bf 07 2c bd f9 1a 6c bd 9a a6 9d bd 5d 3e ff bc
       -0.041999575 -0.05764291 -0.07697792 -0.031157667
000190 8f 35 ad 3d e7 a6 6e 3d 50 fa 45 3d 36 e0 00 3d
       0.08457481 0.05826464 0.04833442 0.031463824
0001a0 19 a9 19 bd da 27 96 3d 00 8f 1f bd 09 72 8f 3d
       -0.03751478 0.0733182 -0.038954735 0.07004172
0001b0 2d 28 72 3d cd fc 07 bd 9a 9a 8c 3d 7c 9c 91 bd
       0.059120346 -0.033200074 0.068654254 -0.07109925
0001c0 88 d9 2e bd ce 72 82 3d ce 00 7e 3d 20 81 58 3c
       -0.042687923 0.063695535 0.062012486 0.01321438
0001d0 7d 6d 87 bd a1 4f 3f 3d 90 8a cd 3d a3 81 8f 3d
       -0.0661268 0.0467068 0.10036194 0.07007148
0001e0 66 3c c0 3a ae 69 aa bd f9 f2 da 3c fd 9b 59 bc
       0.0014666438 -0.08320938 0.026727187 -0.013281819
0001f0 42 79 1b bd ea 0a 33 bc 82 6f ad 3d cb 2f a0 3d
       -0.037957437 -0.010927895 0.08468534 0.07821616
000200 03 03 0b bd e6 23 0e 3d de ed 53 bd 02 0e a9 3d
       -0.03393842 0.034702204 -0.05174052 0.08254625
000210 b7 75 db 3d 1d f8 b6 3d 94 a5 37 3d 87 d8 96 3a
       0.10715812 0.089340426 0.044835642 0.0011508622
000220 f8 a1 98 3d 05 1d 98 bd 29 72 1b 3d 29 a7 c8 3d
       0.07452768 -0.0742741 0.03795067 0.09797508
000230 08 c4 ac 3c 4e 82 b0 3c cb 68 40 bc 6e a8 61 3c
       0.021089569 0.02154651 -0.011743735 0.013773067
000240 21 55 46 bd cb ff bc 3d 5d 05 5c bd 5c fe 2c bc
       -0.04842103 0.09228476 -0.053716052 -0.010558691
000250 59 a9 b3 bc 49 80 ca bb 1e f8 9a bc 53 19 77 3d
       -0.021931337 -0.0061798436 -0.01891714 0.060326885
000260 cc a5 35 bb 0d 1c 9a 3d a5 a9 d2 3d c3 08 83 3c
       -0.002771723 0.075248815 0.102862634 0.015995389
000270 f6 7f a6 3d 81 56 43 bc 5a c5 12 3d 9e 95 0c bd
       0.08129875 -0.01192248 0.03583274 -0.034322374
000280 63 43 28 bd 79 83 7f bd 91 fa c3 bc 9f 86 5d bd
       -0.04107989 -0.06238124 -0.02392319 -0.054083463
000290 33 45 86 bc 88 00 51 3d aa 80 32 bd 9d a6 4e 3b
       -0.016390419 0.051025897 -0.043579735 0.0031532415
0002a0 bf dd 28 3d 09 e6 8d 3b 51 77 6c bd c1 e4 87 bd
       0.0412271 0.004330401 -0.057730976 -0.06635428
0002b0 89 74 9b bd fe 36 17 bd 0f 1e 55 3d 9d ef 82 3c
       -0.07590587 -0.03691768 0.05203062 0.015983397
0002c0 d4 c8 84 3d 00 88 0e bd 1a a3 4c 3c e7 79 16 bc
       0.064836174 -0.03479767 0.012490058 -0.009184337
0002d0 8d b3 8d 3d 70 95 42 3d 7d bd ae bd a2 34 25 bd
       0.06919012 0.047505796 -0.08532236 -0.040333398
0002e0 d4 2b 76 3d 97 53 7f 3d db 87 9b 3c 8d 86 16 3c
       0.06010039 0.062335577 0.01898568 0.009187353
0002f0 9a dc 80 3d 46 d5 ae bd 23 a7 c3 3d 48 97 12 bd
       0.062920764 -0.085367724 0.09553363 -0.035788804
000300 dc 97 68 3d 58 81 3a 3d b1 58 5e bd 5c 7c 36 bd
       0.05678545 0.045533508 -0.0542838 -0.044552192
000310 0f e4 72 bd 78 77 9e bc 95 0a b1 3d 35 a0 95 bd
       -0.059299525 -0.019344077 0.086445965 -0.07305948
000320 85 ba 0a bd 74 d7 b1 3d ce ba 2b bd e4 44 dd bb
       -0.033869285 0.086836725 -0.041926198 -0.006752597
000330 a8 77 57 bc f4 3c bb 3c 65 61 14 3d 91 85 4c bd
       -0.013151087 0.022856213 0.036225695 -0.049932066
000340 3c 73 9e 3d b9 82 95 3c 0f 05 73 bd 95 e8 18 bd
       0.07736823 0.01825081 -0.059330996 -0.037331183
000350 f6 e6 ac 3d 2b fc 8d bd 37 f2 99 3b 65 c7 db bb
       0.0844249 -0.06932863 0.0046980637 -0.0067071193
000360 c3 a0 9d bc 2c 32 24 3d ad 60 ac bc 8a cc 18 3d
       -0.019241696 0.04008691 -0.021042192 0.03730444
000370 cf 73 89 bd 06 9e ab 3c c5 66 cf 3c 04 c2 a0 3d
       -0.06711542 0.020949375 0.025317559 0.078495055
000380 ae 44 41 bd 4f 6b 33 bc 07 ac 84 3d a6 70 50 bc
       -0.04718464 -0.010950877 0.06478124 -0.01272217
000390 0e be bf 3d bb 79 f2 bc 71 cf 7c 3d b9 0c 92 3d
       0.09362422 -0.029599061 0.06172127 0.07131333
0003a0 ae 79 4a bd d0 21 44 bd 0a 88 18 bd d0 14 cc 3c
       -0.04943245 -0.04788381 -0.037239112 0.024912268
0003b0 13 ec ca 3d 23 ae b0 bb 5d a3 b2 3d e2 26 d5 3d
       0.09908309 -0.0053918525 0.08722565 0.10407807
0003c0 a2 ac 71 3d 8f 00 0b 3d b5 ac 4a bd 56 35 22 3d
       0.059002526 0.03393608 -0.049481113 0.039601646
0003d0 ec bf 79 3d 70 9d 1d bd 2a 84 06 bc e9 2b 4c 3d
       0.060974047 -0.038480222 -0.008210221 0.049846563
0003e0 e5 20 85 3d f9 7d 42 3d 9a ed 2b 3d 22 07 1d 3d
       0.06500415 0.047483418 0.04197464 0.03833688
0003f0 80 a2 ae bd c3 f1 02 3d 73 67 42 bd c9 8e 09 bd
       -0.08527088 0.031968843 -0.047461938 -0.033583436
