surrogate/run/train/routing/saves/train-test2/mulres/river/state_dict.pt (torch, 534351 bytes, 8 tensors)

pre_sequence.0.weight f4 [126, 34]
0	0xbd01c350	-0.031680405
1	0xbcfe7a9a	-0.03106432
2	0xbc683d7c	-0.014174815
3	0xbdd24eea	-0.10268958
4	0xbd3dacb7	-0.04630729
5	0xbd3beea7	-0.045881893
6	0x3e0ab914	0.13547164
7	0x3d9dc8d3	0.0770432
8	0xbe145565	-0.144857
9	0x3c6c6afe	0.014429806
10	0x3d7493fc	0.05971144
11	0xbdc700fe	-0.09716986
12	0xbd71b590	-0.059011042
13	0xbd8b31e3	-0.067966245
14	0x3dcadaca	0.09905012
15	0x3d89caff	0.067281716
16	0xbda84f50	-0.08218253
17	0x3d6fb968	0.058526427
18	0x3e6d0e44	0.23149973
19	0x3d676545	0.056493063
20	0x3df811bd	0.12112758
21	0xbe061e37	-0.13097464
22	0x3dbbe694	0.09174839
23	0xbb5bc0d2	-0.0033531678
24	0x3dab81cc	0.08374366
25	0xbd974176	-0.073855326
26	0x3e120240	0.14258671
27	0x3ea29519	0.31754377
28	0xbdebea08	-0.11519247
29	0x3da70e8f	0.08157074
30	0x3d0e6ce7	0.034771826
31	0x3d02804d	0.03186064
32	0x3e63de8e	0.22252867
33	0x3c426b2a	0.01186637
34	0xbda93fea	-0.08264144
35	0x3ddc6a35	0.10762445
36	0x3d6e76d0	0.058218777
37	0xbe2df000	-0.16986084
38	0xbd7e9707	-0.06215575
39	0xbe04aafd	-0.12955852
40	0xbcee991b	-0.02912574
41	0xbd110d27	-0.035412934
42	0x3daeba7d	0.085316636
43	0xbd05290f	-0.03250986
44	0xbddba3ed	-0.10724626
45	0xbd18f048	-0.037338525
46	0x3cae3e4b	0.021269938
47	0xbcb865a8	-0.022509411
48	0xbc057582	-0.008145692
49	0xbd56bb8e	-0.05242496
50	0x3d54c774	0.051948026
51	0x3d90d2d3	0.070714615
52	0x3e6039e6	0.21897087
53	0xbcf1776a	-0.029475886
54	0xbd7e0c2c	-0.062023327
55	0xbda8af49	-0.08236558
56	0xbd5d75bd	-0.054067362
57	0x3dc238ff	0.094835274
58	0xbc29debe	-0.010368047
59	0x3cbcf79c	0.023067288
60	0x3e931be7	0.28732225
61	0x3d742f53	0.059615444
62	0xbdd1810f	-0.10229694
63	0xbe4db526	-0.20088634
64	0xbc8948d8	-0.016758367
65	0x3ef2ee30	0.47447348
66	0xbc990534	-0.018679239
67	0xbd453e7f	-0.048155304
68	0xbc6e31df	-0.014538257
69	0x3cd169af	0.02556309
70	0x3c05c80d	0.008165372
71	0x3dad5409	0.08463294
72	0xbdada2a1	-0.084782846
73	0xbcf6a003	-0.030105596
74	0x3e0ad85e	0.135591
75	0xbd7fef40	-0.062484026
76	0x3d4df098	0.050278276
77	0xbca3aab4	-0.019978859
78	0xbe0f48d6	-0.13992628
79	0x3d7e4f82	0.062087543
80	0xbc2a211a	-0.010383869
81	0x3daf5894	0.08561817
82	0xbdf12ec4	-0.11776498
83	0x3e0a78a0	0.13522577
84	0xbd85c519	-0.06531734
85	0xbd4bc44c	-0.04974775
86	0x3e3c6b06	0.18400201
87	0x3dda7128	0.10666114
88	0xbe18cd42	-0.1492205
89	0x3d0aabc2	0.033855207
90	0x3cb638f4	0.022243954
91	0x3d84cd9a	0.06484528
92	0xbce50078	-0.027954325
93	0xbd6bfade	-0.057612292
94	0xbe39495a	-0.18094388
95	0xbe566bf1	-0.20939614
96	0xbdde7884	-0.1086283
97	0xbe254f90	-0.16143632
98	0xbd9bb05f	-0.076019995
99	0xbe95fdaf	-0.29295108
100	0x3d720f6f	0.05909675
101	0xbd54d098	-0.051956743
102	0xbde4f425	-0.111793794
103	0xbce3495d	-0.027744943
104	0xbd642c9c	-0.055706605
105	0x3d8d5411	0.069008
106	0xbde3839b	-0.11109086
107	0x3df0c7a5	0.11756829
108	0x3c801a63	0.015637582
109	0x3d63ae18	0.05558595
110	0xbc99db36	-0.018781286
111	0x3dfbf376	0.12302296
112	0x3d8bb2f8	0.06821245
113	0x3d98bb86	0.07457642
114	0xbdf9e1d6	-0.12201278
115	0x3de18373	0.110114
116	0x3daf6f3e	0.0856614
117	0x3c7ab655	0.01530226
118	0x3dcabbef	0.09899127
119	0xbe0b7b16	-0.13621172
120	0xbd9b5b90	-0.075858235
121	0xbe2dee4c	-0.16985434
122	0xbb51edae	-0.0032032537
123	0x3c589740	0.013219655
124	0x3db48b0b	0.08815583
125	0x3da3bead	0.07995353
126	0x3d0e5891	0.034752432
127	0x3da16a6e	0.07881628
128	0x3e50a5ca	0.20375744
129	0xbddf659d	-0.10908053
130	0xbdc94a9d	-0.098286845
131	0x3dd1b65e	0.10239862
132	0xbdcbe93d	-0.09956596
133	0x3e1c8bc6	0.15287694
134	0xbe127a90	-0.14304566
135	0xbd7cdcfe	-0.061734192
136	0x3bcbc169	0.0062181246
137	0x3dbb8d7c	0.091578454
138	0x3ca653e0	0.020303667
139	0x3e845b51	0.2585092
140	0x3c0d2d41	0.008616746
141	0xbcbecca8	-0.023290947
142	0x3cf8eb1d	0.030385548
143	0xbd7ef5ce	-0.062246136
144	0x3d7cb980	0.061700344
145	0xbdf8c97b	-0.12147804
146	0x3de9aaa8	0.11409503
147	0xbca04864	-0.019565769
148	0xbd94eccd	-0.07271729
149	0x3dbec282	0.09314443
150	0xbd8a15c5	-0.067424335
151	0xbd202080	-0.039093494
152	0x3dc7745c	0.09738991
153	0x3d7acd0d	0.061230708
154	0x3e13f9cc	0.14450759
155	0xbdd30f4d	-0.10305653
156	0x3da8603d	0.08221481
157	0xbc88f439	-0.016718017
158	0xbd136532	-0.03598518
159	0x39539ab6	0.00020180162
160	0xbe205a69	-0.15659489
161	0x3acd66e7	0.0015670926
162	0x3db4cdf0	0.08828342
163	0xbdbed738	-0.093183935
164	0x3ea32a5d	0.31868258
165	0xbce9f89d	-0.02856093
166	0xbb111dd6	-0.0022143028
167	0xbaba62aa	-0.0014220078
168	0xbe31e14a	-0.17371097
169	0x3e4e39b9	0.20139207
170	0xbd96c152	-0.07361092
171	0xbdce19da	-0.100635245
172	0xbda264a6	-0.079293534
173	0xbbbf7943	-0.005843313
174	0x3d32525f	0.043535586
175	0xbd9cac60	-0.076500654
176	0xbbc29686	-0.005938354
177	0x3cea23e0	0.02858156
178	0xbdec095e	-0.11525224
179	0x3dcc4e35	0.09975854
180	0x3dc28542	0.09498073
181	0x3de944fd	0.113901116
182	0xbe4233c9	-0.18965067
183	0x3e0e0c67	0.13871919
184	0x3e013bcc	0.12620467
185	0xbd2dd6c9	-0.042441163
186	0xbda4460c	-0.08021173
187	0xbd9767a2	-0.07392813
188	0x3e3840a0	0.17993402
189	0xbdcc0540	-0.09961939
190	0x3c97c1ff	0.018525122
191	0xbd95119d	-0.0727875
192	0x3e10e255	0.14148839
193	0xbe1542b9	-0.14576234
194	0xbdac20e7	-0.08404713
195	0x3d2e69d5	0.042581398
196	0x3e7f1763	0.24911265
197	0x3d510c32	0.05103702
198	0xbe319b1b	-0.17344324
199	0x3ca78af6	0.020452004
200	0x3d2c8b23	0.04212488
201	0x3ee804a3	0.45316038
202	0x3e0d88bd	0.13821693
203	0xbe3ed780	-0.18636894
204	0x3d02d54b	0.031941693
205	0xbd3e824d	-0.046510983
206	0xbcd00be0	-0.025396287
207	0x3de6e037	0.11273234
208	0x3d53e23f	0.051729437
209	0xbd3acfdc	-0.045608386
210	0x3d88d6c0	0.06681585
211	0xbd95e71b	-0.073194705
212	0xbda93a21	-0.0826304
213	0xbd88bf50	-0.06677115
214	0x3d4d5a4d	0.050134946
215	0x3d9cb038	0.076507986
216	0xbc28e890	-0.0103093535
217	0xbdd8618f	-0.10565483
218	0x3d4432db	0.047900062
219	0x3d81c6d1	0.06336749
220	0xbd3ba6f2	-0.04581351
221	0xbcac7eee	-0.021056619
222	0x3e064a0e	0.13114187
223	0xbd481224	-0.048845425
224	0x3d58b9e4	0.052911654
225	0x3d1cb551	0.038258854
226	0x3dbc1932	0.09184493
227	0x3e38b475	0.18037589
228	0x3e266cda	0.16252461
229	0xbe20d3d8	-0.15705812
230	0x3c580a34	0.013186026
231	0xbd53afe7	-0.051681425
232	0x3e4daf11	0.20086314
233	0x3e398949	0.18118776
234	0xbcafc94e	-0.021458294
235	0x3e22079d	0.15823217
236	0xbd89d8d9	-0.067308135
237	0x3d562234	0.052278712
238	0xbc240776	-0.010011544
239	0x3b10e9ad	0.0022111938
240	0x3e192739	0.14956369
241	0xbde23643	-0.11045506
242	0xbe336eb3	-0.17522697
243	0x3d4cc1c5	0.04998948
244	0xbd1be0e9	-0.038056288
245	0x3cad0fd6	0.021125715
246	0x3d1eeeab	0.03880183
247	0x3d66a0ea	0.056305803
248	0xbd8a44f3	-0.06751432
249	0x3e080d9c	0.13286442
250	0xbe2c7bb0	-0.16844058
251	0x3e047835	0.1293648
252	0xbd8bc95f	-0.06825518
253	0xba053c5c	-0.00050825416
254	0xbd689d30	-0.05679053
255	0x3d6ad1de	0.05732905

pre_sequence.0.bias f4 [126]
0	0x3e04a938	0.12955177
1	0x3df64555	0.12024943
2	0x3d32d1f4	0.04365726
3	0xbdc174f2	-0.09446134
4	0xbca9186d	-0.02064153
5	0x3de5d64a	0.11222513
6	0xbe3408ef	-0.17581533
7	0x3e30afc7	0.17254554
8	0x3e73f747	0.23824798
9	0xbb9b0d2d	-0.0047317953
10	0xbc2ca934	-0.010538388
11	0x3e47994e	0.19492075
12	0x3e09fd43	0.13475518
13	0xba2d966f	-0.00066218426
14	0xbb1584d3	-0.0022814765
15	0x3c8ec209	0.017426508
16	0xbdd033b6	-0.10166113
17	0xbe441d8e	-0.19151899
18	0x3dda2b4a	0.10652788
19	0x3e080546	0.13283262
20	0xbd913284	-0.07089713
21	0x3bebc32d	0.0071948976
22	0x3cafdccd	0.02146759
23	0x3dbd752e	0.09250866
24	0x3c94bf58	0.018157646
25	0x3e506950	0.20352674
26	0xbd2d67cf	-0.042335328
27	0xbcb26736	-0.02177773
28	0xbe1c03db	-0.15235846
29	0x3d7b99be	0.061425917
30	0x3e1ecead	0.15508528
31	0x3a64e3f0	0.0008731475
32	0xbd92a278	-0.07159895
33	0xbda7604a	-0.081726626
34	0xbe2b8ecb	-0.1675369
35	0xbd152c83	-0.036419403
36	0xbc82e00e	-0.015975978
37	0xbd39617c	-0.045258984
38	0xbdc93f55	-0.09826533
39	0xbc4443f2	-0.01197909
40	0x3da0f77d	0.07859705
41	0x3c397804	0.011320118
42	0x3d9ae7f3	0.07563772
43	0xbcf50f2f	-0.029914467
44	0xbdbef0c1	-0.09323264
45	0xbc99876e	-0.018741336
46	0xbdc9ff15	-0.09863106
47	0xbd7eef88	-0.062240154
48	0x3cd9d955	0.02659289
49	0xbdf190a4	-0.11795166
50	0x3dd4ddbd	0.10393856
51	0x3d314433	0.04327793
52	0xbe2f852a	-0.17140642
53	0xbd0db24b	-0.03459386
54	0xbdd325e5	-0.10309962
55	0xbd545e03	-0.05184747
56	0xbe54a823	-0.20767264
57	0x3d72ccf2	0.059277482
58	0xbe4e266e	-0.20131847
59	0xbe06545d	-0.1311812
60	0xbe125d56	-0.14293417
61	0xbdd263df	-0.10272955
62	0xbe403063	-0.18768458
63	0x3d26fbd9	0.040767524
64	0x3d91c220	0.071171045
65	0x3d1a51a7	0.037675526
66	0x3e286b09	0.1644708
67	0xbb374f47	-0.0027970837
68	0x3d9e7de0	0.077388525
69	0xbd6d7f7b	-0.057982903
70	0x3db27e43	0.08715489
71	0xbc949542	-0.018137578
72	0x3d5bc8c3	0.05365826
73	0x3e2eab4f	0.17057537
74	0x3d640066	0.055664442
75	0xbdcf955e	-0.101359114
76	0xbd6d03fc	-0.057865128
77	0xbccac11d	-0.024750287
78	0x3df9f57b	0.12205025
79	0xbdb239a1	-0.08702398
80	0x3a61e96c	0.00086178514
81	0xbd932532	-0.07184829
82	0xbcd93761	-0.026515665
83	0xbe49a9db	-0.19693701
84	0xbe4474be	-0.19185159
85	0xbe113852	-0.1418164
86	0xbd3466ed	-0.04404347
87	0xbdd493cd	-0.10379753
88	0xbe2e019e	-0.16992804
89	0x3e1f053d	0.15529342
90	0xbe1f188a	-0.15536705
91	0x3dc093e1	0.09403206
92	0x3d91ebff	0.07125091
93	0xbe17aeb9	-0.14812745
94	0xbdf0d200	-0.11758804
95	0x3c864a15	0.016392747
96	0xbe044bb4	-0.12919503
97	0xbcdd133d	-0.026986713
98	0x3bcacf2e	0.0061892485
99	0xbd640282	-0.055666454
100	0xbdbcd27f	-0.092198364
101	0xbe286989	-0.16446508
102	0xbe19464b	-0.14968221
103	0xbe4ab24c	-0.19794577
104	0xbe05b126	-0.13055858
105	0xbe032553	-0.12807207
106	0xbe0f7825	-0.14010675
107	0x3e2660ee	0.16247913
108	0xbe271687	-0.16317187
109	0xbd827c90	-0.06371415
110	0x3c2bd458	0.010487638
111	0x3d2c1415	0.04201134
112	0xbdd34ec1	-0.103177555
113	0xbd2e3059	-0.042526577
114	0xbded2f33	-0.11581268
115	0xbd96ca1e	-0.073627695
116	0x3d8ac9f1	0.067767985
117	0x3db1c1a8	0.08679515
118	0x3d23b1fa	0.039964654
119	0x3da4102c	0.08010897
120	0x3d78a0dd	0.060700286
121	0x3d88d8b3	0.06681957
122	0x3c59fe33	0.013305235
123	0xbd530ea4	-0.051527634
124	0x3db02457	0.08600681
125	0xbcbccb4e	-0.023046162

post_sequence.1.weight f4 [4, 126]
0	0xbd27494c	-0.040841386
1	0xbb0498d7	-0.0020232701
2	0x3d433049	0.04765347
3	0x3cef2c7a	0.029196013
4	0xbd72efd5	-0.059310753
5	0x3d3c7475	0.0460095
6	0xbcc5f4e3	-0.024164623
7	0xbd4ab14a	-0.049485482
8	0x3c477f37	0.0121763265
9	0xbc0fa754	-0.0087679215
10	0xbbd8dcd5	-0.006618122
11	0xbd2bd394	-0.041949823
12	0x3d13fdd7	0.036130752
13	0x3c8f7b78	0.01751493
14	0xbcbeb32d	-0.023278797
15	0xbd37cd56	-0.044873558
16	0x3d2f438d	0.04278903
17	0xbc7ddd15	-0.015494605
18	0x3e264834	0.16238481
19	0x3dc7ba22	0.09752299
20	0xbd54bca9	-0.051937733
21	0x3d3830c6	0.04496839
22	0x3d8f48e3	0.06996324
23	0x3b9ed3c3	0.0048470213
24	0x3c83f6fd	0.016108984
25	0xbd082205	-0.03323557
26	0x3e08b378	0.13349712
27	0x3d84b625	0.06480054
28	0xbccd4f06	-0.025062095
29	0x3d9f2fdf	0.077728026
30	0x3d250c7a	0.0402951
31	0xbeca97d7	-0.3956897
32	0x3c0facb9	0.008769208
33	0xbb5864a6	-0.0033018976
34	0xbd2d6680	-0.04233408
35	0x3d4c2605	0.049840946
36	0x3d01e1e2	0.03170956
37	0x3d5431ff	0.051805492
38	0xbc87f55e	-0.016596492
39	0x3d670d85	0.056409378
40	0x3d874147	0.066042475
41	0xbd9ee0a3	-0.0775769
42	0x3e38e512	0.18056133
43	0xbc53d980	-0.012930274
44	0x3d248292	0.040163584
45	0x3cf6c484	0.030123003
46	0x3b07f822	0.0020747264
47	0x3c246da6	0.010035908
48	0x3d33f2f0	0.043932855
49	0xbd67214f	-0.05642825
50	0x3d0fdd71	0.035123292
51	0x3d614011	0.05499274
52	0xbce4cded	-0.027930224
53	0xbc66cce6	-0.0140869375
54	0xbd0c22ea	-0.034212984
55	0x3d74d0e0	0.05976951
56	0x3d48dcb1	0.049038593
57	0xbcaf4ac0	-0.021397948
58	0x3d073ae0	0.033015132
59	0xbd46192e	-0.048363857
60	0x3e3c460d	0.18386097
61	0xbdd7606b	-0.10516437
62	0xbccb08f8	-0.02478455
63	0xbd853412	-0.06504072
64	0xbb447f90	-0.002998326
65	0xbe6cfd1a	-0.23143426
66	0xbd8a637e	-0.06757258
67	0xbe1316ff	-0.14364241
68	0x3d399e8d	0.04531722
69	0xbe206675	-0.15664084
70	0xbd18e7a9	-0.037330303
71	0x3d733b82	0.059382923
72	0xbca04800	-0.019565582
73	0xbc6d475f	-0.014482348
74	0x3c19fbcf	0.009398415
75	0x3c834631	0.01602468
76	0xbd1c6f53	-0.038192105
77	0xbd3740a8	-0.044739395
78	0xbd022836	-0.03177663
79	0xbe9b96c5	-0.30388466
80	0x3c7b79d7	0.015348873
81	0x3d7d2096	0.061798654
82	0xbc95780a	-0.018245716
83	0xbd0abed0	-0.03387338
84	0x3c1c081d	0.009523419
85	0x3de6fcbb	0.11278673
86	0x3d146086	0.036224864
87	0x3cd794fa	0.026316155
88	0xbd2cc54d	-0.04218035
89	0xbda6f268	-0.08151704
90	0xbdbb82cd	-0.09155808
91	0xbe0650f0	-0.13116813
92	0xbd6daec1	-0.058027986
93	0x3d6ffd17	0.058590975
94	0xbd61cfaa	-0.055129685
95	0x3b0c93b4	0.0021450343
96	0x3dd30bef	0.103050105
97	0x3ce73cde	0.028227266
98	0xbc0de68e	-0.008660926
99	0xbd2a9261	-0.041643504
100	0x3d0efefd	0.034911145
101	0x3d4923f5	0.049106557
102	0xbbc5fd66	-0.0060421703
103	0xbd033fa9	-0.032043133
104	0xbd01d7d1	-0.03169996
105	0xbd457324	-0.04820551
106	0xbda3f8b8	-0.08006424
107	0x3bdef2ec	0.006803861
108	0x399cd7f0	0.00029915525
109	0xbb7050c7	-0.003666924
110	0x3cd6376b	0.026149472
111	0xbd5e99fb	-0.054346066
112	0xbc1bc88d	-0.009508264
113	0xbd2d56b6	-0.042319022
114	0xbd08dd68	-0.033414274
115	0xbca24f1b	-0.019813111
116	0x3cb4b7dc	0.022060327
117	0xbdf1415b	-0.11780044
118	0x3c86afaa	0.016441185
119	0xbba99214	-0.0051748846
120	0x3dc1d22d	0.09463916
121	0xbd016246	-0.03158786
122	0xbdb25adf	-0.087087385
123	0xbd2548b5	-0.040352542
124	0xbdb53e0f	-0.08849727
125	0xbbbbedc2	-0.00573513
126	0xbd191d36	-0.037381373
127	0x3cd6c651	0.026217612
128	0x3d570962	0.052499183
129	0x3df5be8a	0.11999233
130	0xbd3e5d6b	-0.04647581
131	0x3cf5a406	0.029985439
132	0xbc9cf0e9	-0.019157844
133	0xbca5a486	-0.020220052
134	0x3bd85876	0.0066023422
135	0x3bbd9729	0.005785842
136	0x3c834300	0.016023159
137	0xbd973a76	-0.073841974
138	0x3d291051	0.041275326
139	0xbd09dd82	-0.033658512
140	0xbd2e4251	-0.042543713
141	0xbd3877c9	-0.04503611
142	0x3d57758c	0.052602336
143	0xbd2a61f0	-0.041597307
144	0x3e1acc76	0.15117058
145	0x3d124f24	0.035720006
146	0xbd2638e5	-0.040581603
147	0x3d975a67	0.0739029
148	0x3d5b488a	0.053535976
149	0x3b82f555	0.003996531
150	0x3d811794	0.06303325
151	0xbce8751d	-0.028376156
152	0x3e06ae8c	0.13152522
153	0x3d1bf055	0.038070995
154	0xbd01efd0	-0.031722844
155	0x3d66fbb9	0.056392405
156	0x3d15077a	0.036384083
157	0xbe71ce74	-0.23613912
158	0x3abb3e4e	0.0014285536
159	0x3ca9647b	0.020677796
160	0xbd7fae24	-0.062421933
161	0x3d93a112	0.07208456
162	0x3caf98c3	0.021435147
163	0x3ccc020f	0.024903325
164	0xbbe0c39b	-0.0068592555
165	0x3d1a094c	0.037606522
166	0x3db10c2d	0.086449005
167	0xbdb54f21	-0.08852983
168	0x3dfd57e3	0.12370279
169	0xbc16c72b	-0.009202759
170	0x3cc748de	0.024326738
171	0x3d744d54	0.05964406
172	0x3d52425d	0.05133282
173	0x3bc9a05e	0.0061531505
174	0x3d2c5ebf	0.042082544
175	0xbcf67144	-0.030083306
176	0xbd83474b	-0.064100824
177	0x3cec1e1e	0.028822955
178	0xbcc060d1	-0.023483666
179	0xbb490f81	-0.0030679407
180	0x3d4b71f2	0.049669214
181	0x3de12c76	0.109948084
182	0x3e23b8e1	0.15988494
183	0x3d88f8fd	0.06688116
184	0x3d37013e	0.04467892
185	0xbd380f63	-0.04493655
186	0x3d92c84f	0.07167112
187	0xbda9e27f	-0.08295154
188	0xbc1bf832	-0.009519624
189	0xbd895b69	-0.06706888
190	0xbd0ab1d3	-0.033860993
191	0xbe4e15ae	-0.20125458
192	0xbd2ed66f	-0.04268497
193	0xbe299147	-0.16559325
194	0x3cd74f1c	0.02628284
195	0xbe448dbf	-0.19194697
196	0xbcafcb9e	-0.021459397
197	0x3d0cccdd	0.03437506
198	0xbcd8f75c	-0.026485138
199	0xbc2156a1	-0.009847314
200	0x3c6869f1	0.014185415
201	0x3ca51225	0.020150254
202	0xbd3cdf8b	-0.046111625
203	0xbc171d83	-0.009223345
204	0xbd445314	-0.047930792
205	0xbe46fb9b	-0.19431917
206	0x3ca583ad	0.02020439
207	0x3d890494	0.06690326
208	0x3de7072e	0.11280666
209	0xbd1eff68	-0.038817793
210	0x3c1fafd3	0.00974651
211	0x3c87eaee	0.016591515
212	0x3d3f5ef6	0.04672142
213	0x3ccabfef	0.024749724
214	0xbd241756	-0.040061317
215	0x3d614abf	0.055002924
216	0xbd67cf37	-0.0565941
217	0xbdc227ec	-0.09480271
218	0xbd87f2d8	-0.06638116
219	0x3d34b8e6	0.044121645
220	0x3ce1b646	0.027552735
221	0x3d388b45	0.045054693
222	0x3df3b7af	0.11900269
223	0x3d4fc05a	0.05072055
224	0x3b4008e6	0.002930218
225	0xbcc2d513	-0.023783242
226	0x3c230ef1	0.009952293
227	0x3ce249e9	0.027623134
228	0xbb9dda75	-0.004817302
229	0x3cea3101	0.02858782
230	0x3c371eaa	0.0111767445
231	0xbcdeebae	-0.02721199
232	0xbd0b2691	-0.033972327
233	0x3c1ebde5	0.009688829
234	0xbccf5a99	-0.025311755
235	0x3b22456e	0.0024760622
236	0x3cac13eb	0.021005591
237	0xbd8e0fe8	-0.069366276
238	0xbc47e9a1	-0.012201698
239	0xbde9121c	-0.11380407
240	0xbcc259dd	-0.02372449
241	0xbcd56b6f	-0.026052205
242	0x3c27aa99	0.010233545
243	0xbdb68a3b	-0.08913084
244	0x3c528d29	0.012851038
245	0xbcdcacfe	-0.026937958
246	0x3df720d3	0.120668076
247	0xb9dc6420	-0.0004203627
248	0xbd36a814	-0.044593886
249	0xbce00eb1	-0.027350755
250	0xbdcc2888	-0.09968668
251	0xbb6c1079	-0.003602056
252	0xbd12982b	-0.03578965
253	0x3d219c0f	0.03945547
254	0x3d1fd2cb	0.039019387
255	0x3d571d4e	0.05251818

post_sequence.1.bias f4 [4]
0	0xbc8b9c0d	-0.017042184
1	0xbccb6eb7	-0.024833066
2	0xbcb84814	-0.022495307
3	0xbc9d8805	-0.019229898

lstm.weight_ih_l0 f4 [504, 126]
0	0x3d9e6efb	0.077360116
1	0xbdd94cf4	-0.10610381
2	0x3e05cd33	0.13066559
3	0x3dbb3e6c	0.091427654
4	0x3d5f5b66	0.054530524
5	0xbd4f6ddd	-0.050641883
6	0x3d93af9c	0.07211229
7	0xbdd7177f	-0.105025284
8	0x3d2ec0e4	0.042664424
9	0x3e160826	0.14651546
10	0xbd908a45	-0.07057623
11	0x3db1054f	0.08643591
12	0xbe137ed1	-0.14403845
13	0x3d4b7eee	0.049681596
14	0x3dc6dc25	0.09709958
15	0x3e2bb989	0.16769995
16	0xbd51e000	-0.051239014
17	0x3d9843af	0.074347846
18	0xbda283d7	-0.07935303
19	0x3c195039	0.0093575055
20	0xbda4a229	-0.08038742
21	0x3db439df	0.088001005
22	0x3d57a006	0.052642845
23	0xbe085228	-0.1331259
24	0x3da9044a	0.08252771
25	0x3b7c8c28	0.0038535688
26	0xbc1c92e4	-0.009556506
27	0xbdc66913	-0.0968801
28	0x3d0999e0	0.033594012
29	0x3c0c6263	0.008568379
30	0xbe2beeb2	-0.16790274
31	0xbe0f5a3f	-0.1399927
32	0x3e8ad45f	0.2711515
33	0x3d842326	0.064520165
34	0x3e0b3029	0.1359259
35	0x3d8bcbcc	0.068259805
36	0x3df78339	0.120855756
37	0xbddef5e9	-0.108867474
38	0xbd438d18	-0.04774198
39	0x3e0306a5	0.12795503
40	0xbce275c0	-0.027644038
41	0x3dc89465	0.09793929
42	0x3d7e2d12	0.0620547
43	0xbd98c529	-0.0745948
44	0x3d7a96c0	0.061178923
45	0xbda55de4	-0.08074549
46	0x3d9726e6	0.07380466
47	0xbdc2b459	-0.09507055
48	0x3e2631f9	0.1623
49	0x3e502de2	0.20330003
50	0xbc70c080	-0.014694333
51	0xbd4e5f3a	-0.050383784
52	0x3d3c0e50	0.045912087
53	0xbd1a5442	-0.03767801
54	0x3d16c9f2	0.036813684
55	0x3e485c67	0.19566499
56	0x3de5106b	0.11184772
57	0xbd026b9c	-0.031840906
58	0x3e27c543	0.16383843
59	0x3d98d78b	0.074629866
60	0xbb6fd328	-0.0036594365
61	0x3d06fcf0	0.032956064
62	0x3e36d557	0.1785482
63	0x3e2b18f0	0.16708732
64	0xbde3234c	-0.11090717
65	0x3ca75c9f	0.020429907
66	0xbda4b6e3	-0.080426954
67	0xbe0f97ba	-0.14022723
68	0x3d54d61b	0.051962
69	0x3bc2e738	0.0059479736
70	0x3d0ef57a	0.034902073
71	0xbe28810e	-0.1645548
72	0x3d05fccf	0.0327118
73	0xbd1f3604	-0.038869873
74	0x3dd41c95	0.10357014
75	0x3d294545	0.041325826
76	0x3c8d8456	0.017275017
77	0xbd0a266e	-0.033728056
78	0xbe09df2b	-0.13464038
79	0xbdfd88c1	-0.12379599
80	0x3dac8cf9	0.08425326
81	0xbdf68d73	-0.12038698
82	0x3b5ffa3b	0.0034176249
83	0x3d095e58	0.03353724
84	0x3de8080d	0.113296606
85	0x3d6ca43e	0.05777382
86	0x3d25a4dd	0.04044043
87	0xbd33a4e6	-0.04385843
88	0x3975c821	0.00023439575
89	0x3bfabe07	0.0076520476
90	0x3d145da7	0.036222126
91	0x3b58fee7	0.0033110918
92	0x3dafc87d	0.08583162
93	0xbd5688dd	-0.052376617
94	0xbdf1b0b8	-0.118012846
95	0xbd4410f1	-0.04786772
96	0x3e8408fb	0.25788102
97	0xbe095275	-0.13410361
98	0xbc8b8fc9	-0.017036336
99	0x3db92ec8	0.09042126
100	0x3e043b99	0.1291336
101	0x3b001baf	0.001954775
102	0xbc10c811	-0.008836762
103	0x3d8c4611	0.068493016
104	0xbcfc2264	-0.030778117
105	0x3dfd5e86	0.123715445
106	0x3dddfbf6	0.10839073
107	0x3e0ae571	0.13564087
108	0x3d6e796f	0.058221277
109	0x3d039f79	0.032134507
110	0xbced1e38	-0.028945073
111	0x3d457106	0.04820349
112	0x3d9a35a1	0.0752976
113	0x3e0cde47	0.13756667
114	0x3e3c84dd	0.18410058
115	0xbb11450b	-0.0022166397
116	0xbdda0f4c	-0.10647449
117	0xbc8736ee	-0.016505685
118	0x3ce1b3a9	0.027551489
119	0x3db88bb2	0.0901102
120	0x3d89aeba	0.067227796
121	0x3dbc3df3	0.091915034
122	0x3e15648b	0.14589135
123	0x3cc70787	0.024295582
124	0x3d9094ca	0.07059629
125	0x3d949b48	0.0725618
126	0x3c632166	0.013862943
127	0x3c437840	0.011930525
128	0x3da71014	0.081573635
129	0xbca389b8	-0.01996313
130	0x3cc5d7b3	0.024150705
131	0x3d314570	0.04327911
132	0xbd4f2aee	-0.05057805
133	0xbda04ff8	-0.07827753
134	0xbe092df5	-0.13396437
135	0x3dadeebe	0.08492802
136	0x3d1d204f	0.03836089
137	0xbe73f01f	-0.23822068
138	0x3d0738b5	0.033013064
139	0xbcc65bfc	-0.024213783
140	0x3c6c26d0	0.0144135505
141	0x3e7911c9	0.24323191
142	0x3cf154f8	0.029459462
143	0xbca6514a	-0.020302434
144	0x3dc9d454	0.098549515
145	0x3e15c59e	0.14626166
146	0x3bd9230e	0.0066264933
147	0x3c8cfab3	0.017209386
148	0x3e041cf6	0.12901673
149	0xbe092e94	-0.13396674
150	0x3b7eb319	0.0038864075
151	0xbe878103	-0.26465616
152	0xbd189d11	-0.037259165
153	0xbdb9aaf5	-0.090658106
154	0x3c0ac6ba	0.008470232
155	0xbd83a423	-0.06427791
156	0x3ca88ec7	0.020575894
157	0xbe230dd9	-0.15923251
158	0x3ddcdcfc	0.10784337
159	0x3d371579	0.044698212
160	0xbd2f1d21	-0.04275239
161	0xbcb588cc	-0.022159956
162	0x3b7ecd21	0.003887959
163	0x3cf3a7ea	0.029743154
164	0xbd6e2af8	-0.058146447
165	0x3d7766db	0.060400825
166	0xbdc6bcec	-0.09704003
167	0x3d21f424	0.03953947
168	0x3d4ffeb3	0.05078001
169	0x3c522f0a	0.012828598
170	0xbd060b92	-0.032725878
171	0xbd17d274	-0.037065938
172	0x3ddad62c	0.10685381
173	0x3b04a6ec	0.0020241095
174	0x3d1df4a2	0.03856338
175	0xbd8449d5	-0.06459395
176	0xbd9cb588	-0.07651812
177	0x3cd772b6	0.026299816
178	0xbd29b934	-0.04143639
179	0x3d892fbb	0.06698557
180	0x3dc0fee5	0.09423617
181	0xbc630804	-0.013856892
182	0x3e2aab54	0.16666919
183	0xbe4976d4	-0.19674236
184	0x3df264d3	0.11835637
185	0x3d9ecb62	0.07753636
186	0x3d6516b0	0.05592984
187	0x3dad349e	0.084573016
188	0x3dfca29d	0.123357035
189	0xbe00c494	-0.12574989
190	0xbe5de611	-0.21669795
191	0xbc277aeb	-0.010222177
192	0xbcd143f8	-0.025545105
193	0xbd2ea423	-0.042637
194	0xbd5bc1d8	-0.05365166
195	0x3acdd168	0.0015702667
196	0xbd9be34a	-0.07611711
197	0xbe7d1045	-0.24713238
198	0x3deed5e4	0.1166189
199	0x3d8433c1	0.06455184
200	0x3d8369e5	0.06416682
201	0xbd997a06	-0.07493977
202	0x3d7072f3	0.058703374
203	0x3c74651d	0.014916685
204	0x3dbae0e8	0.09124929
205	0x3ca2103e	0.019783136
206	0x3c03f47f	0.008053898
207	0x3c87a15b	0.016556432
208	0x3d377bfb	0.04479597
209	0x3d3d0fa3	0.04615749
210	0x3cc2dccf	0.02378693
211	0x3ca2fa75	0.019894818
212	0x3d1704ea	0.03686992
213	0x3e0cc0fb	0.13745491
214	0xbd1daf78	-0.03849742
215	0x3d8827cb	0.06648215
216	0x3e627a15	0.22116883
217	0xbcaba68d	-0.020953441
218	0x3ac807b0	0.001526108
219	0xbc93fd75	-0.018065194
220	0x3df07d42	0.11742641
221	0x3c80aa68	0.015706256
222	0xbd85b0ee	-0.06527887
223	0x3ba581ec	0.0050508883
224	0x3cb53638	0.02212058
225	0x3d67b3fa	0.056568123
226	0x3d8c7a8b	0.06859311
227	0xbe09cdc3	-0.13457398
228	0x3d28c6ab	0.04120509
229	0xbc5a591d	-0.01332691
230	0xbe00912c	-0.12555379
231	0xbdbed70e	-0.09318362
232	0xbd6f01d7	-0.058351364
233	0xbd45e9a2	-0.048318513
234	0xbd7260b9	-0.059174273
235	0xbd2bf35e	-0.04198014
236	0x3df6dead	0.12054191
237	0xbd2b3176	-0.041795217
238	0x3dc323f3	0.09528341
239	0x3e4ba414	0.1988681
240	0x3d5a6502	0.053318985
241	0x3ccd0cf6	0.025030594
242	0x3ccbd5eb	0.024882277
243	0xbd57b3d3	-0.052661728
244	0x3ddcb1c4	0.107760936
245	0xbd8a8452	-0.06763519
246	0xbd73ed90	-0.05955273
247	0x3ddc144a	0.10746057
248	0xbd42304e	-0.04740935
249	0x3d73327e	0.059374325
250	0x3d7138b7	0.058891978
251	0xbd54afac	-0.051925346
252	0xbbe923d6	-0.0071148677
253	0xbe0f37aa	-0.13986078
254	0x3d400f01	0.04688931
255	0xbd84ce23	-0.0648463

lstm.weight_hh_l0 f4 [504, 126]
0	0x3d657bf7	0.056026425
1	0xbb5aff8e	-0.0033416483
2	0x3d343827	0.043998864
3	0xbe153c7c	-0.14573854
4	0xbdafda46	-0.08586554
5	0xbd49648b	-0.04916815
6	0x3dfcf56b	0.12351497
7	0x3da6aa9e	0.081380114
8	0x3d161930	0.036645114
9	0xbceae057	-0.028671427
10	0xbdba8e57	-0.091091804
11	0xbd22cd36	-0.039746486
12	0xbcd7961c	-0.026316695
13	0x3c8ae9c6	0.016957175
14	0xbd3b12d6	-0.04567226
15	0xbd9e32db	-0.07724544
16	0x3d635183	0.055497658
17	0xbdb4c317	-0.08826273
18	0xbd0c9d13	-0.034329485
19	0x3d6f9281	0.058489326
20	0xbd5f2bd8	-0.054485172
21	0xbd1443ef	-0.0361976
22	0x3b9bad2e	0.0047508692
23	0xbdc0b2cf	-0.09409105
24	0xbd2c7ed1	-0.04211313
25	0x3cc12790	0.023578435
26	0xbe1249cd	-0.14285965
27	0xbde60c8e	-0.11232863
28	0x3d351eca	0.044218816
29	0xbccc952e	-0.024973478
30	0xbd5e2d5e	-0.054242484
31	0x3da12f59	0.07870359
32	0x3cdc4ab3	0.026891088
33	0xbcc73454	-0.024316944
34	0x3cc77f2b	0.02435263
35	0xbde005d4	-0.109386116
36	0xbd72f215	-0.0593129
37	0xbd5d6408	-0.054050475
38	0xbcafacea	-0.021444757
39	0xbdb720f3	-0.089418314
40	0x3ce7efe0	0.028312624
41	0x3bc9f4ee	0.006163231
42	0x3d779a4a	0.060449876
43	0x3e20c61a	0.1570057
44	0x3cfdd58a	0.030985612
45	0xbe2f183d	-0.1709909
46	0x3c71340a	0.01472188
47	0x3ddaf343	0.1069093
48	0x3d70a82d	0.058754135
49	0x3c6ee783	0.014581564
50	0x3e0681ba	0.13135424
51	0xbd955e59	-0.07293386
52	0x3c8e8650	0.01739803
53	0x3d8d9f6d	0.06915174
54	0xba1240bc	-0.0005579104
55	0xbd899c03	-0.0671921
56	0xbd7080d3	-0.058716606
57	0xbdf52255	-0.11969439
58	0xbcd20b31	-0.025640102
59	0x3d61eb81	0.055156235
60	0x3dd0d9db	0.10197803
61	0xbd91d6b8	-0.071210325
62	0x3c8bb5e4	0.017054506
63	0xbba0e73f	-0.004910379
64	0x3d2709b4	0.040780738
65	0x3dd25d49	0.10271699
66	0xbd88d99b	-0.0668213
67	0x3d3b0bdf	0.045665618
68	0x3c067972	0.008207666
69	0xbca2747b	-0.019830933
70	0x3d0a0029	0.03369156
71	0x3d236aee	0.039896898
72	0x3dc976a0	0.09837079
73	0x3d582a35	0.052774627
74	0xbd4fc28b	-0.05072264
75	0xbe2c85a0	-0.16847849
76	0x3d9192fc	0.07108113
77	0xbc289960	-0.010290474
78	0xbde82d9c	-0.11336824
79	0x3cb5fffd	0.022216791
80	0xbe164e0f	-0.14678214
81	0xbd82d8a2	-0.06388976
82	0xbda1d882	-0.07902624
83	0x3d8accd6	0.067773506
84	0x3d871578	0.06595892
85	0x3c4627ef	0.012094482
86	0xbc1ffb61	-0.009764523
87	0xbccffad8	-0.025388166
88	0x3daab212	0.083347455
89	0x3dd16bd6	0.10225646
90	0x3ceb87da	0.028751303
91	0x3d5c46d7	0.053778496
92	0x3de3f060	0.11129832
93	0x3db64038	0.088989675
94	0xbca7ceed	-0.020484412
95	0xbd9db1e3	-0.07699945
96	0x3db11672	0.08646859
97	0xbd9ecea1	-0.07754255
98	0x3dd419fd	0.10356519
99	0x3d2141a0	0.039369226
100	0xbce2d712	-0.027690444
101	0xbd92fd91	-0.0717727
102	0x3d9ec99b	0.07753297
103	0xbd849505	-0.06473736
104	0xbc409f56	-0.011756739
105	0xbd8a4636	-0.06751673
106	0xbca80ba2	-0.02051336
107	0xbde34890	-0.110978246
108	0x3d79e303	0.06100751
109	0xbd98179c	-0.07426378
110	0x3df27d0d	0.11840258
111	0xbbf1c07b	-0.007377682
112	0x3d8fde81	0.07024861
113	0x3d8d4041	0.06897021
114	0x3bb18991	0.0054180105
115	0x3d0313db	0.032001358
116	0xbac7fc94	-0.0015257769
117	0xbda6cbb0	-0.08144319
118	0xbd99085a	-0.07472296
119	0xbcc5fefc	-0.024169438
120	0x3d1cb61d	0.038259614
121	0xba4753d8	-0.0007603741
122	0xbc5a7178	-0.013332717
123	0x3c998ef1	0.018744918
124	0xbd23ed80	-0.04002142
125	0xbd6b3825	-0.05742659
126	0x3de5cb01	0.112203605
127	0x3d25d3e8	0.040485293
128	0x3b15fbc3	0.0022885657
129	0x3c94a457	0.01814477
130	0xbc2bfb25	-0.010496889
131	0xbdbcb9a8	-0.092150986
132	0xbd920e4e	-0.07131635
133	0x3dd1331f	0.10214829
134	0x3d549f47	0.05190971
135	0xbdcc7f86	-0.09985261
136	0xbd491620	-0.049093366
137	0x3d0da1eb	0.034578245
138	0xbde48b5e	-0.11159395
139	0x3d36c86b	0.044624727
140	0x3ba0f262	0.004911707
141	0xbdc5ef8d	-0.09664831
142	0xbd8e594e	-0.06950627
143	0xbd61a544	-0.05508925
144	0xbe7b9431	-0.2456825
145	0xbd16ee2d	-0.036848236
146	0x3c7811e3	0.015140983
147	0x3d44cf39	0.048049185
148	0xbdb03720	-0.08604264
149	0xbe02e3fc	-0.12782282
150	0xbd8492b2	-0.064732924
151	0xbe1acf18	-0.15118062
152	0xbda0b4bd	-0.07846973
153	0xbe137585	-0.14400299
154	0xbdc77463	-0.09738996
155	0x3b69cdc7	0.0035675631
156	0xbe2408d1	-0.16018988
157	0x3dc5ba10	0.09654629
158	0x3c852690	0.01625374
159	0xbe01f0de	-0.1268954
160	0x3b263c8c	0.0025365679
161	0x3c8295ee	0.015940633
162	0x3c92c7e7	0.017917586
163	0xbd53ae69	-0.051680002
164	0x3d85e4ed	0.06537805
165	0xbe655541	-0.22395803
166	0xbdc49944	-0.095995456
167	0x3d078087	0.033081558
168	0xbd8c328b	-0.06845578
169	0xbd49bade	-0.049250476
170	0xbd5dc92b	-0.054146927
171	0x3d367abd	0.044550646
172	0xbd1535f9	-0.036428425
173	0x3d0e5be3	0.0347556
174	0x3ca86f08	0.020560756
175	0x3dc53e38	0.09631008
176	0xbcb01350	-0.021493584
177	0xbdc219dd	-0.09477589
178	0x3c8add26	0.016951155
179	0xbcac30a5	-0.02101929
180	0x3e0f326d	0.1398408
181	0xbc446b2f	-0.011988445
182	0xbe2aaa9d	-0.16666646
183	0x3d6149f0	0.055002153
184	0xbdcd7277	-0.10031598
185	0x3e18cb24	0.14921242
186	0xbd3dde37	-0.0463545
187	0xbdf7b5ee	-0.12095247
188	0x3c81ec15	0.015859643
189	0x3dfa04f4	0.12207976
190	0xbd7d1214	-0.06178482
191	0x3e1345ae	0.1438205
192	0x3e0c28f8	0.13687503
193	0x3dc8f5db	0.09812518
194	0xbe047e12	-0.12938717
195	0x3cae7e24	0.021300383
196	0xbcb4f521	-0.022089543
197	0xbd1c0123	-0.03808702
198	0xbb8d5798	-0.0043134205
199	0xbd9bd643	-0.076092266
200	0x3d52b46e	0.051441602
201	0xbd2511ce	-0.040300183
202	0xbdf8cb2a	-0.121481255
203	0xbd7f2f0f	-0.062300738
204	0x3dd1585e	0.10221933
205	0x3c9bf918	0.019039676
206	0xbb81ee6b	-0.003965189
207	0xbdaaebba	-0.083457425
208	0x3ca62598	0.020281598
209	0x3c8aa17d	0.016922707
210	0x3bbdaba6	0.0057882844
211	0xbd5a6e05	-0.05332758
212	0x3d5c6f91	0.053817336
213	0xbcb2b869	-0.02181645
214	0xb9acb3a3	-0.00032940236
215	0x3e12964e	0.14315149
216	0x3d1da15e	0.03848397
217	0x3c588531	0.013215349
218	0x3df264ff	0.1183567
219	0xbd919600	-0.07108688
220	0x3cbf3d0d	0.023344541
221	0x3d8b8fba	0.06814523
222	0xbbbfb524	-0.005850451
223	0xbbc3f9a5	-0.0059806877
224	0xbe15d713	-0.14632826
225	0x3c910df2	0.017706845
226	0x3d82a4ae	0.063790664
227	0xbdb4acff	-0.08822059
228	0xbb63e939	-0.0034776463
229	0xbe057bbe	-0.13035485
230	0x3da1b1ef	0.07895266
231	0xbd8929c3	-0.066974185
232	0xbbf870e9	-0.0075818193
233	0xbd43acdc	-0.047772273
234	0x3d730277	0.059328523
235	0xbcf596af	-0.029979078
236	0x3d8d522e	0.0690044
237	0x3d0448ca	0.03229598
238	0xbe18075e	-0.1484656
239	0xbb565ed3	-0.0032710328
240	0xbd950f07	-0.07278257
241	0x3c2291c0	0.009922445
242	0xbc9a2b80	-0.01881957
243	0xbc1b0bc9	-0.009463259
244	0x3e24085a	0.16018811
245	0xbc131915	-0.008978148
246	0xbd39c638	-0.04535505
247	0x3d232e1b	0.03983889
248	0x3d30692b	0.043069046
249	0x3e053830	0.13009715
250	0x3e2f98e8	0.17148173
251	0x3d0cba26	0.034357212
252	0x3d517f63	0.051146876
253	0xbddea387	-0.10871034
254	0x3d461902	0.048363693
255	0xbe1d443a	-0.15358058

lstm.bias_ih_l0 f4 [504]
0	0x3d41e9fb	0.04734228
1	0xbdc7568c	-0.097333044
2	0xbbaceed2	-0.005277493
3	0xbc971b31	-0.018445583
4	0xbd223d47	-0.03960922
5	0xbd9d96bf	-0.07694768
6	0x3bf734be	0.007544129
7	0x3c3885b6	0.011262348
8	0x3d504adb	0.050852638
9	0xbd0ee030	-0.03488177
10	0x3d5108cc	0.05103378
11	0xbbbaa076	-0.005695398
12	0xbc81fea5	-0.015868494
13	0xbc2e0a4f	-0.010622575
14	0x3c4f5936	0.012655547
15	0xbd8bcfad	-0.068267204
16	0x3c63fe76	0.013915649
17	0x3d5eb10c	0.054368064
18	0xbe3f90bb	-0.18707554
19	0xbd3a0046	-0.045410417
20	0xbd87657f	-0.06611156
21	0xbdd1972a	-0.102339104
22	0xbe3142d5	-0.1731065
23	0x3d0b58ff	0.03402042
24	0x3b86037b	0.0040897704
25	0x3c7c6fce	0.015407516
26	0xbbe19482	-0.0068841586
27	0xbce90303	-0.028443819
28	0xbc953cd0	-0.018217474
29	0x3e0c2b3a	0.13688365
30	0xbd32f39a	-0.043689348
31	0xbe432c6a	-0.19059911
32	0x3da30298	0.07959479
33	0xbdcf6ca2	-0.10128142
34	0xbc782ecd	-0.015147877
35	0x3dc64d22	0.09682681
36	0xbc559b06	-0.013037449
37	0x3d0735e7	0.03301039
38	0x3d1dc1a0	0.038514733
39	0xbc68e7d7	-0.014215431
40	0xbcb50a30	-0.022099584
41	0xbdb6d607	-0.08927541
42	0xbdacd7c7	-0.08439594
43	0x3d3ae6e2	0.045630343
44	0x3cf9fe59	0.03051679
45	0x3d8f689c	0.070023745
46	0x3c644511	0.013932482
47	0xbc2fdf5e	-0.010734407
48	0xbdf86886	-0.12129311
49	0xbd48d0ab	-0.049027126
50	0xbc85d80f	-0.016338376
51	0xbd4577ed	-0.048210073
52	0xbd127656	-0.035757385
53	0xbcbd0ab0	-0.023076385
54	0xbc1b59ec	-0.009481888
55	0xbe0316ba	-0.12801638
56	0x3be94a40	0.007119447
57	0x3daef0b7	0.085420065
58	0x3ccfbab9	0.025357591
59	0xbcdf7e11	-0.027281793
60	0xbde88fb0	-0.11355531
61	0xbd06d0fe	-0.032914154
62	0xbd970281	-0.073735245
63	0xbc9fc48a	-0.019502897
64	0x3c950dcd	0.018195057
65	0xbe2bb431	-0.16767956
66	0xbd82a1af	-0.06378495
67	0xbd317088	-0.04332021
68	0x3b02c0a6	0.0019951253
69	0xbba474bc	-0.0050187986
70	0xbd06c564	-0.03290309
71	0xbdcf91bb	-0.10135218
72	0xbd9829eb	-0.0742987
73	0xbe0976d0	-0.1342423
74	0x3d35864a	0.04431752
75	0xbdb56162	-0.08856465
76	0xbc401e62	-0.011725994
77	0xbe0df610	-0.13863397
78	0x3d00cc46	0.03144481
79	0xbe23ec5b	-0.16008131
80	0xbde19d06	-0.11016278
81	0xbdd9697e	-0.10615824
82	0xbd1a8b1b	-0.037730318
83	0xbdb26979	-0.087115236
84	0xbd5615b2	-0.052266784
85	0xbd88576d	-0.066573
86	0xbd4c16c5	-0.049826402
87	0x3d65f60a	0.056142844
88	0x3d8be5e3	0.06830957
89	0xbd40e91d	-0.047097314
90	0xbcec9857	-0.028881235
91	0x3b7948f3	0.0038037866
92	0x3c7f3eb9	0.015578919
93	0xbbc416d6	-0.0059841676
94	0xbb69b579	-0.0035661145
95	0xbd839f2e	-0.064268455
96	0xbdbb3cde	-0.09142469
97	0x3d8cfd81	0.068842895
98	0x3d113803	0.035453808
99	0x3cb160b8	0.021652564
100	0xbe29b3a2	-0.1657243
101	0x3dcf521c	0.10123083
102	0xbd95baf8	-0.07311052
103	0xbc42f877	-0.011900059
104	0xbd293ddb	-0.041318756
105	0xbd8c2797	-0.06843489
106	0xbe09fda0	-0.13475657
107	0xbac27445	-0.0014835676
108	0xbd1c8f70	-0.03822273
109	0x3d9a5897	0.075364284
110	0x3c8fe3ce	0.01756468
111	0xbdbe5626	-0.09293775
112	0xbe0d56e8	-0.13802683
113	0x3bca26e0	0.006169185
114	0xbd6eda61	-0.05831373
115	0x3dab305c	0.08358833
116	0xbc90d2db	-0.017678669
117	0x3ca30b9d	0.019902999
118	0xbd505e23	-0.050871026
119	0xbcaf7db3	-0.021422243
120	0xbcaa6265	-0.020798871
121	0x3d37842e	0.04480379
122	0xbd801677	-0.06254285
123	0x3d2a4cf9	0.041577313
124	0x3dba9f19	0.09112377
125	0x3cad6a25	0.021168778
126	0xba242f73	-0.0006263174
127	0xbd4dc673	-0.050238084
128	0x3c3aa5c7	0.011392063
129	0x3d9dc303	0.07703211
130	0x3c888386	0.016664278
131	0x3cfcc477	0.0308554
132	0x3daa9a63	0.08330228
133	0x3c73ef70	0.014888629
134	0x3d63f5ad	0.055654217
135	0x3d689528	0.05678287
136	0x3dea68cb	0.11445769
137	0xbc14f6c8	-0.00909204
138	0xbc8463d5	-0.016160885
139	0xbdea9dcd	-0.11455879
140	0xbd210515	-0.039311487
141	0xbc176383	-0.009240034
142	0xbcff97ca	-0.031200308
143	0xbd525c70	-0.051357687
144	0xbd34e7c6	-0.04416635
145	0xbd5222e2	-0.051302798
146	0x3dcbaa56	0.099445984
147	0x3d931153	0.07181039
148	0xbd70328f	-0.058641966
149	0x3d693711	0.05693728
150	0xbdd0bf12	-0.10192694
151	0x3df10427	0.1176837
152	0xbd24338e	-0.04008823
153	0xbddfb511	-0.109232076
154	0x3e007720	0.12545443
155	0xbd5ebe4f	-0.05438071
156	0xbd4cc685	-0.04999401
157	0xbdebadfe	-0.11507796
158	0x3c130d13	0.008975285
159	0x3d3a3880	0.04546404
160	0xbd2c7aac	-0.042109177
161	0x3d7720cc	0.060334012
162	0xbbc4c9f4	-0.00600552
163	0xbda1d370	-0.07901657
164	0xbe57f715	-0.21090348
165	0x3b8353dd	0.0040078
166	0xbd465a30	-0.048425853
167	0x3d6a6b10	0.05723101
168	0xbd644f17	-0.05573949
169	0xbd2c7868	-0.042107016
170	0xbd5574fd	-0.05211352
171	0xbde07245	-0.10959295
172	0x3deb6154	0.11493173
173	0x3bcd1325	0.0062583857
174	0x3d9c252c	0.076242775
175	0xbd8c8c4b	-0.06862696
176	0x3dd50d4e	0.10402928
177	0xbc7c522e	-0.015400453
178	0x3c6ce293	0.014458316
179	0x3d58267b	0.052771073
180	0x3da41d6e	0.08013426
181	0xbac2cccb	-0.0014862058
182	0xbda6d8dd	-0.08146832
183	0x3d522b87	0.051311042
184	0xbc965960	-0.018353164
185	0xbd6cbbd3	-0.05779631
186	0xbd0ed3fd	-0.034870137
187	0xbcf1093a	-0.029423345
188	0xbd315a01	-0.043298725
189	0x3d008523	0.03137697
190	0x3d44d7ba	0.048057295
191	0xbe3540bb	-0.17700474
192	0x3af50e93	0.001869636
193	0xbd5601aa	-0.05224768
194	0x3bb7b51c	0.0056063067
195	0xbdb3a0ff	-0.08770942
196	0xbc90e7a8	-0.017688587
197	0xbdcb067f	-0.099133484
198	0xbd4b7e08	-0.04968074
199	0x3d8f0045	0.06982473
200	0x3ddc96c1	0.107709415
201	0x3b0e440b	0.0021708037
202	0x3db7100d	0.08938608
203	0x3deb99fc	0.115039796
204	0x3db5929e	0.08865856
205	0xbe272124	-0.16321236
206	0xbdc34d18	-0.09536189
207	0x3d220bb4	0.039561942
208	0x3da5e1af	0.08099686
209	0xbdb06bc8	-0.08614308
210	0x3ba1b488	0.004934851
211	0xba86346e	-0.0010239014
212	0x3bd91e62	0.0066259364
213	0x3d13cffb	0.036087018
214	0xbccdb1e4	-0.025109239
215	0xbd26c2f8	-0.04071328
216	0x3bc447d4	0.005990008
217	0xbcd9d2a3	-0.026589697
218	0xbd75a7d3	-0.059974503
219	0xbd93d667	-0.072186284
220	0xbdf4fea0	-0.11962628
221	0x3c9a93df	0.018869339
222	0xbddc80df	-0.10766768
223	0x3dafa053	0.08575501
224	0x3dc7169b	0.097211085
225	0x3d7a7b59	0.06115279
226	0x3d045c94	0.032314852
227	0xbd387ed3	-0.045042824
228	0xbdfc30ab	-0.1231397
229	0x3c192aab	0.009348552
230	0x3da02c99	0.07821006
231	0xbccef946	-0.025265347
232	0xbdc02a04	-0.09383014
233	0x3d1cef5e	0.038314216
234	0xbbfa4599	-0.007637691
235	0x3e07c87a	0.1326007
236	0xbd3c520d	-0.045976687
237	0x3db48b66	0.08815651
238	0x3e242159	0.16028346
239	0x3c074377	0.008255831
240	0xbd41934b	-0.04725961
241	0xbdb539ef	-0.088489406
242	0xbdd1b1c2	-0.10238983
243	0xbd439c3a	-0.04775641
244	0x3e720d99	0.23638
245	0x3d035313	0.032061648
246	0x3d76b9dc	0.060235843
247	0xbd29a6a1	-0.041418675
248	0x3d314668	0.043280035
249	0x3da854d1	0.082193024
250	0x3c48813c	0.012237843
251	0x3d558a1c	0.052133664
252	0x3dc63861	0.09678722
253	0xbd7a618d	-0.061128188
254	0xbde357e3	-0.111007474
255	0xbd26e878	-0.040749043

lstm.bias_hh_l0 f4 [504]
0	0xba66cf03	-0.0008804651
1	0xbd303721	-0.043021325
2	0xbda2ca91	-0.07948793
3	0xbc90d787	-0.017680896
4	0xbd51e9b9	-0.051248286
5	0x3b9c0270	0.0047610328
6	0x3ca1464c	0.01968684
7	0x3b9aa947	0.0047198865
8	0x3d4219bd	0.047387827
9	0xbc552d10	-0.013011232
10	0x3d48c546	0.04901626
11	0x3bbc256b	0.0057417653
12	0x3d8de999	0.06929321
13	0xbe2f1724	-0.17098671
14	0x3d7bd5f8	0.061483353
15	0xbd271373	-0.040790033
16	0xbd0f7acf	-0.03502923
17	0x3c7ab7c6	0.015302604
18	0xbe0e829e	-0.13917014
19	0xbe0fa498	-0.14027631
20	0x3da63fe3	0.08117654
21	0x3c2af9fb	0.010435577
22	0xbdee8dc9	-0.11648137
23	0x3b3f8a28	0.0029226635
24	0x3cfc08a1	0.030765833
25	0xbd485900	-0.048913002
26	0xbdacacb3	-0.08431377
27	0x3ca6c892	0.020359311
28	0x3c6d7ee5	0.014495586
29	0x3cc09bf8	0.023511872
30	0x3c1a8439	0.009430938
31	0xbe218ead	-0.15777083
32	0xbd7c7bbf	-0.06164145
33	0xbd131aec	-0.035914347
34	0x3d726c28	0.059185177
35	0x3d7d1c32	0.061794467
36	0xbd5e522e	-0.05427759
37	0xbdbc63ff	-0.0919876
38	0xbd9887dd	-0.07447789
39	0xbdd27cf1	-0.10277737
40	0x3caa1695	0.020762721
41	0xbe14760e	-0.1449816
42	0xbd776179	-0.06039569
43	0x3b5ffa48	0.003417628
44	0xbccb3134	-0.024803735
45	0xbd4bad5b	-0.04972587
46	0xbd16e0f6	-0.036835633
47	0x3c41c401	0.011826516
48	0x3c201dfe	0.009772776
49	0xbddb8ac7	-0.10719829
50	0x3d5b9da4	0.053617135
51	0x3d3ae626	0.045629643
52	0xbcf727a1	-0.030170264
53	0xbd9b3dbe	-0.07580136
54	0xbb650c1e	-0.003494985
55	0x3a25d0c1	0.0006325357
56	0x3c3cc9c5	0.011522715
57	0xbafa8586	-0.0019113279
58	0xbd164774	-0.036689237
59	0xbda3a695	-0.079907574
60	0xbe0d1be1	-0.13780166
61	0xbe067874	-0.13131887
62	0x3d4f747e	0.050648205
63	0xbd1d1800	-0.038352966
64	0xbd6a9b2d	-0.057276893
65	0xbda1bbb9	-0.078971334
66	0xbd99e85f	-0.075150244
67	0xbd89d51e	-0.06730102
68	0x3c9f9102	0.019478325
69	0xbdb115fb	-0.086467706
70	0xbc702069	-0.014656165
71	0xbd81bcdd	-0.06334851
72	0x3ce221f2	0.027604077
73	0xbe104408	-0.14088452
74	0x3d5d185e	0.053978316
75	0xbdaf5805	-0.0856171
76	0xbd1e5186	-0.038651966
77	0xbd41604c	-0.047210976
78	0xbd7df7e2	-0.062003978
79	0xbc97f1fd	-0.018548006
80	0xbd43353b	-0.047658186
81	0xbdcc7c5a	-0.09984656
82	0xbcd27c66	-0.025694083
83	0xbcaef049	-0.021354811
84	0x3c8a918c	0.016915105
85	0x3b875c5a	0.004130882
86	0xbc839a04	-0.016064651
87	0x3ce1b736	0.027553182
88	0x3cfcf263	0.030877298
89	0xbdec3b6a	-0.1153477
90	0x3cff05c6	0.031130683
91	0xbd98cf68	-0.074614346
92	0xbbae7bee	-0.005324832
93	0xbcf38b5f	-0.029729543
94	0xbd0660ce	-0.032807164
95	0xbdd80e74	-0.10549632
96	0xbdfc376e	-0.1231526
97	0xbd3422d7	-0.04397854
98	0xbd1fc408	-0.03900531
99	0xbcd2b0f2	-0.02571914
100	0xbd1944e4	-0.037419215
101	0x3d917a8b	0.07103451
102	0x3b07bfe2	0.0020713736
103	0xbc46190b	-0.012090932
104	0xbdec8d3c	-0.11550376
105	0x3d3d1d9d	0.04617082
106	0xbddb80f6	-0.10717957
107	0x3d94aaee	0.07259165
108	0x3d00d2f3	0.031451177
109	0x3d45f8b5	0.04833289
110	0x3db96f30	0.090544105
111	0xbdaeb14b	-0.0852991
112	0xbe0e4fc3	-0.13897614
113	0x3d070c9a	0.032971002
114	0x3ce19e5b	0.02754133
115	0x3cb5dfd2	0.022201452
116	0xbd9c731d	-0.076391436
117	0xbc973870	-0.018459529
118	0x3d68f771	0.056876604
119	0xbcf0fb91	-0.029416831
120	0xbd0c8657	-0.034307804
121	0xbde016ae	-0.10941826
122	0xbd93647a	-0.07196899
123	0xbc0d8a20	-0.008638889
124	0xbcaa87cc	-0.020816706
125	0xbcc8b6a2	-0.024501149
126	0x3dd46d6a	0.103724316
127	0x3d735c89	0.05941442
128	0xbc349e38	-0.01102405
129	0x3da66860	0.08125377
130	0xbd6c67ff	-0.057716366
131	0x3dd34f07	0.10317808
132	0x3e21eac7	0.15812217
133	0x3c97d83e	0.01853573
134	0x3dca6953	0.0988337
135	0x3c887f0f	0.016662149
136	0x3de70c1c	0.112816066
137	0xbd5673de	-0.052356593
138	0x3d86680a	0.065628126
139	0x3bb18afe	0.0054181805
140	0xbcef78f5	-0.029232481
141	0x3cc7b3b8	0.024377689
142	0xbc2e489f	-0.010637431
143	0xbd3d77e1	-0.046256904
144	0xbdae3d19	-0.08507747
145	0xbc6c7300	-0.014431715
146	0xbc5bbeac	-0.013412159
147	0x3b3cd5f7	0.0028814056
148	0xbdae278c	-0.08503637
149	0xbcd673d2	-0.026178274
150	0xbd38f286	-0.045153163
151	0x3dc23756	0.09483211
152	0xbd7dd7e9	-0.061973486
153	0x3cc5df54	0.024154343
154	0x3e20c762	0.15701059
155	0xbd58d072	-0.052933164
156	0x3bfc5c47	0.00770143
157	0xbe12692d	-0.14297934
158	0xbceef054	-0.029167332
159	0x3d4403c5	0.047855157
160	0xbd02299d	-0.031777967
161	0xbd8a59ba	-0.06755395
162	0xbdb45bfc	-0.08806607
163	0xbe342334	-0.17591554
164	0xbe305422	-0.17219594
165	0xbcf52021	-0.029922547
166	0xbd384ce9	-0.044995222
167	0x3acb9a6b	0.0015533691
168	0x3d0d746c	0.034534857
169	0x3bf7c1e0	0.0075609535
170	0xbd4ed979	-0.050500367
171	0xbe26eee5	-0.16302069
172	0xbd05dd64	-0.032681838
173	0x3cd61837	0.026134593
174	0x3d49f0a5	0.049301762
175	0xbd8f4f13	-0.06997504
176	0x3dcab0d5	0.09897009
177	0xbdd07608	-0.10178763
178	0x3c2f7e8b	0.010711323
179	0xbb566c2a	-0.003271828
180	0x3d9977b6	0.07493536
181	0x3cb05536	0.021525007
182	0xbdcd52ec	-0.10025582
183	0x3acba0e8	0.0015535625
184	0x3d61fe7b	0.055174332
185	0x3c9cf9a8	0.019162014
186	0xbda045a2	-0.078257814
187	0xbd106ce3	-0.035260092
188	0xbd044425	-0.03229155
189	0xbde474bb	-0.11155077
190	0x3dc91021	0.098175295
191	0xbe12600b	-0.1429445
192	0xbae8718e	-0.0017734037
193	0xbcb5f948	-0.022213593
194	0xbdda23db	-0.1065137
195	0xbdcd4e4b	-0.10024699
196	0xbdfbd743	-0.12296917
197	0xbe0da0e6	-0.13830909
198	0x3ce3d958	0.027813599
199	0xbbfee2d8	-0.0077785067
200	0x3d082f06	0.03324797
201	0x3d830488	0.06397349
202	0xbccd010e	-0.025024917
203	0x3d05a66e	0.032629423
204	0x3a122190	0.0005574459
205	0xbd8de258	-0.06927937
206	0xbc4d4bb1	-0.012530253
207	0xbdb65539	-0.08902974
208	0x3d84d33b	0.064856015
209	0xbc3929dc	-0.011301484
210	0xbd519911	-0.051171366
211	0xbd44326c	-0.04789965
212	0x3bf6c351	0.0075306077
213	0xbda51b94	-0.08061901
214	0xbcf2020c	-0.029541992
215	0xbd8bcd97	-0.068263225
216	0xbd930ae1	-0.07179809
217	0xbd4cfbaf	-0.05004471
218	0xbd235e34	-0.03988476
219	0xbd82dd57	-0.063898735
220	0xbe0f155b	-0.1397299
221	0xbc955501	-0.01822901
222	0xbb2550b2	-0.00252251
223	0x3d885942	0.066576496
224	0x3c0fa502	0.008767368
225	0xbd36686e	-0.044533186
226	0x3d4d7849	0.05016354
227	0xbd10c8a4	-0.035347596
228	0x3bfe1042	0.007753403
229	0xbc0b442c	-0.00850014
230	0x3d9e3f12	0.077268735
231	0x3d7fced1	0.062453095
232	0xbe1225a2	-0.14272168
233	0xbc3efeee	-0.01165746
234	0xbcafe2cf	-0.021470455
235	0x3db68ce3	0.08913591
236	0x3d9bd233	0.07608452
237	0x3c8bc1f1	0.017060252
238	0x3e302dd9	0.1720499
239	0x3dac80b1	0.084229834
240	0x3b700f98	0.0036630388
241	0xbc396982	-0.011316659
242	0xbdc84dea	-0.09780486
243	0x3d37d3d5	0.044879753
244	0x3e532420	0.2061925
245	0xbd2054c0	-0.039143324
246	0xbcf384fc	-0.029726498
247	0x3d0c7611	0.034292284
248	0x3d4c9c8a	0.049953975
249	0x3d6ccfaa	0.05781523
250	0x3d2f8289	0.042849097
251	0x3e10882b	0.14114444
252	0xbd84a290	-0.06476319
253	0x3c9179b5	0.01775823
254	0xbdc94665	-0.0982788
255	0xbdb4b363	-0.08823278
