surrogate/run/train/routing/saves/train-test2/30min/river/state_dict.pt (torch, 535012 bytes, 8 tensors)

pre_sequence.0.weight f4 [126, 34]
000000 68 fc 55 bd d9 25 e1 3c ce 96 22 3c 0c 91 81 bd
       -0.052242666 0.027483867 0.00992365 -0.063264936
000010 b0 a8 77 bb 75 af 96 bd 78 1f 0b 3e c5 e0 b7 3d
       -0.0037789755 -0.073576845 0.13586223 0.08978418
000020 f0 7d 17 be 35 da 19 3d 7b 60 81 3d ef f0 15 be
       -0.14794135 0.037561614 0.0631723 -0.1464269
000030 e3 f2 a5 bd 35 58 ad bd b8 dd 05 3e d8 41 0b 3e
       -0.081029676 -0.0846409 0.1307286 0.13599336
000040 b5 af 90 bd 36 38 73 3c a7 16 0e 3e a2 0a 3c bd
       -0.070647635 0.014844945 0.13875829 -0.045908578
000050 e2 06 03 3e 6d ac cc bd a2 8c 18 3e 03 07 47 3d
       0.12795594 -0.09993825 0.14897397 0.04859067
000060 f9 19 e6 3d 1e d7 35 be 2b fe 21 3e 69 9e 17 3d
       0.11235423 -0.17757842 0.15819614 0.037016306
000070 a7 21 cf bd b7 f7 44 3e ce 56 44 3e 8d 99 b0 3d
       -0.101138406 0.1923512 0.19173738 0.086230375
000080 c0 55 4e 3e d4 33 d7 3c a4 1b ae bd d8 32 32 3d
       0.20149899 0.02626983 -0.08501366 0.04350552
000090 5a 35 11 3e 4c 25 1d be 66 1a 23 bd be 3e 19 be
       0.14180508 -0.15346259 -0.039820097 -0.1496534
0000a0 54 ee 18 3c 3a 18 a7 bc 3d 97 e2 3d 24 48 4c bd
       0.009334166 -0.020397294 0.11064003 -0.049873486
0000b0 53 d2 d0 bd 95 ac 1c bd 4c 64 31 3c b7 60 71 bc
       -0.10196366 -0.038250525 0.010827135 -0.014732531
0000c0 66 80 05 bd f2 c7 2a bd da a7 a2 3d 54 3a 72 3c
       -0.032593153 -0.04169459 0.079421714 0.014784414
0000d0 4d 5f 05 3e 18 11 07 be ac 25 86 bd e1 22 3b bd
       0.13024636 -0.13190114 -0.06550154 -0.04568756
0000e0 03 f7 16 bc 17 7e 17 3e 05 13 20 be e9 2b 68 3c
       -0.009214166 0.14794193 -0.15632255 0.014170625
0000f0 1e 4a bd 3e 18 7d 5c 3d b9 1f 06 bd 7f ae a9 be
       0.3697061 0.053830236 -0.032745097 -0.33140942
000100 8b 68 62 bb 54 e2 14 3f af 8d 3f bd 71 35 61 3d
       -0.0034547176 0.5815785 -0.04676598 0.054982606
000110 3e 65 58 3c fe 35 76 3d 06 b1 03 3d c5 7c 94 3d
       0.013207732 0.060110085 0.032151245 0.072503604
000120 42 a0 d9 bd 6f 61 ed bb a9 6b c5 3d 89 61 81 bd
       -0.1062627 -0.007244281 0.09639675 -0.063174315
000130 a2 cd 3e 3c bd 3d 40 bd 17 41 43 be b6 d7 93 3c
       0.011645706 -0.04693388 -0.19067799 0.018047195
000140 82 0c 5f 3c 41 85 ad 3d b6 84 0f be 72 09 ce 3d
       0.013613822 0.08472682 -0.14015469 0.10060395
000150 bb c5 07 be ac fb cc bb 5a fb ff 3d 9e b2 31 3d
       -0.13259022 -0.0062555876 0.124991134 0.043383233
000160 46 32 21 be b1 7a 98 bd 64 fd 4f 3d 3e 25 c4 3d
       -0.15741834 -0.074452765 0.05077876 0.09577416
000170 13 d6 b1 bd 20 c6 4e be 1e dd f8 bd 0b de 8a be
       -0.086834095 -0.20192766 -0.1215155 -0.2712253
000180 d3 c8 4a bd 5d 91 37 be 11 bf 65 be 52 d6 25 be
       -0.049507927 -0.17926545 -0.22436167 -0.16195038
000190 ca d4 f3 3c ec 53 32 bc 85 36 22 be e3 20 00 be
       0.029764552 -0.010884266 -0.1584111 -0.12512545
0001a0 1b 3f 2b bd 88 9c 3c 3d 89 7a 13 be 12 72 13 3e
       -0.04180823 0.046047717 -0.14402212 0.14398983
0001b0 d8 79 c6 3d 5b af 12 3e ec 38 39 3d e5 9b 49 3e
       0.096912086 0.14324705 0.0452203 0.19688375
0001c0 75 2e d8 3d ad af c0 3d a4 50 dc bd 85 08 19 3e
       0.10555736 0.094085075 -0.107575685 0.14944656
0001d0 e1 ad dc 3d 9d 5a be 3c 90 d0 eb 3d c3 f0 09 be
       0.10775352 0.023236567 0.115143895 -0.1347075
0001e0 9a d6 95 bd 7a 79 30 be 86 89 5d bb f5 2d a6 3b
       -0.073163226 -0.1723384 -0.0033803894 0.0050713965
0001f0 77 1d d8 3d 61 56 c6 3d 21 a1 ba 3d d2 1a 0b 3d
       0.10552495 0.09684444 0.09112764 0.033961125
000200 71 d7 af 3d 49 c7 ba bd 75 b8 07 bd 06 50 0f 3e
       0.08586014 -0.09120042 -0.033134896 0.1399537
000210 aa b9 22 bd 50 77 76 bb 8e 2d 00 be ca 5d 4e 3c
       -0.039727844 -0.0037607737 -0.12517378 0.012595603
000220 b9 c7 3c 3d 67 d6 7f 3e 37 59 8d bd 1e ee 5e 3e
       0.046088908 0.24984132 -0.06901782 0.21770522
000230 52 b4 3c bd 4b e9 56 3d 5f 4d 2b 3b fe ad ab bd
       -0.046070404 0.05246858 0.0026138646 -0.08382796
000240 00 8f 07 3d e8 a8 ba bd f7 32 25 3e d5 fe 7a bb
       0.03309536 -0.091142476 0.16132723 -0.0038298864
000250 4c 8a a6 bd c0 ec cc 3d 92 99 33 be 4e de 12 bd
       -0.08131847 0.10006094 -0.17539051 -0.035856538
000260 90 39 07 3e f1 10 d5 3d 40 96 16 3e 46 eb e9 bd
       0.13205552 0.10403622 0.14705753 -0.11421828
000270 f0 b6 b1 3d 3b f7 5e bc e4 3d b7 bd c9 1a 52 bd
       0.08677471 -0.013608749 -0.089473516 -0.051295076
000280 68 82 7d bd 5b 70 e0 3d a7 d6 11 3e 42 83 87 3c
       -0.061891943 0.1095893 0.1424204 0.01654208
000290 75 7f 08 3e f1 8d b6 3d c5 ca e3 bc 01 5e 1c 3d
       0.13329871 0.08913792 -0.027806649 0.038175587
0002a0 6f be 38 be 83 3c cb bc 46 76 0a bd 7c 41 32 be
       -0.18041395 -0.024809128 -0.0338042 -0.17407793
0002b0 94 f8 f1 bd ba f4 e7 bc 01 d4 c2 3c 24 47 e9 3b
       -0.11814991 -0.028314937 0.023782732 0.0071190763
0002c0 fc 32 cb 3c 78 36 ae 3d 3e a9 97 bd ea f0 3c 3e
       0.024804585 0.08506483 -0.07405327 0.18451276
0002d0 a6 49 05 3e cd bb 1d 3e a6 bc 1e be 61 72 04 3e
       0.13016376 0.15403672 -0.15501651 0.12934257
0002e0 70 49 bc 3d a5 3c ae bd d8 dc e5 bd 0c 3b 35 bd
       0.091936946 -0.08507661 -0.11223763 -0.044245765
0002f0 c6 a0 10 3e ca 71 1d be 01 2a a0 3c aa b1 4b bb
       0.1412383 -0.15375438 0.019551279 -0.0031081238
000300 4c b4 27 3e c2 b6 0e be 7b 7f e0 bd 98 e0 02 3c
       0.16377372 -0.13936904 -0.10961815 0.007988118
000310 5b 08 e7 3d 0a 0c 94 3d 14 a0 01 be 1c 51 aa 3d
       0.112808906 0.07228859 -0.12658721 0.08316252
000320 7a c1 80 3d d3 b8 68 3e a9 fa 4d 3e 36 ba 0f be
       0.06286903 0.22726755 0.2011515 -0.14035878
000330 31 9f 00 3d a7 26 19 bd 15 43 68 3d f0 cb 87 3e
       0.031401817 -0.037390377 0.0567046 0.2652278
000340 51 b4 4d 3e 51 62 ec 3d f7 ae c7 3c f8 dc c0 bd
       0.20088317 0.1154219 0.024375422 -0.094171464
000350 9d 2c a9 bd 88 de 9d bd 47 65 90 3d 1e 72 a8 3d
       -0.082604624 -0.0770846 0.07050567 0.08224891
000360 bd 4a a9 3c 43 6f ed bd bc 20 30 3d 6b d1 7c 3d
       0.02066552 -0.11593487 0.042999968 0.061723154
000370 90 24 90 bd 50 59 98 bd 02 88 28 3e 74 05 d0 bc
       -0.07038224 -0.0743891 0.16458133 -0.025393225
000380 f1 af 64 3d 67 df bd 3b e1 32 18 3d 94 af 05 3e
       0.055831853 0.005794454 0.037157897 0.13055259
000390 37 68 31 3e c8 26 89 bd a9 3c 2c 3d 4a 3a 93 3b
       0.17324911 -0.0669685 0.042050038 0.0044930326
0003a0 45 09 16 3e c3 24 46 3e fa 5b ca bd b9 c0 25 3e
       0.14651974 0.19349961 -0.098808244 0.16186799
0003b0 01 c8 9e bd b0 eb 1d bd bf 9d 5e bd 9c 8d 08 bd
       -0.077529915 -0.038554847 -0.054349657 -0.033338174
0003c0 c6 f7 1f 3e e1 f6 92 bd ac 7b 0f be 50 47 3e bd
       0.15621862 -0.07175995 -0.14012021 -0.046454728
0003d0 3c 5c 00 be 84 7c 95 3d 1c bc 3a 3d 18 e3 b4 3d
       -0.12535185 0.0729914 0.04558955 0.08832377
0003e0 3b b3 6a bd 98 b8 14 3e 6f 67 2e be 37 98 10 3e
       -0.057299834 0.14523542 -0.17031644 0.14120565
0003f0 ff 51 62 bd 2e 14 d0 3c 9a 09 c5 bc 8c 1f 80 3d
       -0.05525398 0.025400247 -0.02405243 0.06256017

pre_sequence.0.bias f4 [126]
000000 4f 11 17 3e 5b 58 27 3e b3 97 2c 3e 07 22 be bd
       0.14752696 0.16342299 0.16854744 -0.09283834
000010 31 c1 89 3b 49 b1 fa 3d f2 33 a9 bd 20 3a 24 3e
       0.0042039384 0.12240846 -0.08261861 0.16037798
000020 cb 99 e1 3d c4 64 83 3c e2 d9 f2 3d c5 ae 57 3e
       0.11015662 0.01603926 0.11857964 0.21062763
000030 01 b5 89 3d 7a be cc 3d 4e a9 74 3d 76 23 b7 3d
       0.06723977 0.09997268 0.059731774 0.089423105
000040 f1 83 d3 bc de cb 3f be 57 08 16 3e 29 b6 34 3e
       -0.02581975 -0.18730113 0.14651619 0.17647614
000050 74 ed 81 bd f0 a6 bb 3d 20 19 ae 3d cb 36 05 3e
       -0.06344119 0.091627 0.08500886 0.13009183
000060 c7 62 af 3d 0f 20 cd 3d 19 77 9f 3a 09 29 af bd
       0.08563762 0.1001588 0.0012166231 -0.08552749
000070 c2 2a 13 be 0c da 0d 3e 00 26 d7 3d 18 bd 65 bd
       -0.1437178 0.1385271 0.10505295 -0.056088537
000080 02 14 9b bd 66 94 67 bd 1d ec 53 bd ec c1 ae 3d
       -0.075721756 -0.05653801 -0.051738847 0.085330814
000090 9f 26 cf bc 21 9b 2f 3d 8c e1 68 bd c0 bf d2 bd
       -0.02528697 0.04287255 -0.056855723 -0.1029048
0000a0 c4 bd c4 3d 52 0d 95 3d ab 3b 8d 3d 01 92 79 bd
       0.096065074 0.07277931 0.068961464 -0.060930256
0000b0 1e f6 f0 bc 23 64 e9 3d 2e 5a 45 bc 64 07 71 bd
       -0.029414233 0.11396053 -0.012045426 -0.05884494
0000c0 90 11 1c 3e b0 da 8c bd 96 c5 f3 3d 49 09 cc 3d
       0.15241075 -0.06877649 0.11902921 0.099627085
0000d0 d4 36 32 be 14 86 0e bb bf 65 47 bd 4d 37 87 3c
       -0.17403728 -0.0021747397 -0.048681017 0.016505862
0000e0 a8 9d c2 bd 31 40 67 3d a1 85 0c be 95 28 d0 bd
       -0.09502727 0.056457702 -0.1372285 -0.101639904
0000f0 f5 3b 1e be 88 4a e3 bc b8 a8 1f be 70 f6 70 3d
       -0.1545256 -0.0277455 -0.15591705 0.05882877
000100 f0 f5 7b 3c 44 c2 da 3d c1 12 ec 3d 23 fa d1 3c
       0.01537846 0.106815845 0.115270145 0.02563197
000110 d2 a5 db 3d c5 93 ba bd 55 25 03 3e 95 0d 10 be
       0.10724987 -0.09110216 0.1280721 -0.14067681
000120 da d0 f4 3d 40 3a 04 3e 49 fa e4 3d f2 82 91 bd
       0.11953898 0.12912846 0.111805506 -0.07105054
000130 86 23 08 bc b6 ff d5 bc 8f 11 f0 3d af d4 22 be
       -0.008309251 -0.026122909 0.11722099 -0.15901445
000140 80 8e 87 3a b6 70 55 bd d4 36 49 3d a0 53 26 be
       0.0010342151 -0.052109443 0.049124554 -0.16242838
000150 b5 d8 17 be d9 eb 12 be 14 4f ec 3b 54 1d 4a bd
       -0.14828761 -0.14347781 0.0072115753 -0.049344376
000160 ff 28 24 be 1c bd 4c 3e 42 13 e5 bd da 9d c4 3d
       -0.16031264 0.19994015 -0.11185314 0.0960042
000170 e4 ff 0e 3e 07 8d b1 bd a1 3c f0 bd 05 57 4b bd
       0.13964802 -0.08669477 -0.11730314 -0.049643535
000180 3e 38 6d bd 62 92 31 bd da 92 74 3d 5e e5 b6 3a
       -0.057914965 -0.043352492 0.05971036 0.0013953855
000190 9e 12 16 be d5 6b 10 be e2 8d 9b bd ac 8e 0e be
       -0.1465554 -0.14103635 -0.075954214 -0.13921613
0001a0 18 7c 22 be 2b 4c 27 be 1b d4 91 bd 85 86 ca 3d
       -0.1586765 -0.1633765 -0.07120534 0.09888939
0001b0 11 a3 cc bd 2f 20 40 3d 81 a9 59 3d fd 3a e2 3d
       -0.0999204 0.046905693 0.053140167 0.11046407
0001c0 2f 2e 0c be 32 8c 05 bd 9f 29 c3 bc a4 0d 54 bd
       -0.13689493 -0.032604404 -0.023823557 -0.05177082
0001d0 07 b0 ba 3d af 99 63 3d 4e 95 42 3d 1f 85 dd 3d
       0.09115606 0.055566486 0.04750567 0.108164065
0001e0 83 97 db 3d 11 cf ff 3d 9d 1b bc 3d 29 e3 57 bd
       0.10722258 0.12490667 0.09184954 -0.05270687
0001f0 26 76 03 3e 52 56 f9 3c
       0.12838039 0.030436669

post_sequence.1.weight f4 [4, 126]
000000 d2 41 32 bd 4b 46 f1 bb dc 8c 19 3d cf 3f 60 3d
       -0.043519802 -0.007363116 0.03748785 0.054748353
000010 da 26 6f bd fb 71 86 3d 7d 1c cf bc 28 c2 bb bc
       -0.05838666 0.06564709 -0.025282139 -0.02291973
000020 11 fd 1b 3c 59 fd 8d 3d 51 0e c1 bd 9b 38 cc bc
       0.009520785 0.06933088 -0.09426559 -0.024929335
000030 fb 0e 15 3d 7c b2 a1 bc 9e 56 1e bd cb d4 a7 bd
       0.03639124 -0.019738428 -0.038656823 -0.08194884
000040 d6 4a 5f 3d f6 00 53 bc 8a c7 18 3e a4 86 b4 3d
       0.05451473 -0.012878647 0.14919868 0.08814743
000050 32 a4 e1 bc ee db cf 3c cc 63 00 3d 04 1e e9 3b
       -0.027544115 0.025373425 0.031345174 0.007114174
000060 2d 0f 0d bd de 26 58 bd fe e7 d3 3d 3f be c7 3d
       -0.0344383 -0.05277144 0.103469834 0.097530834
000070 3b f3 12 bd 86 3e 07 3e 87 b9 47 3d 31 0b 47 be
       -0.035876494 0.13207445 0.048760917 -0.19437863
000080 72 67 c1 bc 9f c4 0c bd e6 29 94 bd d2 27 00 3d
       -0.023608897 -0.0343672 -0.07234554 0.031287976
000090 6d 4d b3 3d 93 dc 67 3d 2e 50 9a bb 8f b4 d7 3d
       0.08755002 0.05660684 -0.004709265 0.10532486
0000a0 bb 83 52 3d 1c f1 c0 bd 8b 17 0c bb d7 a6 89 bc
       0.05139516 -0.09420988 -0.0021376337 -0.016803188
0000b0 46 c1 f9 3c 85 79 2b 3d 5e 9a bf 3c 02 9a 49 3c
       0.030487668 0.041863937 0.023389038 0.012304785
0000c0 34 38 c3 3e 04 53 75 bd 4e b4 ad bc 21 76 a7 3d
       0.38128817 -0.059893623 -0.02120414 0.08176828
0000d0 fc b2 44 bd 35 46 f2 bc 53 d9 31 3d a7 93 8f 3d
       -0.048022255 -0.029574493 0.043420147 0.07010584
0000e0 32 17 52 3c 82 b6 83 3c ce 4b 58 3d da 7c a5 bd
       0.012822913 0.016078237 0.052806668 -0.08080454
0000f0 e0 fa 7c 3d 67 2f ae bd 93 ef 99 bc f0 e8 12 bd
       0.06176269 -0.08505135 -0.018790996 -0.035866678
000100 82 9c bd bc 4e 0d 2a be 8e 60 aa bd a8 56 ea bd
       -0.023145918 -0.16606638 -0.083191976 -0.114423096
000110 8c 63 e2 3d 21 1f ef bd 85 28 f7 bb c3 0c 97 3d
       0.11054143 -0.11675859 -0.007542672 0.07375481
000120 39 80 b5 bc ae ad 02 bd 38 0e 35 3c f2 be f6 ba
       -0.022155868 -0.031903915 0.011050753 -0.0018825217
000130 e5 a4 41 bd ce 8c 17 be fc 3f 3b bd 4b 0d b2 bd
       -0.047276396 -0.14799806 -0.045715317 -0.08693942
000140 28 a1 3d 3c 8a c1 92 3d b7 a6 77 3c 7e b2 d8 3c
       0.011574067 0.07165821 0.0151154315 0.0264523
000150 05 ad 25 3d 9d 37 40 3d bb 9d 47 3c c8 d0 ab 3b
       0.040448207 0.046928037 0.012183602 0.0052433945
000160 67 1a 38 3c 9a f8 f3 bd 32 2e 26 bd 0f 65 94 bc
       0.011236764 -0.11912651 -0.0405714 -0.018114595
000170 0d c5 0d bd 07 c9 6c 3d 47 30 a8 bd 80 44 79 3b
       -0.03461175 0.057808902 -0.08212333 0.0038035214
000180 e3 31 99 3c 43 0b 0a 3d df d2 92 3c e4 da 8e bd
       0.018700546 0.033702146 0.017922817 -0.06975344
000190 67 05 61 bc 1b 53 4d 3d ed 37 6f bc 6f c0 90 3c
       -0.013734198 0.050128084 -0.014600736 0.017669884
0001a0 90 ac ac bd b8 81 a7 bc b2 ad 12 be 3a ed 64 3c
       -0.08431351 -0.020447597 -0.14324072 0.013972575
0001b0 3e aa 3a bd 18 fb 54 3d 4f 3b 72 3e 1a f6 dd bc
       -0.04557251 0.051997274 0.23655437 -0.02709489
0001c0 1b ed 12 3d 30 ca 71 bc 1e a2 18 bd 6d f5 0b 3d
       0.035870653 -0.014757678 -0.037263982 0.034169603
0001d0 a4 9c 98 3c 31 f6 92 bd 11 05 c8 3c 65 94 97 bc
       0.01862938 -0.071758635 0.024416478 -0.018503377
0001e0 4f b2 91 3d ff 3f 17 3b 1d c8 8b bd 5d 5e 4a bd
       0.07114088 0.0023078916 -0.06825278 -0.049406398
0001f0 3e 9a 6d bd 68 43 8c bb c8 40 52 bd 85 54 a4 ba
       -0.058008425 -0.0042804964 -0.05133131 -0.0012537396
000200 bf 42 01 3d fd 85 69 3d c6 7b 61 bd 93 3e 84 3d
       0.031557795 0.057012547 -0.05504968 0.064572476
000210 82 85 14 bd 4d a5 3f bc a4 7d 98 3b 5d f3 e0 3d
       -0.036260135 -0.011697126 0.0046536494 0.10983918
000220 b0 5b 40 bd 70 5e 80 bc 25 93 40 3d ba 2e b4 bc
       -0.04696244 -0.015670031 0.047015328 -0.021994937
000230 9b d2 07 bd 4c 63 ad bd b1 73 92 3d 42 7b 63 b8
       -0.033159833 -0.08466205 0.07150973 -5.423581e-05
000240 fb 11 23 3e c4 d8 88 3d 7e 08 8b bc c7 ea 2a 3d
       0.15924828 0.0668197 -0.016971823 0.041727807
000250 33 51 ab 3c a5 d2 7e 3c 3b dc d0 3c 59 19 48 bd
       0.020912742 0.015553151 0.02549564 -0.0488523
000260 4c 56 27 3e 03 52 95 3d f3 db 5d bd 0f 02 ee 3d
       0.16341513 0.07291033 -0.054164838 0.116214864
000270 62 09 94 3d 98 3f 1a be ef 0b 08 bd 4c 45 4a bc
       0.07228352 -0.15063322 -0.033214506 -0.012345623
000280 aa d8 b2 bd 62 b0 e7 3c 4f a8 a1 3c 36 43 27 3d
       -0.08732732 0.028282348 0.019733576 0.04083558
000290 c7 99 d2 bb 5d 0d 07 3e c9 b8 8b 3d a8 5a ef bd
       -0.006427023 0.13188691 0.06822354 -0.11687213
0002a0 d8 92 ff bb 63 47 6d bc 30 bf 87 3c e9 d6 67 3d
       -0.0077994876 -0.014482352 0.016570657 0.05660144
0002b0 02 44 0c 3c 23 a1 a5 bc 55 0d 9b 3e 42 36 27 bd
       0.008561136 -0.020218438 0.3028361 -0.04082323
0002c0 94 22 9a bd 26 38 42 3d 7d b5 38 bd 26 14 2c bd
       -0.075261265 0.04741683 -0.045094956 -0.042011403
0002d0 9c a8 49 3d 4d e9 f6 3d 02 2d 16 3d c7 eb ec 3d
       0.049233064 0.12056217 0.036664017 0.115684085
0002e0 14 3c 9b 3d e0 b4 ce bd f4 31 53 3d 9e 85 bb bd
       0.07579818 -0.10093093 0.05156131 -0.09156345
0002f0 e1 ac 3b bb 0f 77 07 bd 63 ee eb bc 7f 25 23 be
       -0.002863698 -0.033072527 -0.028800195 -0.15932272
000300 99 7e 8d bd 5d 54 0a be cd 65 06 3e fc 80 41 be
       -0.06908912 -0.13508745 0.13124771 -0.1889686
000310 4f 74 42 bb 5d 8b 6f 3d 3e ee 83 bc b6 f6 db bc
       -0.0029671376 0.058482517 -0.016104814 -0.02685104
000320 9c cb 8f 3b b2 be 9e bd 3a bf 3c bd 46 45 d5 bd
       0.004388286 -0.07751216 -0.046080805 -0.104136035
000330 90 b1 0a bd 94 bc 9e bd 39 ed c9 bb 85 db a3 3d
       -0.033860743 -0.07750812 -0.0061623123 0.080008544
000340 b4 ed 1c 3c bf f2 ad 3c 9f 55 c7 3c d6 79 69 3c
       0.009578157 0.021233914 0.02433282 0.014250239
000350 02 2f ee 3b 9a cb 83 bc a0 c0 12 3e e4 5c 40 bd
       0.0072687874 -0.016088296 0.14331293 -0.046963587
000360 55 cb df bc aa ca ee bc 31 50 e8 bc c3 fe 81 3d
       -0.027318636 -0.029149372 -0.02835855 0.0634742
000370 e5 32 e5 bc 08 05 04 3d 1d 39 83 3c cf d2 06 3d
       -0.02797837 0.03223136 0.016018445 0.032915886
000380 b2 13 0e 3c 20 90 7c bd fb c4 2f bd 64 43 1b 3d
       0.008671688 -0.061660886 -0.042912465 0.037906066
000390 47 14 22 bd 8d 71 d5 3d ab 36 4e bd 55 39 dd bb
       -0.03957012 0.10422049 -0.050345104 -0.0067512193
0003a0 d6 37 e4 bd 16 59 e2 3b 4d 17 a4 bd 88 98 39 3d
       -0.11143462 0.0069075925 -0.08012257 0.04531148
0003b0 1d 9d 38 3e 0e 86 53 bd b2 45 3b 3d 9c 56 b4 bd
       0.18028684 -0.051641516 0.045720764 -0.08805582
0003c0 53 0c 8f bd 89 40 2e 3d 6e 36 b2 3b c2 8e c2 bd
       -0.069847725 0.042542014 0.0054386174 -0.09499885
0003d0 58 d7 02 3d a9 ad e6 bc ff be 5f 3d 39 1b 25 bc
       0.03194365 -0.02815898 0.054625507 -0.010077291
0003e0 47 57 2b bd c2 2a 8e bd f3 b3 28 bd 69 22 3a bb
       -0.04183128 -0.06941749 -0.041187238 -0.0028401858
0003f0 45 48 d8 bc 43 f7 f4 3c 60 38 1f 3d f8 a1 be 3c
       -0.026401648 0.02990306 0.038872123 0.023270592

post_sequence.1.bias f4 [4]
000000 b1 72 c9 bb 6b a0 44 bc 15 1e ae bc d9 06 b7 bc
       -0.0061477055 -0.012001137 -0.021254579 -0.022342132

lstm.weight_ih_l0 f4 [504, 126]
000000 1f 98 25 3d af 5c a2 bd a8 5d 2d 3d 23 57 69 3d
       0.040428277 -0.07927834 0.042325646 0.056967866
000010 0b 4c 0e 3d d4 e2 5f bd b1 a5 be 3d 88 0d 82 bd
       0.03474049 -0.05465968 0.09308947 -0.06350237
000020 1d f3 19 3d 45 39 06 3e 8a 76 8b bb a7 31 3d 3b
       0.037585367 0.13107784 -0.0042560743 0.0028868706
000030 07 27 9c 3c 81 02 28 3d 89 2b f1 3d 2f be 82 3d
       0.019061578 0.041018013 0.11775882 0.06383931
000040 5a 9b 14 bd d8 e8 d5 3d 0c 6c ef bc 8e 01 9a bc
       -0.036280967 0.10444802 -0.029226325 -0.01879957
000050 ab 56 99 bd 7c 7e 1e bb c8 05 a9 3d 9e 33 86 bd
       -0.07487234 -0.0024184277 0.08253056 -0.06552814
000060 1b 99 60 3d c2 56 00 3e 7f a3 98 3c 49 f6 8a 3c
       0.054833513 0.12533095 0.018632649 0.016963141
000070 cf 08 c7 3d 38 79 52 bd 3a 56 98 bc 27 be ef 3a
       0.09718477 -0.051385134 -0.018595804 0.0018290923
000080 a0 bf 90 3d 10 27 62 3d 3b 04 d6 3d 70 37 94 bd
       0.070677996 0.055213034 0.10450026 -0.07237136
000090 63 e5 ed 3c 67 90 19 bd 2d af 91 bd 25 db af 3b
       0.029040044 -0.03749123 -0.0711349 0.0053667002
0000a0 97 24 dc bc 18 04 bc 3d 59 87 9a 3d b2 e1 8b 3c
       -0.026872916 0.09180468 0.07545347 0.017075393
0000b0 1b ba c4 3d 42 06 72 bd 5e 9f 10 3d 3d f3 f1 bd
       0.09605809 -0.059088 0.035308234 -0.11813972
0000c0 84 06 1d bd 31 e7 34 3d de 05 61 bd 52 f3 60 bd
       -0.038336292 0.044165794 -0.054937236 -0.05491955
0000d0 38 27 89 bd 80 0c 4e 3c 9a 3b e3 3c 1b d3 03 3e
       -0.066969335 0.012576222 0.027738381 0.12873499
0000e0 bf a8 8b bb aa ea 48 bd 38 fc 2c 3e 4f dc 06 3d
       -0.0042620595 -0.049051918 0.16893089 0.032924946
0000f0 89 a3 cd 3b fe 3e 39 3c 9f e6 f4 3d db dd 58 3d
       0.0062755984 0.011306522 0.1195805 0.052945953
000100 f5 8d ea bc 94 fb a3 bb ba 32 fa bc 1d bb c5 bd
       -0.028632144 -0.0050043557 -0.030541766 -0.0965483
000110 8f 91 9e 3d 9a 2f 5e 3a 83 99 9f 3c 2a f8 87 bd
       0.07742607 0.0008475721 0.01948238 -0.066391304
000120 bc ea 11 be 5b 90 26 3d e3 16 fe 3d db 89 81 3d
       -0.142497 0.04066501 0.12406709 0.06325122
000130 31 2b 98 3d af 1a 2a bd 35 05 dc bd ef 10 8d bd
       0.07430113 -0.041529354 -0.10743181 -0.068879955
000140 9e 65 ed 3d 9c 42 2c bc 6a 31 04 bd eb fd 34 3c
       0.115916476 -0.010513928 -0.032273687 0.011046867
000150 42 ac cf 3d 89 2b f6 3d 3d 4e 12 3c 74 a1 45 bd
       0.101402774 0.120200224 0.008929786 -0.048249677
000160 f1 78 27 3d d2 76 90 3d 93 ae e7 bd d5 cb b2 3d
       0.040886823 0.07053913 -0.11312594 0.08730284
000170 6c 3a be 3d 6c 34 24 bd bb dc 75 bc f4 eb 82 3d
       0.09288487 -0.040089056 -0.0150062395 0.06392661
000180 29 1b 71 3d 9a 83 49 bd 4b f0 99 bd 55 e0 57 3d
       0.058863793 -0.04919777 -0.07516535 0.052704174
000190 5c 8d a3 3d 9a 86 dd bb 6d d9 bf bd aa 3b aa 3d
       0.079859465 -0.0067604305 -0.093676426 0.08312161
0001a0 7f cc 79 bd 76 43 0b 3e 95 18 82 3d 6a fa af 3d
       -0.06098604 0.13599953 0.06352345 0.085926846
0001b0 f2 cc ad 3d 7a 25 2c bb 31 ad f9 3b 7b 84 b5 3c
       0.08486356 -0.0026267455 0.007619523 0.022157898
0001c0 5f 1a 5a 3c 0c ea c3 3d 8d 10 ca 3d 76 5c 33 3a
       0.013311951 0.09566125 0.09866438 0.0006842086
0001d0 74 53 bd bd e6 79 d1 3d 25 54 7d bc 8a fa dc 3d
       -0.09244433 0.102283284 -0.015461956 0.10789974
0001e0 b2 4d af 3d 67 44 cf 3d fa 98 e2 3d 43 65 40 bc
       0.08559741 0.101204686 0.11064334 -0.011742893
0001f0 f9 0f fe 3d 26 97 cd 3d 94 fe 92 bc e5 e6 3c 3d
       0.1240539 0.10038595 -0.017943658 0.046118636
000200 f6 f3 54 3d e1 71 e0 bd 31 92 cc 3d bf 8d 5d ba
       0.05199047 -0.10959221 0.09988821 -0.0008451603
000210 d9 28 7d 3c 4f 6b 3e bd c6 65 97 bd bc 27 9d 3d
       0.015451633 -0.046489056 -0.073924586 0.07673594
000220 68 44 a6 bc d8 ba e1 bd 25 f2 04 bb 19 a8 2d bd
       -0.02029629 -0.11021966 -0.002028593 -0.04239664
000230 77 af 2e bd 89 ef 07 3e b5 06 98 3c bc 3f 97 3b
       -0.042647805 0.13274969 0.018557886 0.004615752
000240 2a e4 18 bb f4 16 90 3d 17 d9 9c 3d 69 32 a1 bd
       -0.0023329356 0.07035628 0.07658594 -0.07870943
000250 71 f4 8e 3d 06 9d 6e 3b cb 6e 9f 3d ed f3 a3 bd
       0.06980217 0.0036409511 0.07784804 -0.080055095
000260 3f a0 5d bd 32 be d3 bd dc 5d 19 3d b1 fc c9 bc
       -0.0541079 -0.10339011 0.037443027 -0.024656625
000270 9f f3 0c bd d7 8e bd bd 44 1e b7 3d 5a b0 d6 3d
       -0.034412023 -0.0925576 0.089413196 0.10482855
000280 1e 80 90 3d 9f 2b 14 bd 42 c1 0f 3d e3 98 a4 bc
       0.070556864 -0.036174413 0.035096414 -0.020092433
000290 cf 61 21 3d 47 dc 35 3c c0 36 f3 bd da 87 9d bd
       0.03939992 0.0110998815 -0.11875677 -0.07691927
0002a0 d1 33 dd 3b b0 0a fd 3c 97 f2 9c bd 77 ba 41 3d
       0.0067505618 0.030888885 -0.07663458 0.047296967
0002b0 59 db df 3d 3f 10 a1 3d 54 3d 9f 3a 5b cf a9 bc
       0.10930509 0.07864427 0.0012149015 -0.020728758
0002c0 84 b0 6d bd d9 77 34 3d 09 28 e2 3c fa dc 15 3d
       -0.058029667 0.044059608 0.02760698 0.036587693
0002d0 d1 c2 82 3d f0 06 19 bc b5 4a c2 3d c1 42 fb bc
       0.063848145 -0.009340033 0.094869055 -0.03067148
0002e0 b8 56 3e 3d 68 56 f2 3d a4 6a 70 3d d4 f9 95 3d
       0.04646942 0.11832887 0.05869545 0.073230416
0002f0 94 4a 93 3d dd 4e 4a bd c9 4a 2e bd cd d1 91 3d
       0.07191959 -0.049391616 -0.04255179 0.071200944
000300 3b 1e b0 bc 77 8d 01 bd d5 26 a6 bd c9 2b 7d 3d
       -0.02149879 -0.031629052 -0.08112875 0.061809335
000310 67 11 0f 3d 04 96 ab bd 17 d9 46 bc 65 f6 ad 3d
       0.034928706 -0.083782226 -0.012136719 0.08494262
000320 5c b2 a8 3d 57 d6 80 bb 6e d1 9b 3d 3f 4a dd bb
       0.08237144 -0.0039318013 0.07608305 -0.0067532356
000330 bd af 60 3d db 96 07 3e 56 95 89 3d 7c 9f 99 bb
       0.054855097 0.1324114 0.06717937 -0.0046882015
000340 da 2d 2d bd 1b d5 62 3d 30 f3 46 3d d1 71 66 3d
       -0.042280056 0.055379014 0.048571765 0.056260888
000350 9b 8d d5 bd 28 c7 00 3e e5 95 59 bd 5f 9f 3f 3c
       -0.104274 0.12575972 -0.053121466 0.011695712
000360 51 54 d3 3d 19 27 9c bd c5 3c 70 3d 34 69 a2 ba
       0.103188165 -0.07624645 0.058651704 -0.0012390972
000370 42 9b 18 3e ac f2 5d bc 14 e9 8c bd 38 ee 99 3b
       0.14902976 -0.013546627 -0.068803936 0.0046975873
000380 d1 83 74 3d 9c c1 74 3d 31 6d ef bb 7f f8 91 bd
       0.059696022 0.059754953 -0.007306718 -0.07127475
000390 f1 6d 82 bc a4 5f 3e bb 8a cf b3 3b e8 26 a9 bc
       -0.015921565 -0.0029048705 0.005487387 -0.020648435
0003a0 ba bd ef bd 9f bb b3 bc 2f b2 89 bd 3d 9b 3d 3d
       -0.11706109 -0.02194005 -0.06723439 0.046290625
0003b0 02 49 e7 3d a1 13 22 bd 27 fa 78 bd 59 24 f6 3d
       0.11293222 -0.0395695 -0.06078544 0.120186515
0003c0 0e 87 99 3a ae e8 c8 3a dd 99 2b bd 4f e1 28 bd
       0.0011713223 0.0015328133 -0.041894782 -0.041230496
0003d0 79 75 0c 3e 7d 49 19 bd 66 2b 3d bd 17 fb bc 3c
       0.13716687 -0.0374236 -0.046183966 0.023068948
0003e0 d0 41 1a bd a9 e0 2b 3c 5b 13 b2 3d cc 90 30 bd
       -0.03766042 0.010490575 0.08695098 -0.04310684
0003f0 ec 6c 8d 3d 78 03 01 bd 30 a3 fa 3d a4 85 c0 bd
       0.06905541 -0.03149745 0.12238157 -0.0940049

lstm.weight_hh_l0 f4 [504, 126]
000000 ee 53 d8 3d ce 64 97 3c 48 49 90 bd 86 ee 81 bd
       0.10562883 0.018480685 -0.07045227 -0.06344323
000010 99 88 a9 bd d5 f3 17 bd 60 78 21 3e b7 48 d6 3d
       -0.08278007 -0.03709777 0.15768576 0.10463088
000020 81 52 c0 3d a5 df b6 bc 66 6d 6c 3d 49 6a b8 bb
       0.09390736 -0.022323439 0.057721518 -0.0056279046
000030 71 1d bc 3c b5 28 b6 bd 16 82 e8 bc 06 4a 6d bd
       0.022963258 -0.08894483 -0.028382342 -0.057931922
000040 ce fd 3d bc b6 59 3f bd 10 18 dc bd d5 d9 b5 3d
       -0.011596156 -0.046716414 -0.10746777 0.08879439
000050 71 d3 ef bd 7f ab 50 3d d6 08 a1 bd 62 5f 1c bd
       -0.11710251 0.0509448 -0.078630134 -0.0381769
000060 c7 e3 20 bd c7 a6 f1 bc 20 8b d6 bd 69 a7 dc bd
       -0.039279725 -0.029498471 -0.10475755 -0.107741185
000070 bd d3 77 3d f8 eb 6a bd 26 28 33 bc 1e a0 11 3e
       0.060504664 -0.057353944 -0.010934865 0.14221236
000080 2d 19 0b be f2 fc d3 3d df f1 30 3d 0d 40 02 be
       -0.13583823 0.1035098 0.043199416 -0.12719746
000090 3d 3d 48 bd 2d fe a7 bd 90 9e 92 bc cb 0b 19 be
       -0.048886526 -0.08202777 -0.017897874 -0.14945905
0000a0 db 36 58 bb bd 40 d2 3c 07 9f 76 3d 4c 2e 70 3d
       -0.003299168 0.025665635 0.060210254 0.058637902
0000b0 ab 44 85 3d 6c 5d fd bd bc ac 00 bd 74 dc 00 3e
       0.06507238 -0.123713344 -0.031414732 0.12584096
0000c0 9e 1a df bd 94 21 07 3e b3 93 1b 3d 6a bf fb bd
       -0.10893749 0.13196403 0.037982654 -0.12292369
0000d0 8d 8d a0 ba d0 a0 07 3e 59 3a 3c 3d a6 5c fb bd
       -0.0012249217 0.13244939 0.045954082 -0.12273531
0000e0 89 24 88 bd 71 d8 cc bd 30 07 3c bd 56 76 eb 3d
       -0.066475935 -0.100022204 -0.045905292 0.1149718
0000f0 9a b1 76 bb ca 51 a5 bd 83 91 5f bd f5 eb d4 3c
       -0.003764248 -0.08072241 -0.05458213 0.02599142
000100 b3 47 b1 3d ae 08 19 3e 31 8e 99 3c 8c 74 2a 3d
       0.08656254 0.14944717 0.01874456 0.041615054
000110 68 d0 28 bd cf 91 62 3c a7 c5 77 bb 3d 1b dd bc
       -0.041214377 0.013828709 -0.003780702 -0.026990527
000120 51 09 db 3d 6c b7 30 3c fa a1 b0 bd 1a c5 24 bd
       0.10695136 0.010785919 -0.086246446 -0.040227033
000130 bf b9 c4 3d 61 71 28 3d bb 85 2c bd 39 93 d0 3d
       0.09605741 0.04112375 -0.042119723 0.101843305
000140 65 cf d9 bd df b5 04 bd 24 36 f1 bd 6b 44 32 3e
       -0.106352605 -0.03240001 -0.11777905 0.17408912
000150 36 e0 b1 3c 39 52 d7 3c 33 16 1e 3e 43 d5 a1 bc
       0.021713357 0.026284324 0.15438156 -0.019755011
000160 7b 00 3b bc c3 46 e6 3d a5 61 bc 3d bb 47 07 3d
       -0.011413689 0.112439655 0.09198312 0.033027392
000170 f7 de a9 3d 99 cc 06 3c 78 77 e3 bc 75 9e 48 bd
       0.0829448 0.008227491 -0.027766928 -0.04897924
000180 79 2b ce 3c 2b f2 33 be 7e dd b0 3d af 85 bf 3d
       0.025167214 -0.17572848 0.08635996 0.0935167
000190 33 c4 39 3a 0e d3 92 bd bf 9d 1d bc 44 fd 7e bc
       0.0007086426 -0.07169162 -0.009620129 -0.015563313
0001a0 34 80 c9 3d 07 37 4d bd b0 cf 57 3d 3b d9 a2 bc
       0.09838906 -0.050101306 0.0526883 -0.019878974
0001b0 15 66 d2 3d 30 32 95 bd 0d d2 93 bb f9 0b 2d 3d
       0.10273377 -0.07284963 -0.004511124 0.042247746
0001c0 9a db 9d 3d d1 f9 8b 3c 12 e8 c7 3c 53 38 e8 bd
       0.07707901 0.017086895 0.024402652 -0.11338868
0001d0 e6 1f b5 3c aa a7 74 bd 37 52 b2 3c 70 9c 57 bc
       0.022109937 -0.05973021 0.021767719 -0.013159856
0001e0 cf c5 a8 3b 3f 49 cd 3c 87 94 15 bd 67 97 10 bd
       0.0051505337 0.02505934 -0.0365186 -0.03530064
0001f0 73 54 ed bb 3b 2d 0e be 6a a5 8e 3d 27 22 16 3c
       -0.007242733 -0.13884442 0.06965144 0.009163416
000200 46 92 48 bc fd 05 4c 3d 15 2f 08 bd d0 a6 7b bd
       -0.012241906 0.0498104 -0.033248026 -0.06143838
000210 57 5b 88 bd d5 ad b2 3d be 3b 32 3c 1f e0 ab bd
       -0.06658047 0.08724562 0.010878501 -0.08392357
000220 05 8f db bb df 86 c9 3c 9b c5 b0 bd ab a0 08 bc
       -0.006700399 0.024600444 -0.0863144 -0.0083390875
000230 b5 eb be bd 04 60 40 bd c8 0b 14 bd a3 5e 7b bd
       -0.09322301 -0.046966568 -0.036144048 -0.06136955
000240 c8 4e e8 bd 26 cb 22 bc 4b 18 a0 3d 41 f2 8d 3d
       -0.11343151 -0.00993613 0.078171335 0.06930972
000250 de ec 1f bd ea 53 df bd 81 fd 58 bd a9 e6 be bd
       -0.039044254 -0.10904677 -0.052976135 -0.09321339
000260 dc ee df bc 5c 07 14 bc e2 44 08 be 57 ff 10 bd
       -0.027335577 -0.009034958 -0.13307527 -0.03539976
000270 6b f6 68 3c b9 cf 1b 3d 6a 4c 36 3d 3b 14 43 bd
       0.014218907 0.038039897 0.044506468 -0.047626715
000280 ef e4 f9 bc 61 c1 0c 3d 7a 86 26 3d a9 56 36 3d
       -0.030504672 0.034364108 0.04065559 0.04451624
000290 11 07 f9 3c 89 cd 30 bd 0d 30 75 bd df 45 55 38
       0.030398877 -0.043164764 -0.059860278 5.084823e-05
0002a0 f6 5d 04 3d 13 8b 4c 3d ca b4 13 3d 6c c9 34 3d
       0.03231617 0.04993732 0.036061086 0.044137403
0002b0 bf 80 71 bd 1a 63 b9 3d 21 aa a8 bd 70 62 8e 3c
       -0.058960672 0.09052105 -0.082355745 0.017380923
0002c0 63 52 13 3d 16 86 d4 bd 2e 6f 1b bd cb 99 5d 3c
       0.035967242 -0.10377137 -0.037947826 0.013525437
0002d0 32 3f 0d bc 61 3a 8b bc eb ca 63 bd 81 57 4c 3d
       -0.008621024 -0.01699561 -0.05561344 0.049888138
0002e0 6a 59 85 bd f4 68 a4 3d 44 d9 92 bd df 40 94 bd
       -0.06511195 0.08027831 -0.071703464 -0.07238936
0002f0 ae c3 2a 3c 6a 35 a0 3d ce b4 ab bc 7e ba a9 3d
       0.01042263 0.07822688 -0.020960238 0.08287524
000300 4e ef a9 3d 38 ea 23 3d 3c fd e0 bd 2d fb 82 bd
       0.08297597 0.04001829 -0.109858006 -0.06395564
000310 0e 77 5c 3d af 07 af 3c 1b 09 dc bc 06 dd d9 bd
       0.053824477 0.021365969 -0.02685981 -0.1063786
000320 dd 96 9b 3d bb be 51 bd a1 a8 4a bd 11 78 97 bd
       0.07597134 -0.051207285 -0.049477223 -0.07395948
000330 eb f8 cc 3c ff c8 6c bd 9f 3b a7 3d 69 b5 8d bd
       0.025021037 -0.057808872 0.08165669 -0.06919367
000340 7f 5a 67 bd 90 be 35 bb 93 9a cf 3d 16 97 15 3e
       -0.05648279 -0.0027731992 0.101369046 0.14608416
000350 dc 94 c0 ba 60 fc 6e bd 66 c9 43 3c 2b 7e 26 bc
       -0.0014692801 -0.058346152 0.011949873 -0.010161917
000360 9e 85 d4 bc d4 46 f2 bd c8 05 e1 3d 40 58 fd bb
       -0.02594262 -0.11829916 0.10987431 -0.0077314675
000370 7e a7 d7 bc aa 11 43 3d a3 1f 80 3d f8 04 d6 3b
       -0.026324984 0.047624268 0.06256034 0.006531354
000380 19 df 16 bd 29 3a d5 bc 5f 1a 56 3d 9e ad 1b bd
       -0.036833856 -0.02602871 0.052271243 -0.03800737
000390 37 e4 8a 3a 61 c0 a7 bd 71 c7 ae 3d 65 de bf 3d
       0.0010596578 -0.0819099 0.08534134 0.0936859
0003a0 50 2c 7d bd 30 c5 50 3d d6 16 90 3c 02 45 8c 3d
       -0.061809838 0.050969303 0.017589014 0.068491
0003b0 51 f3 90 3d 6b 09 96 bb b8 17 85 bd 96 85 d4 3b
       0.07077659 -0.0045787594 -0.064986646 0.0064856512
0003c0 40 8b 90 bd c5 67 96 3b cc 59 a3 bc 7a ad ae bd
       -0.0705781 0.004590007 -0.01994028 -0.08529182
0003d0 72 45 99 3d f1 53 11 3d 88 7d 98 3d 94 18 6d 3d
       0.07483949 0.035480443 0.07445818 0.057884768
0003e0 4d 67 d0 3c 58 fd 47 3c 39 0d df 3d ea a6 4c 3d
       0.025439883 0.012206398 0.10891194 0.04996387
0003f0 d2 18 a9 3d e1 a3 d8 bd e6 4b 17 bd 8b 9c 8d bd
       0.08256687 -0.105781324 -0.036937617 -0.06914624

lstm.bias_ih_l0 f4 [504]
000000 e9 59 9c 3d 55 e9 39 bd 37 8e 60 3d 18 7f 0c 3c
       0.076343365 -0.04538854 0.054823127 0.008575223
000010 1b dc 51 bd 3e 75 30 39 6a 6c 5c 3d 18 4c 9d 3c
       -0.0512353 0.00016828344 0.05381433 0.019201323
000020 d7 d6 98 3c 73 13 28 bd f7 50 fb 3c bf 30 c3 3a
       0.018657131 -0.041034173 0.030678255 0.0014891847
000030 ce a6 f7 39 bc 31 86 3d f2 57 16 3d 31 dc 41 3b
       0.0004723579 0.06552455 0.036704965 0.0029580707
000040 1e 10 1c 3d e4 c9 bf 3d bd b1 8b bd a6 93 f7 3c
       0.038101308 0.093646795 -0.0682101 0.030221771
000050 4f 16 1d bd a2 c0 d7 bc 74 3c c0 bc 83 b0 b3 3d
       -0.038351353 -0.026336972 -0.023466326 0.08773901
000060 9a 49 77 bc a1 1f 13 3d 5d 1c 13 3d 06 4b 3a 3d
       -0.015093232 0.035918836 0.03591572 0.045481704
000070 a3 c4 8b bd b2 e2 05 3e 7b ae 00 bd 45 56 8e 3c
       -0.06824615 0.13074759 -0.031416398 0.01737512
000080 2b 96 cd 3d a9 46 83 bd e8 e7 a4 3b 9b 37 bf 3d
       0.10038408 -0.06409962 0.005032528 0.09336778
000090 d5 dd 88 3d c6 cd c9 3d ff 55 b1 3d 26 e4 12 3d
       0.06682936 0.09853701 0.086589806 0.03586211
0000a0 46 6c 94 bc 6a 06 af bc 3e bf f0 bd fc 78 98 3d
       -0.018118035 -0.021365363 -0.117552266 0.07444951
0000b0 d2 2d 82 3d 4f 5a d0 3d c0 55 08 3d 59 37 e9 3c
       0.06356396 0.10173475 0.033284903 0.028468775
0000c0 71 42 78 3d 71 fe c6 3c 1f 92 44 3a c4 c0 ea 3b
       0.06061024 0.024291249 0.00074985804 0.0071640927
0000d0 03 3a 1a bd 6f ea c0 3c 23 17 c1 3c 49 cd 36 bd
       -0.03765298 0.023549287 0.023570603 -0.04462937
0000e0 98 9b bd 3c af 0b c7 3d c5 d9 68 3d 87 dc 8e 3c
       0.023145482 0.09719025 0.056848306 0.01743914
0000f0 b4 a7 0b 3d b3 26 ce 3c 80 be 9a bc 7f c4 4a 3d
       0.03409548 0.025164938 -0.018889666 0.0495038
000100 3d f6 4a 3d 6d 03 c7 bd c4 eb 15 3d 98 f6 03 3d
       0.049551237 -0.0971745 0.036601797 0.032217592
000110 32 d2 8b 3b e9 aa f8 3c 49 09 89 3d 13 be b3 bc
       0.0042670006 0.030354934 0.06691224 -0.02194122
000120 83 15 9d 3c be e0 8d bd a2 a3 36 3d f1 6c ac bd
       0.019175297 -0.06927632 0.044589646 -0.084192164
000130 77 0b be 3d 52 80 93 bc 4e 40 43 3d 7e a0 85 bd
       0.092795305 -0.018005524 0.047668748 -0.06524752
000140 54 9e a5 bd 19 be 6d bd ef a2 cb bb b7 11 0f bd
       -0.08086839 -0.05804262 -0.0062144916 -0.034929004
000150 f4 b8 71 bb 49 9e 09 bd f4 7d 5b 3b cb a0 a7 3d
       -0.0036883922 -0.033598218 0.0033491822 0.08184966
000160 fb c6 90 3d 86 4e 13 3d 8c 9e 4e 3d 77 9b 39 3d
       0.070692025 0.035963558 0.05044417 0.04531428
000170 54 0b ae 3d 41 47 3e 3b b0 4b 61 3d 9c 97 2c 3d
       0.084982544 0.002903417 0.05500382 0.042136773
000180 50 2b 50 3b 0a 43 c7 3d 46 f0 80 3d 0b 3e 23 3d
       0.0031764098 0.097295836 0.062958285 0.03985409
000190 6e b6 ba bd 25 b1 f2 3d 4e 36 d0 bc 4a f6 15 3d
       -0.09116827 0.11850194 -0.02541652 0.036611833
0001a0 ea 22 11 3d 93 e4 86 bb 82 b9 93 bd c3 61 7b bc
       0.035433687 -0.0041166036 -0.07213117 -0.015343132
0001b0 54 dd b7 3a a4 4d c0 3b 9c ad 80 bd ce 30 ae bd
       0.0014027753 0.0058686305 -0.06283113 -0.085054025
0001c0 dc 28 4c bd 73 4d 85 3b 92 07 a1 bc 3d ca 07 3e
       -0.049843654 0.0040680706 -0.01965693 0.13260742
0001d0 8b 62 14 3d 4e 0b 96 3d f8 86 a1 bc ea 32 9b 3d
       0.03622679 0.07326375 -0.019717678 0.075780705
0001e0 e7 9a bf 3a 27 2a db 3d a4 82 92 3d 4b 4c c2 3c
       0.0014618308 0.10701399 0.07153824 0.02371802
0001f0 09 fd d6 3d c9 43 9a 3c 0f 58 1b bd 3d e3 97 bc
       0.104974814 0.01883115 -0.037925776 -0.018540973
000200 98 69 3b 3c f4 21 34 3d 5b 55 ec 3a d4 ca 09 bd
       0.01143875 0.043977693 0.0018030809 -0.033640698
000210 5a e3 0a 3d 97 ee a3 3d 97 3b 95 3d a6 7a 92 b9
       0.033908226 0.08004492 0.072867565 -0.0002793867
000220 a1 a3 0e 3d 5b e4 af bc cf 88 90 bd 64 17 51 bd
       0.034824017 -0.021471193 -0.07057344 -0.051047698
000230 7a bf 9e bb 71 8b 06 bd 32 32 5d bd f7 7d 51 3d
       -0.004844603 -0.032847825 -0.054002948 0.05114552
000240 d3 d4 46 3a 46 0e ca bc 96 9f 80 3d b5 83 9d 3d
       0.0007584814 -0.02466501 0.062804386 0.07691137
000250 a4 dd 28 3c 6e 93 82 3d 61 89 d6 bd 84 1c f3 3d
       0.0103067495 0.06375776 -0.10475422 0.11870673
000260 6b 20 ea bc 49 75 d0 bd 5a 1d 72 3d b5 5a ab bd
       -0.028579911 -0.1017862 0.059110023 -0.0836691
000270 5a f9 f1 3c 0e bf 59 ba d4 aa e4 3d 18 a2 8b bc
       0.029537845 -0.00083063624 0.111653954 -0.017045066
000280 7d ce a3 bd 2d 04 84 3d 78 b3 1f 3c a3 7c f5 3c
       -0.07998369 0.06446109 0.0097473785 0.029966658
000290 c0 c5 7e bd 55 b2 0b 3d 05 8b 44 bd ee 62 93 3d
       -0.062200308 0.034105618 -0.04798414 0.07196604
0002a0 d1 eb 08 bd 3d 7d 32 bd fa 19 98 bd 5e 7d 28 bd
       -0.033428017 -0.043576468 -0.0742683 -0.041135184
0002b0 a2 12 5e 3e 97 75 2a bd 8f 21 eb 3c 6f f0 1b 3c
       0.21686795 -0.04161605 0.028702525 0.009517773
0002c0 3d c0 c8 3d dd db 88 3c 40 99 25 bb 74 82 39 3d
       0.098022915 0.016706401 -0.0025268346 0.045290425
0002d0 c6 e9 d0 3d cf a3 29 3c 4d 78 4a bd e9 ab 14 3d
       0.10200839 0.010353996 -0.049431134 0.03629676
0002e0 21 1d 8e bc 30 00 8c bd a6 58 a8 3d 37 c3 03 bc
       -0.017347874 -0.06835973 0.08220033 -0.008042148
0002f0 7e b1 e4 3c 64 4e 38 3d 7c d8 4c 3d ae 5a ce bd
       0.027916666 0.044996634 0.050011143 -0.100758895
000300 29 9c d4 3c 72 81 4d 3b 4c 95 0d 3d 23 16 21 bd
       0.02595337 0.0031357673 0.03456621 -0.03932775
000310 42 d4 95 3d c5 5b 34 bc 51 eb 2b 3c 06 c4 43 3c
       0.073158756 -0.011008208 0.0104931155 0.011948591
000320 c5 34 5f 3d 0f 6c 68 3c 73 9a 9c 3d 26 5c da 3c
       0.054493684 0.014185919 0.07646646 0.026655268
000330 97 88 f7 3d 2e ef a2 bd e8 ab 8c bd f1 1e 58 3d
       0.12086599 -0.07955776 -0.06868726 0.052763883
000340 36 ae d1 3d d6 5a 85 bd 66 e7 8b 3c 1e 55 2c 3c
       0.10238306 -0.06511466 0.017078113 0.01051834
000350 be 21 a3 3d 04 1f 9a 3b 17 c7 98 ba 15 93 af ba
       0.0796542 0.0047034044 -0.0011656013 -0.0013395274
000360 ad 11 91 3d 9d 18 a6 3d 34 e2 a9 bd 0a 7f 48 3b
       0.070834495 0.08110163 -0.08295098 0.00305933
000370 81 72 90 bd c3 82 a1 3c 32 11 72 3b 68 5c 0e 3e
       -0.0705309 0.019715672 0.0036936519 0.13902438
000380 68 26 69 3d b7 77 83 3d b1 1b 0d 3d 79 58 e6 bc
       0.056921393 0.06419318 0.034450237 -0.028118359
000390 cc 43 c1 bd c0 90 54 3c 7b 86 a6 3d 40 b7 c5 bc
       -0.09436759 0.012973964 0.08131119 -0.024135232
0003a0 db af 47 bd f1 3a 18 3c 69 5d 99 bc 7c 5b 8c 3d
       -0.048751693 0.0092913965 -0.0187213 0.06853387
0003b0 f2 f4 1e be e2 4f a0 3d 59 b1 a3 3d 32 a6 e0 ba
       -0.15523127 0.078277364 0.07992811 -0.0017139374
0003c0 2d a9 64 bc 8b 8b 2a bd ea b5 9e bd 6e ba cd bd
       -0.01395635 -0.041636985 -0.07749541 -0.10045324
0003d0 13 03 09 3e 25 5e aa 3c 33 4e aa 3d fc a5 24 bc
       0.13380079 0.020796845 0.083156966 -0.010049339
0003e0 78 d9 71 3d a5 e3 b7 3d 3c 09 32 bb 12 43 32 bc
       0.059045285 0.089789666 -0.0027166149 -0.010880249
0003f0 fd 8c c0 3d 40 34 45 bd 88 21 62 bd 83 62 59 bc
       0.094018914 -0.048145533 -0.05520776 -0.013268116

lstm.bias_hh_l0 f4 [504]
000000 37 81 d0 3c f0 61 43 3c f6 93 c0 bc 40 b7 19 3c
       0.02545224 0.011925206 -0.023508053 0.009382069
000010 4f 17 82 bd 05 f3 b0 3d 8b 79 88 3d 89 74 49 3c
       -0.06352102 0.08640102 0.066638075 0.012295851
000020 8d ef 75 3c 5e fe 92 bc 4f fd e9 3c 23 3c 5e 3c
       0.015010727 -0.017943557 0.02856317 0.013564142
000030 16 04 b9 3d 4a 74 d4 bd c5 bf b4 3d 38 e8 02 3d
       0.090339825 -0.10373743 0.0882564 0.031959742
000040 19 eb 5d bc da b9 56 3d 9e 36 90 bc c8 21 8f bd
       -0.013544821 0.052423336 -0.017604169 -0.06988865
000050 d8 cb ef 3d ac c7 bd 3d 7e b2 14 3d 21 f6 60 3d
       0.11708802 0.092666 0.036303036 0.054922227
000060 54 fc 55 3c e5 e5 02 bd 37 9d 3b bd d9 9b c6 3d
       0.013060648 -0.031957526 -0.04580423 0.09697694
000070 3b 21 0a bd 5c 6e 35 3c de ce c9 3c 5a 0b 55 3d
       -0.033723097 0.011073675 0.024634775 0.05201278
000080 d8 89 47 bd 82 da 9f 3b 26 01 ab 3d 2f 0d 67 3d
       -0.048715442 0.004878343 0.083498284 0.056409057
000090 d8 fa be 3c 33 aa 08 bd c2 d0 05 bd fb f5 6b bd
       0.023312971 -0.03336544 -0.03266979 -0.057607632
0000a0 ae 29 de 3c d4 18 a4 bd 5d e4 bc bd d1 0f f5 3c
       0.027119484 -0.08012548 -0.09223244 0.029914768
0000b0 5f c9 a9 3b f3 c1 c9 bc 9a 4c a6 bc 3f 1e 56 3d
       0.005181476 -0.024628615 -0.020300198 0.05227494
0000c0 88 b6 4b 3e 45 ed 17 bd 30 b3 98 3d 87 80 d9 3d
       0.19893849 -0.037091512 0.07456052 0.10620218
0000d0 b1 1d 02 bd f3 82 03 bd 59 d5 f4 3c 2e b4 ba 3d
       -0.031766597 -0.032107305 0.029886888 0.09116398
0000e0 19 a6 e3 3c e7 92 a4 3b 50 6a 0d bc da 03 1c bd
       0.027789162 0.005022395 -0.008631304 -0.03808961
0000f0 93 36 0b 3c 75 35 a1 bd b7 29 e6 3d cd 92 f2 3c
       0.008496898 -0.07871524 0.11238425 0.029611016
000100 44 8b f6 bc 96 9e 69 bb c0 d4 c9 3c 55 e8 e1 3b
       -0.030095704 -0.0035647503 0.02463758 0.006894151
000110 22 17 ba 3c e5 b9 63 bd 11 77 b0 3d c7 b3 94 3c
       0.022716109 -0.055597205 0.0861646 0.01815213
000120 fc bd 01 3e e8 35 9c bd 0a 6c 60 3d 61 01 a6 bd
       0.1267013 -0.07627469 0.054790534 -0.08105732
000130 18 d9 83 3d 8a ba a0 3d 8a d3 50 bd 30 42 ac 3d
       0.06437892 0.078480795 -0.05098299 0.08411062
000140 b5 08 74 bc bf 76 52 bd 1c 8c d4 3b dc 34 0d 3d
       -0.014894654 -0.051382776 0.006486429 0.03447424
000150 a9 f6 8d 3d ac 13 28 3d 51 a9 1f 3d cf a1 53 3d
       0.06931812 0.041034386 0.038979832 0.051667985
000160 f5 d6 ff 3c 2b a6 13 bd d6 03 e9 3d cc 5e 19 bd
       0.03123043 -0.036047142 0.11377685 -0.03744392
000170 66 da 80 3d 0f 8c b5 bc 5e cb c5 3c 48 67 b2 ba
       0.06291656 -0.022161512 0.024144825 -0.0013611102
000180 7f 3c f8 bc 82 79 b2 bc 33 b7 7f bc c7 36 26 bc
       -0.030302284 -0.021786455 -0.015607643 -0.010144896
000190 5b 4a 35 3d 03 7c b1 3d ba e4 5c 3d 5c 22 15 3d
       0.044260364 0.086662315 0.05392907 0.03640972
0001a0 cf 82 2f bd 25 49 ef 3d b4 1f 30 bd 38 b1 80 3d
       -0.04284936 0.11683873 -0.042998984 0.06283802
0001b0 14 75 99 3d 2f c4 b9 bc ce 35 68 3c 15 b9 9d bd
       0.07493034 -0.022676555 0.014172984 -0.07701317
0001c0 31 59 50 bd 6c 8e 04 3d ab 54 91 3d 3f ec 8a 3d
       -0.05086631 0.032362387 0.07096227 0.067833416
0001d0 81 b9 d2 bc 55 36 06 3d 59 82 c0 3d 5e ed 89 3d
       -0.02572322 0.03276666 0.09399862 0.06734727
0001e0 05 9b 51 bc af 48 64 bd de 3d 7c 3d 49 d5 ef bc
       -0.012793307 -0.05573338 0.06158244 -0.029276507
0001f0 43 8e 57 bc bd 91 f0 bc 6b de 93 3d ff 00 c7 3d
       -0.013156476 -0.029366368 0.07220157 0.09716987
000200 af 36 48 bc 9f 65 46 3d a9 11 9d bd b1 cc 2e 3d
       -0.012220069 0.048436757 -0.07669384 0.042675678
000210 fc 2c e7 3d 5f ce ab 3d 44 81 f2 3d 78 8c 2e bd
       0.11287877 0.083889715 0.11841062 -0.04261443
000220 b4 95 07 3d ff 78 89 bd 8d db 80 3c 3a be 9a 3d
       0.033101752 -0.06712531 0.01572969 0.07555814
000230 fc cd bd 3b 49 66 2c 3b b5 4c 04 bd 55 93 67 3d
       0.0057923775 0.0026306084 -0.032299716 0.05653699
000240 84 b5 2d bd 3a 72 69 3c 69 90 66 bd c5 9c 88 3b
       -0.042409435 0.014248425 -0.056290064 0.004169079
000250 3b cc 8f bc 31 3a c4 bc f9 b2 37 bd 80 b2 c1 3d
       -0.01755344 -0.02395353 -0.044848416 0.09457874
000260 90 a9 53 bd 27 93 1f 3d 79 36 bd 3d 5f 3c a8 bd
       -0.05167538 0.038958695 0.092389055 -0.0821464
000270 08 31 b9 3d 77 f4 f7 bc a0 37 92 3d 83 ae 6d bc
       0.09042555 -0.030267937 0.07139516 -0.014506939
000280 f3 80 8d bd e1 5d 90 bd 54 63 9d bd 50 17 94 bd
       -0.06909361 -0.07049156 -0.07684961 -0.07231009
000290 c9 be ae bc b8 43 df ba 3a a7 35 bd b6 71 58 3c
       -0.021331208 -0.0017033732 -0.044348933 0.013210705
0002a0 d2 54 7d 3d 63 cd 10 3c 58 9d 94 bd 94 d9 c7 bd
       0.06184847 0.0088380305 -0.072565734 -0.097582966
0002b0 41 3a 7a 3d b2 17 a9 bc 69 a7 8a 39 8f fd 04 3c
       0.06109071 -0.020641182 0.0002644614 0.008117094
0002c0 19 c4 bd 3d 9a 7b 98 bd 3d 70 d4 bb 51 fd 62 bc
       0.09265918 -0.0744545 -0.0064831064 -0.013854341
0002d0 c2 ab c5 3d 80 df 0d 3d b6 cb 8d bd e2 c7 84 bc
       0.09651901 0.034636974 -0.069236204 -0.016208593
0002e0 43 b3 76 3d d7 ab 52 3c 82 14 15 3d 38 9d 68 bc
       0.06022955 0.012858353 0.03639651 -0.01419764
0002f0 d4 e9 21 3d 28 c0 d8 bd c5 aa d2 3d ea b3 84 bd
       0.039529637 -0.10583526 0.10286478 -0.064796284
000300 e7 1e b5 3c fd a5 0e 3d 59 84 ab bd a7 4e 57 bd
       0.022109462 0.034826268 -0.08374853 -0.052565243
000310 cb 77 1b bd 3e 81 56 bd 8c fc bc 3d c1 48 8f bd
       -0.03795604 -0.05236935 0.09227857 -0.069962986
000320 09 33 c5 bc a0 be a2 3d 12 69 35 bd a1 03 77 bd
       -0.024072187 0.07946515 -0.044289656 -0.060306195
000330 dd 75 e4 3c aa 5b a0 3c 3c 62 99 3c d9 e2 a9 bd
       0.027888233 0.019574959 0.0187236 -0.08295221
000340 9b e1 ae 3d 55 df 62 3c 86 91 2c bd eb 8b 1f bd
       0.085391246 0.013847192 -0.04213097 -0.038951796
000350 77 1a a5 3d d5 97 f2 bd 81 e5 bf bb ad 11 f9 bc
       0.080616884 -0.11845366 -0.0058562164 -0.030403936
000360 3f 3a 38 bc c2 c9 66 3d 1a e5 7c bd 48 45 41 3c
       -0.011244356 0.056344755 -0.061741926 0.011796303
000370 ed ef bb bd 7b 2f 9f bc b3 c8 ea 3d cd 59 f3 3d
       -0.091766216 -0.01943182 0.114640616 0.118823625
000380 65 19 15 bd 0c fd 41 bd 7e 3c 5a 3d bc 70 92 bc
       -0.03640117 -0.047360465 0.053280346 -0.017876022
000390 8c 56 33 3d 75 17 c0 bb d6 77 a4 3d 4f 2c 8c 3d
       0.04378371 -0.0058621713 0.080306694 0.06844389
0003a0 1b 9a cd bd d3 fc 31 bd ac 82 08 bd ee 9b b9 3c
       -0.10039159 -0.043454003 -0.033327743 0.02265736
0003b0 b1 9d d8 bc 17 03 55 3b 34 3c bd 3d 11 b6 a0 3d
       -0.02644238 0.0032503062 0.092399985 0.078472264
0003c0 be f1 22 3d 78 1d 23 3d f2 dc 94 bd 98 d8 2f bb
       0.039781325 0.039823025 -0.072687045 -0.002683198
0003d0 d7 b0 d0 3d 43 96 5e bd 4f 59 41 bc 08 0c 8f 3d
       0.101899795 -0.05434252 -0.011801078 0.06984717
0003e0 4e 66 87 3d 5b 32 83 3d 90 56 f2 3c 8b 05 aa 3d
       0.0661131 0.06406089 0.029582292 0.083018385
0003f0 e3 a3 9c bd 5f f6 0f 3d cf 23 2b bd 4e cc 81 bd
       -0.076484464 0.035147067 -0.041782197 -0.06337796
