surrogate/run/train/routing/saves/train-test2/05min/reservoir/state_dict.pt (torch, 535012 bytes, 8 tensors)

pre_sequence.0.weight f4 [126, 34]
00000000: 226d 5cbd c45a ec3c def9 a63c 2d92 31bc
00000010: bcb7 4d3d 89f8 7fbd 1cb5 243e 2239 013e
00000020: 4eeb 02be e781 393d 2438 853d 30bf 13be
00000030: b07e 7abd ea59 6cbd 2e16 283e 3d65 103e
00000040: ea57 aabd 5aa2 d93d 9eef 243e 6046 bdbc
00000050: 1f3f 023e eecb adbd 06f3 173e a82d 913d
00000060: b8f6 d53d 2977 ffbd cdca cf3d 9905 3d3c
00000070: 4ddc e9bd 086f 393e 9b69 0d3e 6eae 053c
00000080: f698 eb3d 88e4 043d edf7 0cbe 4105 e33d
00000090: 6da9 013e 9dae e2bd a525 c33b 1e25 e9bd
000000a0: 9bc8 383d 0a8a c0bc 4983 be3d d942 9cbd
000000b0: 9f4d 28be dd97 dfbd 3460 3cbd cd84 43bd
000000c0: b934 a6bd a1cb 9ebd c02e f73d 80d2 eb3d
000000d0: 94cf 313e 1f1c e3bd 3588 a5bd f150 0fbe
000000e0: 33fa b5bc 1b27 093e 4407 07bd 88a8 59bd
000000f0: 5e05 9e3d 2ad6 8f3d d000 3ebb 763f f2bd
00000100: 5713 5bbd a69f 1d3e efff 3f3b 433a 8f3d
00000110: cc3e 3dbc 27cc cd3d 546c b03c 06e1 ad3d
00000120: 2ddf c9bd 8c35 f23c 480e f83d 7825 31bd
00000130: a868 7f3d 8b1e 90bc e8c7 26be 3743 923d
00000140: 481e 853d 1669 cb3d 8577 1ebe 31be 113e
00000150: 7dbe e1bd 9c20 16bd 3638 eb3d 0a7c 153d
00000160: 284d 17be 0454 7ebd 9b1d 873d 06be ef3d
00000170: 8210 afbd 1a66 01bd 9e06 d9bd f71a 1abe
00000180: 4bf5 c4bc 0253 13be 89d9 10be f95b babd
00000190: 2143 d83d 52c3 c23c e77a 1fbe 97bf b1bd
000001a0: 398c a5bd 3747 433d 55f1 16be 6d11 0b3e
000001b0: 09bf 4e3d 10ca 8c3d 24b2 153d f493 133e
000001c0: 9847 933d e9ec 953d dfdb ffbd 3947 113e
000001d0: d692 c03d ce11 ec39 ebda ae3d 1bdd 41be
000001e0: 9ce7 50bd 8314 11be 8ca1 28bc 07ef 0e3d
000001f0: fea8 cb3d abaf d43d 0c84 ae3d 5f39 ee3d
00000200: 0062 1c3e dd39 e5bc af4c 62bd d003 ed3d
00000210: 7723 6abd 58c9 613d 956f 06be f384 39bc
00000220: 2544 783d 243b e93d 23bd 8fbd da45 223e
00000230: 13e2 e5bd 3d76 ef3c 8cc6 2c3c daf4 8dbd
00000240: b239 da3c 55fb ddbd aaad 123e ab2e c4bc
00000250: f257 d0bd 0063 af3d cb6a 2ebe dd95 77bd
00000260: 38cb bc3d 0b6a 9b3d 01c1 e33d e8b1 1cbe
00000270: 55c5 d53d bde6 bcbc 6823 7cbd d094 1bbd
00000280: 4794 cebd 1215 ff3b e0f5 a43d a613 85bd
00000290: 3430 0c3e 90d6 613d 9147 0f3d 9b87 03bd
000002a0: 7fbf 31be f1cd bdbc f0d7 39bd 56ed 18be
000002b0: 8289 17be 0881 11bc c0a4 363d 42cf c9bc
000002c0: 5fee ddbc edca 963c c71f f3bd c124 143e
000002d0: e61d e63d eb04 153e 23a3 2abe c260 093e
000002e0: 1155 bf3d 962e b9bd 1ebf fcbd c974 89bd
000002f0: 5a59 373e f53e febd cae5 da3c 2ce9 42bd
00000300: ab6b 2e3e c687 0fbe fb4c 1dbd a01b 1d3d
00000310: 56d9 363c 7070 093d 61f6 dcbd efe6 193e
00000320: 3b17 c23c 4fa8 7c3d d61f 273e 41a7 12be
00000330: c588 2d3d 4bde 57bd dab4 3c3c c40e 363e
00000340: aad0 e43d 5d60 a13d 9862 213d daa5 d3bd
00000350: d86a e9bd e576 91bd 01fb a83d 3667 b43d
00000360: a02b bf3b 7d23 14be 3644 263d af6a 493d
00000370: b9d6 c2bd 44a0 51bd 0314 f63d ba83 4fbd
00000380: 8525 553d 7963 1dbc 66d1 623c fd56 ee3d
00000390: 6acb 1b3e ef96 24be 1648 303d 4cdd 3c39
000003a0: 42e9 253e 1370 293e e866 1dbe 97a2 183e
000003b0: b3b0 acbd 3c51 4abd 3f85 97bc 9d98 bcbc
000003c0: 6dfc ca3d e03b 8dbd 6179 0ebe 7434 24bc
000003d0: 5704 01be bd03 843d 515c 9e3d f6ba dd3d
000003e0: 156f 6fbd 373f 0c3e 4f69 41be 9d2c 163e
000003f0: cd85 8fbd f2eb 4cbc d60c 8cbd 9738 bd3d
-0.053815015 0.028851874 0.020382818 -0.010838074 0.05022405 -0.06249288 0.16084713 0.1261945
-0.12785074 0.0452899 0.065048486 -0.14428401 -0.061155975 -0.057702936 0.16414711 0.1410112
-0.083175495 0.10626669 0.16107032 -0.023104846 0.12719391 -0.08486162 0.148388 0.07088786
0.104474485 -0.124739 0.10146103 0.011536979 -0.11418972 0.18108761 0.13809817 0.008159263
0.11503784 0.032444507 -0.13766451 0.110849865 0.12662287 -0.11068461 0.0059554153 -0.11384033
0.045113187 -0.023503322 0.093023844 -0.07629938 -0.1643586 -0.109176375 -0.045990184 -0.04773407
-0.08115525 -0.07753683 0.12069464 0.11514759 0.17364341 -0.11089348 -0.0808262 -0.1399572
-0.02221403 0.13393824 -0.032965913 -0.05313924 0.077158675 0.070232704 -0.0028992184 -0.118285105
-0.05348524 0.15392932 0.0029296835 0.069935344 -0.0115506165 0.100487046 0.02153603 0.084901854
-0.098570205 0.029566549 0.12112099 -0.043248624 0.062355667 -0.017592689 -0.16287196 0.071417265
0.06499916 0.09932153 -0.1547528 0.14232709 -0.11022661 -0.036652192 0.11485331 0.036495246
-0.14775527 -0.062091842 0.06597444 0.11706166 -0.085480705 -0.031591512 -0.10596965 -0.15049349
-0.024042746 -0.14387134 -0.14145483 -0.09099574 0.10559679 0.023774777 -0.15574227 -0.08679121
-0.08083386 0.047675338 -0.14740498 0.13580866 0.050475154 0.06874478 0.03654684 0.14411908
0.0719139 0.07320578 -0.12493109 0.14187326 0.09403007 0.00045026693 0.08537849 -0.18932001
-0.05100213 -0.14167981 -0.010292422 0.034895923 0.09944342 0.103850685 0.0852128 0.116320364
0.15271759 -0.027981693 -0.055248912 0.11572993 -0.05716273 0.055123657 -0.13128503 -0.0113232015
0.060611863 0.11388233 -0.07018497 0.15846959 -0.11224761 0.029231185 0.010545384 -0.06931467
0.02663884 -0.108389534 0.1432406 -0.023948034 -0.10173024 0.085638046 -0.17032926 -0.060445655
0.092184484 0.075885855 0.11120797 -0.15302241 0.10438029 -0.023059243 -0.061557204 -0.037983716
-0.100868754 0.007784494 0.080547094 -0.06497888 0.13690263 0.055136263 0.03498036 -0.032111745
-0.17358206 -0.02316949 -0.04537195 -0.14934286 -0.14798549 -0.008880861 0.04459071 -0.024634961
-0.027091203 0.01840731 -0.118712954 0.14467146 0.112361714 0.14552657 -0.16663794 0.13415816
0.09342397 -0.09042089 -0.1234114 -0.06711728 0.17905179 -0.12414352 0.0267209 -0.04758565
0.1703326 -0.14016637 -0.038403492 0.038356423 0.011160215 0.033554494 -0.107891805 0.150295
0.023692718 0.06168395 0.16320738 -0.14321615 0.04236676 -0.05270223 0.011517728 0.1777907
0.11172612 0.07879708 0.039400667 -0.10334368 -0.11397332 -0.071027555 0.08251 0.088087484
0.005834058 -0.14466663 0.040592395 0.049174007 -0.09513611 -0.05117823 0.12015536 -0.050662734
0.052037735 -0.009606236 0.01384387 0.116376854 0.15214315 -0.16073202 0.043037497 0.00018011517
0.16202262 0.16546659 -0.15371287 0.14905773 -0.0843214 -0.049393877 -0.018496154 -0.02302199
0.09911428 -0.06896186 -0.1391349 -0.010022271 -0.12599312 0.064460255 0.07732452 0.108266756
-0.058455545 0.1369599 -0.18887828 0.14665456 -0.07007942 -0.012507426 -0.06838386 0.09239309

pre_sequence.0.bias f4 [126]
00000000: 769c 023e a091 203e e234 e03d d949 c0bd
00000010: 987e 033d 2c26 383e 03cb 7ebd dc47 fb3d
00000020: 6960 f03d cc77 383d fcd9 743d d49d 223e
00000030: d7fa 493d ac9c ba3d 04cb 5a3d 1e32 913d
00000040: 008e 80bd 03db 22be 8f53 253e d0d5 1c3e
00000050: bbb3 83bd 80e3 703d 0ce7 403d ad50 c13d
00000060: 7e64 133e eaa3 c33d 6d3e 06bd ec9a b8bd
00000070: de6a 1cbe 26b8 df3d ce9c cb3d bbdd 44bd
00000080: 4bae 65bd 52bc 9ebc 3340 8cbd d195 f03c
00000090: 3cee 603b 9faa 353c 8ba2 d2bc 7726 f9bd
000000a0: 0185 bc3d 83d1 aa3d 8583 d23d 06e2 cabc
000000b0: f5ef 99bd 1c13 fc3d a212 9abd 3378 9dbd
000000c0: 4ab4 273e e03e d2bd 320f bc3d 8feb b03d
000000d0: 5178 2ebe 2005 1a3d c7eb 70bc 097a f93c
000000e0: 4313 19be a7f9 ba3c 9f5f 28be df71 6abd
000000f0: 2978 25be e96e 60bd fc3e 2abe a498 3e3c
00000100: 1dd1 713d 54d5 c53d 50ee 0f3e 67cc 703d
00000110: f760 103e 9fda 9fbd 0f8a c53d b4b2 25be
00000120: e88c d63d 2b82 133e a24e 2b3e d0af 27bd
00000130: 0462 e2bc 2336 2fbd c657 a53d 2157 12be
00000140: 80f0 cdba 6cc5 62bd f8c0 0f3d 9644 29be
00000150: 322b 1dbe e52c 11be 9f37 abbc 030d 90bc
00000160: 9b24 1dbe 6e88 153e 4fcc 16be 0a93 023e
00000170: 8679 073e 0a3f 01bd 4cfe 01be 5c08 77bd
00000180: 7b50 a3bd 4d8c 40bd ac75 e93d f696 25bc
00000190: 243f e8bd 44cd 07be d76d d8bd a510 20be
000001a0: 47ed bdbd 3eb3 2bbe 724b d1bd 8286 b83d
000001b0: d80d 0bbe 22a7 633d 0d1c ca3d 6a3f 1a3e
000001c0: 0bcf 0cbe 32ac aabb 700e 05bd 66e7 56bd
000001d0: 2189 283d 2e41 a23d 31e8 883d 9a2f a23d
000001e0: ffec 053e 3ac4 023e 0c03 bd3d f62a c9bd
000001f0: f9c5 223e 7df1 a43d
0.12754998 0.15680552 0.109475866 -0.09389085 0.03210315 0.17983311 -0.062205326 0.122695655
0.11737139 0.045036122 0.0597782 0.15880519 0.049311485 0.09111914 0.053416267 0.07089637
-0.06277084 -0.15903859 0.16145156 0.15315938 -0.06430765 0.05881071 0.047095343 0.09439216
0.14393803 0.095527485 -0.032774378 -0.09013924 -0.15275142 0.109237954 0.099420175 -0.04806302
-0.05607442 -0.019376907 -0.068481825 0.029368313 0.0034321686 0.0110880425 -0.025712272 -0.1216554
0.09205056 0.083407424 0.102789916 -0.02476598 -0.07516471 0.12308332 -0.07523085 -0.07688942
0.16377369 -0.10265899 0.09182586 0.08638679 -0.17038085 0.037602544 -0.014704651 0.030453699
-0.14948754 0.022824122 -0.16442727 -0.057237502 -0.16159119 -0.054793272 -0.16625589 0.011633072
0.059037317 0.0965983 0.14055753 0.058788683 0.14099489 -0.078053705 0.09645473 -0.16181451
0.104760945 0.14405124 0.16729215 -0.040939152 -0.027634628 -0.04277624 0.08073382 -0.1429105
-0.0015711933 -0.055364057 0.03509614 -0.1653007 -0.15348509 -0.14177282 -0.020900546 -0.01758433
-0.15345995 0.14602825 -0.14726375 0.12751403 0.13229951 -0.03155426 -0.12694663 -0.060310706
-0.07974335 -0.0470088 0.11399397 -0.010106793 -0.11340168 -0.13261896 -0.10567825 -0.1563135
-0.09273773 -0.16767594 -0.10219468 0.0901003 -0.135795 0.055579312 0.098686315 0.15063253
-0.13750856 -0.0052085156 -0.03248447 -0.052466772 0.0411464 0.07922588 0.06684912 0.079192355
0.13078688 0.12770167 0.09229097 -0.09822647 0.15895833 0.08053873

post_sequence.1.weight f4 [4, 126]
00000000: 12ee 29bd eb3a 983d c15b 993d b18e 7a3b
00000010: ec94 dcbc 57de 773d fb9b e4bc 22a9 05bd
00000020: 6bf5 2a3d e340 77ba b966 93bd 543f d3bb
00000030: d2b1 2a3d dae9 693c e621 7ebd 062c 93bd
00000040: 4c7d 123d 4ab5 ab3c 0fb2 263d 17ad 413d
00000050: b58e 78bd b1ad 2f3d a403 983d 5c9a 403d
00000060: 24a3 e2bc be5b 38bd 66d0 443d 2ea9 7e3d
00000070: 9113 f5bc ab0d 823d 293d 473d 8add b0bd
00000080: 6815 a03b cf5d 83bd c96d 75bd 534a 7c3d
00000090: 82ca bf3d 9bc4 263d c6e3 543d f349 773d
000000a0: b35b e13c 0505 c2bd 75a6 333d 07ce 053d
000000b0: 91e9 bc3a fdc3 023d 2181 56bd a49e 403d
000000c0: e970 bc3c 2f73 aabd bd15 103d a07d 4c3d
000000d0: a575 93bd 34fb 36bc d92c 783c 7ba3 463d
000000e0: 95d1 dd3c 4345 6ebc 0a72 afbb e3f8 2bbd
000000f0: efca 8c3d 0a8e 92bd 342b 53bd febb b4bc
00000100: 7d97 59bc cf18 c1bd 6464 8abd 212a 98bd
00000110: 5f8c be3d d45a b8bd 1418 0cbd 38a0 663d
00000120: 9314 c13c bb8b 0d3d 6a57 883d 98a0 723d
00000130: b3ca 77bd 37a3 12bd 2178 a0bd d5b8 3fbd
00000140: bc66 14bd 391d 343d 4b75 43bd ab3a 8bbc
00000150: 0db2 853c 9d22 193d b4f5 d0ba 2e36 7b3d
00000160: 65a5 54bd 4f79 c0bd 54a7 863c 0343 61bd
00000170: a2c2 f0bc 3f60 083d 6c78 79bd 7acd e5bc
00000180: 58b9 b53d 8b16 393d b8b2 10bc cadc 76bd
00000190: c61e 94bd 7b8a 803d 414c b0bc 0328 15bd
000001a0: d3e9 c5bd 5b19 b9bd 4db6 6dbd 2631 703d
000001b0: 0796 e8bc 74f4 623d cd63 f63c 378f 05bd
000001c0: e24e 6dbc 6f47 093c e5e9 dc3b 4474 413d
000001d0: 13cc 363d d8cd bbbd 2ed8 d13c ad2a 93bb
000001e0: 1573 643d 4670 d0bc c564 9cbd 87ce 77bd
000001f0: 70de babd 3b65 133d 9f46 91bd 2a84 243d
00000200: a4e0 c2bc 03fa 883d f893 94bd 4b8b 933d
00000210: fc00 99bd cb9b 1e3d f27b 0abd bfd1 5a3d
00000220: 1476 433c a7b2 49bd b31e 483d b9c5 94bc
00000230: 69a4 ac3c 8ffe 2dbd f449 963d 4f81 39bd
00000240: 8fe5 8a3d ff75 f53b abf4 05bd fc54 223d
00000250: 0e05 a53d 55e8 013c 5e2f 7f3d 1bb3 5dbd
00000260: b887 613d 2c32 443d 8c40 a9bd 554c 513d
00000270: a76a 723d 116b 06bd 2f30 dcbc 7710 3e3d
00000280: be95 99bd ef19 3d3d d720 3a3d 44c4 4c3d
00000290: 8c77 26bd c7fb ba3d 8bba 923d 95ec b9bd
000002a0: b1a6 ed3c 0b17 ebbc 1103 283b a822 9a3d
000002b0: abe1 923b 75b8 65bc b963 593d 93df ba3c
000002c0: d41c 95bd caa2 20bd 3f25 23bd 54cc 8cbd
000002d0: b4a9 ac3d ddd9 9e3d c101 ad3d 5d7b 9d3d
000002e0: 3c87 3a3d 7eef 6fbd 927b 103c 1ae9 b1bc
000002f0: 50e6 17bc c6ca 40bd 2f8f 7dbd e0f8 c9bd
00000300: 8f6e d9bc bc91 8bbc 4900 b33d 9527 babd
00000310: d679 b73b 0a8b 893d 21c2 1bbd 652f 54bd
00000320: 4cb5 bbbc bf1e 58bd 168d 8abd 9c04 7fbd
00000330: fd85 88bd 0343 afbd 668d 7c3c 259c 453d
00000340: d86b 593d 21ab 0c3c f5cc 0ebd 628e 7c3d
00000350: 807b 3d3c 3fb2 64bd 17dc 523d 345d 163d
00000360: 3f20 87bd 2960 86bc 5eb9 dbbc e807 b43d
00000370: 0abc 103c 1668 883d 603e 5c3d c5e5 693d
00000380: 8f3e 0d3d d785 03bd 8a70 98bd 8b40 14bc
00000390: d62a 8dbd 505a 8c3d 8469 53bb 71e7 fcbc
000003a0: fb7d 91bd 1156 efb9 6f3f a1bd dee1 873d
000003b0: 2d47 91b9 367b 41bd eda9 1e3d 9868 9ebd
000003c0: edd9 76bd 749a 193c 8987 8abc 8333 c5bd
000003d0: f949 833d e09c a2bc a309 153d 6acd f63a
000003e0: dcdc 97bc 9275 4ebd b98a c93c 1194 623d
000003f0: b529 55bd d011 ca3d 28fb 9f3d 2b01 d43d
-0.041486807 0.07433113 0.07488204 0.0038232023 -0.02692648 0.060514774 -0.027906409 -0.032632
0.041737955 -0.0009431971 -0.07197327 -0.0064467583 0.04167349 0.014276946 -0.062044047 -0.07186131
0.035764024 0.020960469 0.040697154 0.047284212 -0.06068297 0.042890254 0.074225694 0.04702221
-0.027665682 -0.045009367 0.048050307 0.06217306 -0.029916557 0.06350263 0.04864231 -0.08636005
0.0048853643 -0.06414377 -0.059919152 0.06159432 0.09364797 0.04071484 0.051975034 0.060373258
0.027509546 -0.09473614 0.043859918 0.032667186 0.001441287 0.03192519 -0.05236924 0.04702629
0.023003059 -0.08322751 0.03517698 0.049924493 -0.07200173 -0.01116829 0.015147411 0.04849575
0.027077476 -0.0145428805 -0.0053541707 -0.041985404 0.06874644 -0.07155998 -0.051554874 -0.022062298
-0.0132807465 -0.0942856 -0.06757429 -0.074299105 0.093041174 -0.09001699 -0.03420265 0.05630514
0.02356938 0.034557085 0.06657298 0.059235185 -0.060496043 -0.035800185 -0.07835413 -0.04680713
-0.036230788 0.04397318 -0.04771928 -0.016995749 0.016320253 0.037386525 -0.0015942366 0.061330967
-0.051915545 -0.09398138 0.01643721 -0.054995548 -0.029389683 0.033294912 -0.06090586 -0.02805208
0.08873242 0.045187514 -0.008831672 -0.060269155 -0.07232432 0.06276413 -0.021520736 -0.03641511
-0.09663739 -0.09038039 -0.058035184 0.05864062 -0.028391851 0.05540891 0.030076886 -0.032607283
-0.014484139 0.0083788475 0.0067417496 0.04723002 0.044628214 -0.09170121 0.025615778 -0.0044911713
0.055773813 -0.025444161 -0.07636408 -0.060499694 -0.09124458 0.035985213 -0.07093548 0.040165104
-0.023788758 0.06688311 -0.07254785 0.072043024 -0.07470891 0.038722795 -0.03380961 0.053422686
0.0119300075 -0.04924264 0.048857402 -0.018160688 0.02107449 -0.042479094 0.07338324 -0.045289334
0.06782066 0.007490873 -0.032704037 0.03963183 0.08057605 0.007928927 0.062301032 -0.054125886
0.055061072 0.04789941 -0.082642645 0.051098187 0.059183743 -0.03281695 -0.026878444 0.04640242
-0.07499264 0.04616731 0.045441475 0.04999186 -0.040641353 0.09130054 0.071644865 -0.090783276
0.029010149 -0.028697511 0.0025636593 0.075261414 0.004482468 -0.014021029 0.05307362 0.022811687
-0.07280889 -0.039217748 -0.039830443 -0.0687491 0.08430806 0.07756398 0.084476 0.07689545
0.045539126 -0.058578007 0.008818524 -0.021717597 -0.009271219 -0.04706838 -0.06190413 -0.09861922
-0.026541976 -0.017037265 0.08740289 -0.09089581 0.005599241 0.06715973 -0.038026933 -0.05180301
-0.022913598 -0.052763697 -0.06765191 -0.062260255 -0.06666181 -0.08557703 0.015414571 0.048244614
0.053081363 0.008585722 -0.03486343 0.061659224 0.011565089 -0.05583405 0.051479425 0.03670998
-0.06597947 -0.016403275 -0.026821788 0.087905705 0.0088338945 0.06660478 0.053770423 0.05710389
0.03448349 -0.03211006 -0.0744334 -0.009048591 -0.06892936 0.06853163 -0.0032258937 -0.030872079
-0.07104107 -0.00045649757 -0.07873427 0.066348776 -0.00027709585 -0.047236644 0.038736273 -0.077347934
-0.060266424 0.009375203 -0.016910331 -0.09628966 0.064105935 -0.019850194 0.036386143 0.0018829529
-0.018537931 -0.050405093 0.02460228 0.05531699 -0.052041728 0.09866679 0.07811576 0.10351785

post_sequence.1.bias f4 [4]
00000000: 5a4b fcbc 7695 ab3c bf7c 0c3d dea0 11bd
-0.03079765 0.020945292 0.034298655 -0.035553806

lstm.weight_ih_l0 f4 [504, 126]
00000000: 70a8 bebc f40c 8dbd 6996 59bc df57 9a3d
00000010: 3836 993c 62cf d4bd 90a7 2d3d 7f16 9bbd
00000020: b535 2c3c b3a9 863d d26c 67bd 7340 8fbc
00000030: bddc 52bc 3b26 ddbc 18ec bb3d d02c 7d3d
00000040: ac32 50bd 18db 9e3d e7e2 89bd efa8 7cbd
00000050: dabd 92bd 188b 31bd 289a 893d 1319 6cbd
00000060: 8ad0 203d c2b0 f83c c4be 47bc accb bcbc
00000070: 801f 793d d70f 87bd d8df 893b 752b acbc
00000080: e8c8 3b3d 4071 343d 3890 083d d9d4 9ebd
00000090: e68d 7a3c d3b8 8dbd 78f3 61bd f23f 92bc
000000a0: 57b2 a4bd 88a2 6c3d 4eec 6c3d bb54 b03b
000000b0: 1aab 4f3d cffd b3bd 480c 823a a56a 7ebd
000000c0: e806 8cbd dab3 8f3d 8548 b9bd f55f b4bd
000000d0: 52a8 babd c7a1 2abb b73a 0e3c 8097 983d
000000e0: 7979 d23c 7688 aebd 43a9 4a3d e6a3 93bc
000000f0: b62b 433d 24d0 633c 4402 f63c 4883 773d
00000100: 8822 97bd 5559 27bd 65ca 39bd d6ec cdbd
00000110: 9eca 1c3b e1f1 6dbd 882f 23bd 264a f0bd
00000120: 4a3a 88bd a35d 233d 5e98 773d ab41 153d
00000130: d561 7a3d bb96 13ba 06dc 50bd f0d0 90bd
00000140: 52d5 353d 15a6 70bc 5118 dbbd fd18 03bd
00000150: 4598 c13d 6849 713c 2478 61bd 13d4 4bbd
00000160: a69d f338 81e9 ea3b 6fda 153d f06f 4e3d
00000170: 3e4f 943d 6c95 88bd 16fb c0bd 254b a03c
00000180: baab 8e3c c272 b7bd c7f5 59bd f71d b43c
00000190: e91c 353d c0b9 41bd 7a89 b3bd 9910 f13c
000001a0: 8b42 1abd fe26 793d 5129 f23b d253 313d
000001b0: 6756 993d 9ad7 cfbc 47ce 91bc be38 5cbc
000001c0: 0103 00bd f283 7e3d 5fb3 a33d cfa0 0c3d
000001d0: 61f8 c2bd a844 123c 71d3 05bd c9a8 963d
000001e0: 69a6 753d f345 303d 47cf 2a3d d5bb 7cbd
000001f0: d137 8a3d 2631 853d dbcc 9bbc 55f8 59bc
00000200: 0c48 8a3d d4de 90bd 4a16 8d3d e21c 283d
00000210: 8cd0 54bd a65a 9abd 6464 b0bd 9fe6 503d
00000220: 9ca4 643b 8fd4 5cbd e383 e03c 81a9 9bbc
00000230: 07c6 0abd a8cf 833d f6a2 2a3c ef92 7bbc
00000240: f648 6fbc f483 753d 2a3e 1d3a f6e6 58bd
00000250: c983 333d 70af 493d 23a0 a93b cb8f b1bc
00000260: da76 52bc 65ec ba3c f290 803d 3405 45bd
00000270: 067e 293b 2f6a 8cbd 0a00 8d3d d362 8e3d
00000280: 36df 633d 7301 d9bc cca3 123d 4ab8 8fbc
00000290: 3d44 c3bc 9a19 273d 62ea 95bd 8b2d 85bd
000002a0: 05cc 463d ddc6 e93b 93ff 993a 4bf7 7dbc
000002b0: 3562 9e3d d647 25bc 60c0 a7bc 05fa e5bb
000002c0: c27f b1bd 9f6a 933c 0429 36bc 114c 9b3d
000002d0: 6409 943d d212 bbbc 94df 7c3d 9fa4 26bd
000002e0: a15d f03c 6f28 2b3d 9d43 24bc cfb1 7a3d
000002f0: e9b8 223c 5408 85bd c0e8 b0bd 3840 973d
00000300: c6ff 6fbb 8b54 94bd eeb1 cabd 4765 333c
00000310: a67c 63bb a9e6 69bd 5ea2 57bc e7c2 9d3d
00000320: 763b 1d3d bc7b 42bd 4f27 8d3d 8f32 89bc
00000330: e0b3 b33b f423 d03c a944 843d 309a 0fbd
00000340: f291 0c3c 31b9 023d ce4d 1b3d 3169 e33c
00000350: d7cc d33b eb31 bd3d 047e 52bd 287b 953d
00000360: 8707 863d 30a9 5dbd dc97 673d 2a7e 87bd
00000370: d2cc f73c c175 2d3c 5ba8 87bd 1657 97bc
00000380: 75fc b8bb b1f9 803d d086 acbb 62fb aabd
00000390: be6d 3bbd ab4d 363a 8b7e 73bd 3288 86bb
000003a0: 7674 63bd 10f1 31bc 38f8 3cbd 8458 203b
000003b0: 482b bb3d 5a79 b6bd 3edd 2c3d 0ff2 b03d
000003c0: d700 c43c 8438 87bd a0df 2f3a 9880 99bd
000003d0: 2c0d 9d3d aa29 8cbd 671a 7fbd ad2a 7a3d
000003e0: 7644 7dbc 22ca ee3c 2d23 9c3d 4168 93bd
000003f0: e8c6 ba3d 4e67 723c 7245 e23c 1fb3 e2bc
-0.023273677 -0.06887236 -0.0132804895 0.07536291 0.018702611 -0.10391118 0.04239613 -0.0757265
0.010510852 0.06575336 -0.056500264 -0.017486786 -0.012870011 -0.026995769 0.09175891 0.061810315
-0.050829574 0.077566326 -0.06732731 -0.061684545 -0.071651176 -0.04334554 0.06718856 -0.0576411
0.03926138 0.030357722 -0.012191478 -0.023046337 0.060821056 -0.06594818 0.0042075925 -0.021016816
0.045845896 0.044053316 0.033340663 -0.07755441 0.01529262 -0.06920018 -0.05516383 -0.017852757
-0.08041828 0.05777219 0.057842545 0.0053811944 0.050700285 -0.087886445 0.0009921873 -0.062113423
-0.06837255 0.07016726 -0.09047035 -0.08807365 -0.09114136 -0.0026036368 0.008680991 0.07450771
0.025692688 -0.085221216 0.049477827 -0.018022489 0.047649108 0.013904605 0.030030377 0.060427934
-0.07379633 -0.040856678 -0.045359034 -0.100549385 0.002392448 -0.058092 -0.03984025 -0.11732893
-0.06651743 0.03988422 0.060448043 0.03643958 0.061128456 -0.00056300656 -0.05099108 -0.07071102
0.04439289 -0.014688035 -0.10697997 -0.032006253 0.09452871 0.014726974 -0.055046216 -0.049762797
0.00011616507 0.007168949 0.036585268 0.05039972 0.07241677 -0.06669125 -0.09422891 0.019567082
0.01741587 -0.08957435 -0.053212907 0.021986945 0.044217024 -0.047296286 -0.08766456 0.02942686
-0.037661117 0.0608282 0.007390179 0.043292828 0.07487183 -0.025371362 -0.017798556 -0.013441263
-0.031252865 0.06213755 0.07993197 0.034333047 -0.09520031 0.008927502 -0.03267235 0.07356412
0.059973154 0.04303546 0.04170158 -0.061702568 0.067489274 0.06503515 -0.019018581 -0.013303836
0.06752023 -0.07073751 0.06889017 0.04104317 -0.0519567 -0.07536821 -0.08612898 0.051001187
0.0034888154 -0.05391365 0.027406638 -0.019001724 -0.03388026 0.06436092 0.0104148295 -0.015354856
-0.014604798 0.059940293 0.0005998338 -0.052954637 0.043826852 0.049239576 0.0051765605 -0.021675011
-0.012845719 0.0228178 0.06277646 -0.048100665 0.002586247 -0.068561904 0.06884773 0.06952443
0.055632792 -0.026489949 0.03580074 -0.01754393 -0.02383625 0.0407959 -0.073200956 -0.06502827
0.048534412 0.007134302 0.0011749141 -0.015500854 0.07733575 -0.010087928 -0.020477474 -0.00701833
-0.08666946 0.017995177 -0.011118177 0.07582868 0.072283536 -0.022836123 0.06173666 -0.04068434
0.02934152 0.041786607 -0.010025886 0.061204728 0.009931781 -0.06495729 -0.086381435 0.07385296
-0.0036620959 -0.07242688 -0.09897219 0.010949439 -0.0034711747 -0.05710474 -0.01316127 0.0770319
0.038386784 -0.047481284 0.06892263 -0.016747741 0.0054840893 0.025407769 0.064584084 -0.035059154
0.008579718 0.031914894 0.037915997 0.02776012 0.006463628 0.09238037 -0.05138971 0.07298881
0.065444045 -0.054116428 0.05654131 -0.06615861 0.030249033 0.010587157 -0.06623908 -0.018474143
-0.0056453296 0.06297625 -0.0052650943 -0.08348729 -0.045758955 0.00069543225 -0.059446853 -0.004105591
-0.055530988 -0.010860696 -0.046135157 0.0024466822 0.091391146 -0.08909865 0.04220318 0.08639919
0.023926182 -0.066025764 0.0006709043 -0.074952304 0.07668528 -0.06843884 -0.06228104 0.061075855
-0.015458217 0.029149119 0.07623897 -0.07197619 0.091199696 0.014795138 0.027621005 -0.027673302

lstm.weight_hh_l0 f4 [504, 126]
00000000: 5850 123d 69b0 0c3d f3e8 0f3d 2bf1 81bd
00000010: eb9b 8dbd 3b43 76bb 40ef 963d 94f7 993d
00000020: 25ac 9d3d 5401 c23b 244a 4c3b 10bb 43bd
00000030: 5b64 0cbc 59fb 4bbd 43e2 7abd 5712 bbbd
00000040: e94d 943d 7ef3 b0bd 4f2f 123d 49d1 5b3d
00000050: 7dc8 2ebd d3d1 b43c 259b 833c 9349 76bd
00000060: 44c6 e5bb 0bec 2e3d 4107 48bd a6ee 81bd
00000070: 5159 8c3d 2221 94bd c157 d93c c481 923d
00000080: 2ef1 08bd fe31 233d 0fa2 0bbd d65e 99bd
00000090: 0bf6 80bd 6ace 61bd 589b 88bd a808 a3bd
000000a0: 8c4e 3f3d 520c 72bd 0fd7 b93c 8783 973d
000000b0: 1434 b33d 9443 adbd 586c 74bd 3ee0 383d
000000c0: 0766 b63a b005 f33c 1613 9f3d c83d 60bd
000000d0: 1cb2 45bd 47ba 6e3d 3ab5 593c c0fe a5bd
000000e0: 5052 0dbd 0df9 5bbd bdbb 98bc 7602 063d
000000f0: f771 ca3d ee07 babd 56ee 38bd 9bee 94bc
00000100: d3ed ce3c 078c 9c3d 9a36 87bd 60ef 07bd
00000110: 446e 0c3d 4ab8 25bd 439e 233d e0e1 013d
00000120: da2a 233d f25f 0ebd ecf2 96bd 3fb2 ddbc
00000130: 84c6 1d3d 8659 ed3c 9e1c cfbd 78e5 8cbc
00000140: 3a97 b9bd 6203 7ebd a477 b0bd ed4d 4c3d
00000150: 8f72 d23c 8639 203d c418 ab3c af3d 643c
00000160: 2348 0b3c 41dc 593d 60f3 ed3c 2c47 91bc
00000170: 91a3 7d3d 519d b93d 7cbd 66bd 2f5d 1dbd
00000180: a1d8 903d 314e 86bd 33cc b53d c562 903c
00000190: 68d9 e0bc 7597 66bc 4195 dd3c 940d 523d
000001a0: 0cf0 6a3c 443d 4f3c b830 c0bc d805 3fbd
000001b0: 0b99 82bc 5acf 96bb 0ef8 84bc 01b0 66ba
000001c0: a002 483d 1904 0f3d 3482 88bc a52a 29b9
000001d0: f98e 4c3d 840f d1bd 5244 5dbd 996b 14bd
000001e0: 6410 ba3d f339 bf3c e0a7 9cbd 3cc2 153c
000001f0: d31f 8dbd 0c8c 99bd e270 523d 12cb 493d
00000200: db6b a5bb 9cb8 f93c 9014 b43a 53b7 aebd
00000210: 31c9 e6bb be87 9d3d 019c 80bc c74d bcbd
00000220: f524 95bc 26a4 8abb ae90 70bd e578 2cbd
00000230: 08ae 25bd a43c 2fbd 7606 57bc e51c 40bd
00000240: 4783 64bd 9749 39bd 5d43 ae3d 6014 d83c
00000250: aa04 27bd a826 96bd 03f6 1dbd 7322 b8bd
00000260: eb03 08bb c0b0 093c b2b4 b2bd dc68 00bd
00000270: f833 afbc 736c 8e3c 5f2a 173d b4a4 a6bd
00000280: ed0e 0bbd a1be 963d 29d7 1f3c 89ef 9a3c
00000290: 3188 8fba 73ac 3dbd 124c 42bd 4d34 9ebb
000002a0: 2772 a83c 7995 9a3d aba6 703d 4a7b 493d
000002b0: c545 a8bd 7aea 823d 7cfe 6cbd 59ce 543d
000002c0: 3aa5 bd3c 3a2e b4bd 05d8 13bd b905 0cbb
000002d0: 4fb1 cabc e791 13bd b2e1 5ebd 4e9e 673d
000002e0: 48b1 c5bd 29dc 8c3d 78a7 babd 4237 86bd
000002f0: 0a0e 383d 56d8 c13d 2a11 25bd 8f01 a93d
00000300: 45fe b43d eda4 153c 2652 91bd c1ba 21bc
00000310: a4fb 703d 0f9a cf3c 2c1d 7dbd fc7e 58bd
00000320: c353 8c3d fe2c 7b3c b48a 1ebd bdef 04bd
00000330: 149c 2e3d 48ae 91bd aebc 6c3d 6cac aabd
00000340: 0309 41bd ad8f 8339 bdf0 c23c 14a8 cb3d
00000350: e9d9 443d 598b 16bd d4f9 48bc f30f 943c
00000360: f0c8 58bc b9a0 a5bd b4f1 643d 583c 613c
00000370: 403d 51bd 3684 8c3d 5267 febc b7b9 d53c
00000380: c81c a8bd 8280 87bc ac82 d53c f5e0 8dbb
00000390: f458 243d 1ee5 8abd c9d1 953d ba78 623d
000003a0: 9642 75bd 263c 543d c7de 8b3d 0544 923d
000003b0: 06be 953b 3ba5 413d 0a2d 88bd 0785 6f3c
000003c0: 8ac5 70bd 986c 5d3d 42fd cabc eeeb 9cbd
000003d0: 6ff7 b83c 4730 bc3b d393 c13d adf1 bb3d
000003e0: 387e 8f3b 659d 763d 12f9 ae3d 9410 873d
000003f0: de06 823d 62ec b0bd f10d aabc e6b0 b4bd
0.035721153 0.034347925 0.035134267 -0.06344827 -0.069145046 -0.0037576694 0.07369852 0.07517925
0.076988496 0.0059205685 0.003117212 -0.04778582 -0.0085688485 -0.04980025 -0.061250936 -0.091343574
0.07241423 -0.086401924 0.03568965 0.053666387 -0.04267167 0.022072708 0.01606519 -0.06012876
-0.0070121605 0.042705577 -0.048835043 -0.06344347 0.06852973 -0.07232882 0.026531102 0.07153657
-0.033433132 0.0398426 -0.034090098 -0.07488792 -0.06296929 -0.055128492 -0.066702545 -0.079606354
0.046705768 -0.05909378 0.022685556 0.07398134 0.087501675 -0.08460155 -0.059673637 0.04513573
0.0013915905 0.029665798 0.07767312 -0.05474642 -0.04826556 0.058283117 0.013287837 -0.0810523
-0.034502327 -0.05370431 -0.018644208 0.03271719 0.09885018 -0.09083544 -0.04514917 -0.018180182
0.025259888 0.076438956 -0.06602211 -0.03318727 0.034284845 -0.040458955 0.039945852 0.03170955
0.03983579 -0.03475947 -0.073705524 -0.027062533 0.038519397 0.028973352 -0.1011288 -0.017199263
-0.09062047 -0.062014945 -0.0861657 0.049879003 0.025689391 0.03911736 0.020885833 0.013930722
0.008501085 0.053188566 0.029046714 -0.017734133 0.061923567 0.09063209 -0.05633305 -0.038418945
0.07072569 -0.065578826 0.088768385 0.017625222 -0.027447417 -0.014074196 0.027048709 0.05128248
0.014339458 0.012648884 -0.02346073 -0.046636432 -0.015942117 -0.004602355 -0.016231563 -0.00088000303
0.04883063 0.034916017 -0.016663648 -0.00016132982 0.049941037 -0.102080375 -0.054020233 -0.036235426
0.090851575 0.023343062 -0.07649207 0.009140547 -0.068908356 -0.07497415 0.051377185 0.04926593
-0.0050482578 0.030483536 0.0013739038 -0.0853106 -0.007043027 0.076919064 -0.015699388 -0.09194522
-0.018206099 -0.004230994 -0.058731727 -0.04210748 -0.040449172 -0.04278244 -0.013124099 -0.046902556
-0.05578926 -0.045236196 0.08508942 0.026376903 -0.040775932 -0.07331592 -0.038564693 -0.08990946
-0.0020754288 0.008403957 -0.08725871 -0.03135 -0.021387085 0.017385697 0.036905643 -0.081368834
-0.03394978 0.07360578 0.009755888 0.018913047 -0.0010950622 -0.04630704 -0.047435828 -0.004828012
0.020562245 0.07548041 0.058752697 0.049189843 -0.082164325 0.06392379 -0.057859883 0.0519546
0.023150075 -0.087978795 -0.036094684 -0.0021365716 -0.02474275 -0.036027815 -0.05441446 0.056547455
-0.09652954 0.0687793 -0.091139734 -0.06553508 0.044935264 0.09465091 -0.040299572 0.082522504
0.088375606 0.00913356 -0.07095747 -0.009871186 0.058833733 0.025342016 -0.0617954 -0.052855477
0.06851914 0.015330551 -0.038706496 -0.032455195 0.042629316 -0.0711332 0.057797126 -0.08333668
-0.047127735 0.00025093314 0.023796434 0.09944168 0.048059378 -0.036753986 -0.012266595 0.018074011
-0.013231501 -0.08087296 0.05589457 0.013747297 -0.051083803 0.06861155 -0.031055126 0.026089532
-0.082086146 -0.01654077 0.026063286 -0.0043297955 0.040123895 -0.06781982 0.07315404 0.055290915
-0.059877954 0.051815175 0.06829601 0.0714188 0.0045697717 0.047276717 -0.066492155 0.0146191185
-0.058782138 0.05405864 -0.024778966 -0.076621875 0.022578923 0.00574306 0.09452023 0.09176955
0.00437906 0.060208697 0.085436 0.06594959 0.06348966 -0.086388364 -0.0207586 -0.08822803

lstm.bias_ih_l0 f4 [504]
00000000: 91a3 053d 3cd8 81bd b9e6 1c3d b939 91bc
00000010: bd1e 8abc 8a15 58bc da7c ab3d 14d7 1fbd
00000020: b786 b83c 052d dfbc 9c7e a03c c2bd 07bd
00000030: a8e2 b8bc 29ed c03d a429 0a3d d461 62bc
00000040: 2824 1c3d a315 963d b477 afbd 8c8f 6e3d
00000050: 53f3 a8bd 2434 31bd 109e 43bd 3a5e a03d
00000060: 9c49 86bc 0ddf 6b3c 5fc5 173d 4645 b73c
00000070: ea78 e0bc 65c2 a53d 7588 74bc 6881 8d3c
00000080: 10f1 a23d 3bdc a2bd da8d 3c3c bf46 c13d
00000090: 70d0 123d a548 a43d fc42 5f3d 4005 5c3d
000000a0: f695 29bd 6192 61bc 870c abbd 09ac 4a3d
000000b0: 9380 833c 2cc7 8a3d dcf0 a73d 18b6 913c
000000c0: da15 87bd 3530 253c 7fbd d6bc 4418 cabc
000000d0: 408c bebc 18df 473c 6185 213d f3b5 68bd
000000e0: aaa8 073d dae9 a33d 113b c83c a63b 1c3d
000000f0: 759a d6bb 544b fc3c 7aef 54bd e41c c43c
00000100: bd88 453d 3e16 8abd 15ae 083d fc3f b53c
00000110: a421 c7bc 2ee8 bc3c 93e4 f53c 66fd 20bd
00000120: 87a7 3ebd 7f1e 81bd 881b f63c d9af 98bd
00000130: a365 813d 6153 99bc 66be 293d 9e73 98bd
00000140: f1a8 8bbd 4aa8 13bd 8cd5 97bc 2ef3 25bd
00000150: 2ec6 07bd ae7b acbb 8696 15bc 567a 6b3d
00000160: af7c a83d 1118 383c 16ad 893c 880e 913d
00000170: 3f9d 8d3d 71ac 9dbc 43f9 a13d 9b76 a83c
00000180: bf58 36ba 2ad7 833d 6c4f 873c ee90 a93c
00000190: e122 85bd d3d9 ab3d 5d22 11bd 08c7 f03c
000001a0: 3405 dd3c 9252 4cbd d38b 8cbd 6046 56bc
000001b0: a3c5 88bc b799 cb3a 3b93 b8bc c249 aebd
000001c0: cab9 4fbd b7c4 df3c e7b0 0bbd eb5a 9c3d
000001d0: 48e0 fabb 9da2 af3d cd1b 2fbc 3bb2 9c3d
000001e0: ef72 383c 5d52 b13d c185 fd3c 7b50 1b3d
000001f0: 411b a63d 7776 263d 3cb1 ffbc 12bd 28bd
00000200: 4bc6 abbb 34b7 e53c db52 f23c b0ab c23b
00000210: 32d7 163d 9949 a73d fa5b 65b8 478a 833d
00000220: 0b4d 993d ecd0 debc 59d7 67bd f2a2 bcbc
00000230: d917 433c 51ab a8bc 9298 04bd 97a1 153c
00000240: 3010 3dbb a8df 4c3d 7759 8c3d 6a72 803d
00000250: c7e7 183c 930b a33d 8512 afbd b12a be3d
00000260: ecba 953c 7dfd 8cbd 3167 aa3d feb1 513c
00000270: b27f 783c 1604 943c b839 983d f60e 00bd
00000280: 1530 5cbd cba8 963d 601b 6f3d 0177 4a3d
00000290: 560d 7dbd cf57 b13d 9950 42bd b1ac 723d
000002a0: 1b19 85bd 6930 5ebd 94fd 7ebd d036 30bc
000002b0: a91f ae3d 9f92 4abd 856e 963d 3ff7 433c
000002c0: 4797 873d 82c7 583d 123c 843c 1b69 523d
000002d0: c05e ba3d f95d 7d3c b28f 78bd 92e5 dd3b
000002e0: ac5d 84bc 5efb dcbc 64ee 7f3d b942 fb3c
000002f0: ec89 4d3d f18c 923d 96c6 083d 15b6 9fbd
00000300: 8e02 753d 021d ba3c 8228 893d 1739 00bd
00000310: ba45 613d ff51 a23c 42ee f4bb e429 b43b
00000320: 0a41 2f3d da03 933c 4de7 9e3d 463c 9b3d
00000330: 79c1 be3d da39 a0bd 5396 5fbd e8a2 b23d
00000340: c8e8 bd3d 8bd3 82bd da8b bbb9 c3f4 273c
00000350: 3dfa b53d 9419 593d e804 b13b f401 863c
00000360: c9cd 6e3d 0f1e 833d 5c6e 2cbd b1ea dd3c
00000370: 744e 24bd c080 893d 1fcf 9abd 3e83 d53d
00000380: fa16 843d ee59 d33d ee42 143d c050 dfbc
00000390: 7ba6 46bd 8ba2 51bc c4f7 4a3d 7491 c9bc
000003a0: 999c 263b c9c3 cf3b 1737 94bc d966 a03d
000003b0: 39d2 18bd 2a0a 8a3d 14a3 8f3d a194 7c3c
000003c0: f5fc cc39 0b9c 54bd 6b23 6bbd ff39 80bd
000003d0: bc12 f03d 0519 2a3d 216f a43d 7a15 c1bc
000003e0: 2fc1 653d 406c 9a3d 903c 0a3c a001 66bd
000003f0: fbc4 b93d f23a 5abd 8061 6dbd 8522 023c
0.032626692 -0.063400716 0.03830597 -0.01772772 -0.01686036 -0.013188729 0.08373423 -0.039023474
0.022525175 -0.027243147 0.019591622 -0.03313995 -0.022569016 0.09420235 0.033731118 -0.013817269
0.03812042 0.073283456 -0.085677534 0.058242366 -0.082495354 -0.043262616 -0.047758162 0.07830472
-0.016392522 0.014396441 0.037053462 0.0223719 -0.027401406 0.080937184 -0.014925112 0.01727362
0.07956135 -0.07952162 0.011508429 0.09437322 0.035843313 0.08021668 0.05450724 0.053715944
-0.04140278 -0.01376781 -0.08351999 0.04948047 0.01605252 0.0677627 0.08200237 0.017787024
-0.06595965 0.010082294 -0.026213406 -0.024669774 -0.023260236 0.012199186 0.03943384 -0.056814145
0.033119835 0.08003588 0.024442228 0.038142823 -0.0065491744 0.030797638 -0.051986195 0.023939557
0.048226107 -0.067425236 0.033369143 0.022125237 -0.024308033 0.02305993 0.03001622 -0.03930416
-0.046546485 -0.06304645 0.030042425 -0.07455415 0.06318214 -0.018716516 0.041441344 -0.07443927
-0.068193324 -0.036049165 -0.018534444 -0.040515117 -0.033147983 -0.005263767 -0.009130126 0.057489716
0.082269065 0.011236207 0.016806167 0.0708285 0.06914758 -0.019247266 0.07908871 0.020564368
-0.0006955973 0.06437524 0.016517363 0.02069899 -0.06500793 0.08391156 -0.035433162 0.02939178
0.02698002 -0.049883433 -0.06862607 -0.013078302 -0.016695803 0.0015533481 -0.022531142 -0.08510162
-0.05071429 0.02731548 -0.034104254 0.07634529 -0.007656131 0.08575938 -0.010687781 0.07651182
0.011257871 0.08658288 0.030947568 0.03791855 0.08110667 0.04064032 -0.031212442 -0.041195937
-0.005242144 0.02804146 0.029580524 0.005940877 0.03682632 0.081683345 -5.4683514e-05 0.06422859
0.07485398 -0.027199231 -0.056601856 -0.023026917 0.011907541 -0.020589503 -0.032372065 0.009132764
-0.002884876 0.050017983 0.068530016 0.06271823 0.009332604 0.07961192 -0.08548454 0.092854865
0.018277608 -0.068842866 0.083204634 0.012798784 0.015167164 0.018068355 0.07432884 -0.031264268
-0.053756792 0.073564135 0.058375716 0.049429897 -0.061780296 0.08659326 -0.047440145 0.059246723
-0.06498929 -0.054245386 -0.06225355 -0.010755256 0.085021324 -0.049456235 0.07345299 0.0119608035
0.06620651 0.05292464 0.016141925 0.051369768 0.091001034 0.015464299 -0.060683914 0.0067717517
-0.016157947 -0.02697533 0.062483206 0.030671464 0.05018036 0.07155789 0.03339251 -0.07798401
0.05981689 0.02271891 0.066971794 -0.031304445 0.054998137 0.01981449 -0.0074746916 0.005498158
0.042786635 0.017946173 0.07758961 0.075798556 0.09314246 -0.07823534 -0.05458672 0.08722478
0.09272915 -0.06388005 -0.00035771617 0.010251227 0.0888562 0.05300291 0.005402196 0.016358353
0.05830172 0.064022176 -0.042097434 0.027089449 -0.04011388 0.0671401 -0.075590365 0.10425423
0.06449695 0.10319887 0.03619664 -0.027260184 -0.048498612 -0.012795101 0.049552694 -0.02460549
0.002542293 0.006340478 -0.018092675 0.07832117 -0.03730986 0.0674022 0.070135266 0.015416295
0.0003909838 -0.051906627 -0.057406824 -0.06261062 0.11722323 0.041527767 0.08029009 -0.023569811
0.056092437 0.07540178 0.008437291 -0.056153893 0.09070774 -0.05327887 -0.05795431 0.0079428

lstm.bias_hh_l0 f4 [504]
00000000: 57a8 a0bc 050b 96bb f966 2cbd 0072 8abc
00000010: 2071 f1bc 3a40 9a3d 936f c63d e5de 3cbd
00000020: 16dd 993c 5a67 68bb 88b3 8e3c 80f6 a9bc
00000030: d0ae 8e3d 0bd9 a2bd 5c73 b13d 62ae 823c
00000040: 80e7 73bc 7dc9 fd3c 3632 0abd c14f 36bd
00000050: 82c4 9d3d b389 a13d b4a7 5e3c 57c5 363d
00000060: 57df 4c3c 4961 62bd 75c3 3fbd b40d 9a3d
00000070: 5985 033c b68c 2bbd 0881 2e3d 845a 583d
00000080: 7b72 96bd b3d9 0ebc 9d82 bc3d 2c35 673d
00000090: 859a 10bc 8ee9 61bd 3b0e 8bbd b6e8 2cbd
000000a0: ebb8 a43b 5ab5 97bd 9da4 6bbd cceb 763b
000000b0: 2caf 33bd 1dab 7dbd 7139 dd3c 14f2 2c3d
000000c0: 8ab0 9b3d 94bf 58bd 18f3 4a3d a1ab 9d3d
000000d0: c90c 8dbc bf01 38bd be16 3c3d a710 a93d
000000e0: e92d 1b3d d07c 6ebc c32c 2fbd 116c 9abc
000000f0: b071 06bd 5647 9bbd fa75 a93d 2e97 663b
00000100: 004c 09bd 9ca6 ea3c 1bc4 ac3c e734 7dbb
00000110: bd10 b0bb 7672 85bd 5eeb 4b3d 5c3a f23a
00000120: 9ab7 823d 31d6 8fbd caf2 253d da1d 92bd
00000130: 665e 0b3d 4d7a a43d b2f8 74bd ef7e a13d
00000140: 89db fcb9 0c4f efbc 8e30 b4bb 9c99 fb3c
00000150: d724 2b3d f417 923d d5c9 e03c b437 d93c
00000160: 551a 2b3d 1159 80bd b38a a73d 5036 67bc
00000170: 957d 3e3d 9634 38bd ea33 423d 853d c5bc
00000180: 5b98 0fbd 90ee 6cbd d050 83bd 37d1 fabc
00000190: 1387 973d eed1 513d ae6f 3c3d 3614 ef3c
000001a0: df93 5abd e213 983d 60a2 1ebd 7b8d 893d
000001b0: 1bb6 703d ce45 e3bc 0571 673d 0464 9dbd
000001c0: d806 54bd 84d0 663d a849 713d 49a7 213c
000001d0: 4be4 91bd 510c 353d 8921 d93d 0bf5 8a3d
000001e0: 270d 5dbb 19c3 a4bd 86dc a93c 32f4 86bc
000001f0: 7b69 24bd b5a4 10bc 258f a73d cfd8 9e3d
00000200: 85dd f1bc ce93 053d e6d7 50bd d995 ac3d
00000210: 7b68 f13d 595d af3d 0730 3f3d bf32 aa3c
00000220: fdae 953d 83aa 97bd 1903 033d 0af6 da3d
00000230: 02fb ba3c 33a0 813c bd75 25bc bd45 703c
00000240: 6f49 41bd 663b b83d a3f9 5bbd 28a8 43bc
00000250: 2ecb 9dbc 5f95 2abc 389d c4bc e373 8b3d
00000260: 75d9 b1bb 0adc 9a3d 5455 f03d 133d 6b3c
00000270: 290e 9f3d 5cfd 46bc 5838 073d cec9 eabc
00000280: 9a63 2ebd 0306 85bd 3bd8 f9bc 9c83 63bd
00000290: c77a a2bc fb23 4c3d 750c 33bd 2358 8aba
000002a0: 0056 063d 1b80 ecb9 a7dc 77bd 12ae 8cbd
000002b0: b74b 99bd 45d1 e4bc 064e 353d ba67 2c3c
000002c0: 8fa1 783d cc79 26bd 1cf2 453c b5e9 18bc
000002d0: a9d6 ae3d 616d 253d 35ec a5bd 7bfd 40bd
000002e0: 25fc 813d 7ef2 663d 958c 7d3c 4f83 c73c
000002f0: e058 7e3d 127e aabd 6c7b b33d 8a45 28bd
00000300: c2d7 643d e146 623d 6911 5fbd 04dc 37bd
00000310: 22da 71bd 966d b9bc d598 9c3d 2bed a0bd
00000320: 6c08 1bbd 19f4 ad3d 40d5 3dbd b588 5cbc
00000330: 5ca0 15bb d69e c03c 39e2 0f3d 5f40 55bd
00000340: 1b30 9a3d 889a 8c3c 425a 7abd 4dfb 25bd
00000350: 89fd b73d a153 96bd 1619 1a3a 85ba 5cbc
00000360: 4c86 d4bc 2b2d 1e3d b77f a6bc 63b0 133d
00000370: f890 7dbd eee1 dc3c 47cd 1c3d ff07 ab3d
00000380: cb22 00bd b30f 39bc 5269 633d e033 89bc
00000390: 2e11 bf3d 6a98 03bd 1ac1 463d 8536 903d
000003a0: 25a5 4ebd 54c1 43bd d181 07bd 91e8 ff3c
000003b0: 1f4a c23d dc50 1dbc b1d8 a93d 561c c83d
000003c0: f482 633d 1cd5 013d b8e8 56bd 7b8e 1a3d
000003d0: 8f08 ad3d aac6 11bd 609d 8cbc 9b5e 6f3d
000003e0: e8b5 813d 43ae 483d c556 2a3d 33bb 243d
000003f0: 51a0 acbd 7eec 033d d4f1 34bd a422 32bd
-0.01961152 -0.0045789503 -0.04209039 -0.016900063 -0.029472888 0.075317815 0.0968925 -0.046111006
0.01878218 -0.0035461993 0.017419592 -0.020747423 0.069669366 -0.07951554 0.08664581 0.015952293
-0.014886737 0.030979866 -0.03373929 -0.044509653 0.077034965 0.07887592 0.013589788 0.04462179
0.01250442 -0.05526856 -0.04681726 0.07522145 0.008027398 -0.04188224 0.042603523 0.052820697
-0.07346054 -0.008718896 0.092046 0.056447193 -0.008825903 -0.055154376 -0.067898236 -0.042214118
0.0050269268 -0.07407637 -0.057530034 0.0037677167 -0.04386823 -0.061930764 0.02700493 0.04222305
0.076020315 -0.05291708 0.04954824 0.07698751 -0.01721801 -0.04492354 0.045920126 0.08255129
0.03788558 -0.014556125 -0.042767297 -0.018850358 -0.032823265 -0.075819656 0.08274455 0.0035185325
-0.033519745 0.028643899 0.021089604 -0.0038636269 -0.005373089 -0.06515972 0.04978501 0.0018480527
0.063826755 -0.07023276 0.040514745 -0.071346 0.034025572 0.080311395 -0.059807487 0.07885539
-0.00048228752 -0.029212497 -0.005498952 0.030712895 0.04178318 0.07133475 0.027439991 0.02651582
0.04177316 -0.06266988 0.08180752 -0.01411207 0.046506483 -0.044972025 0.04741279 -0.024077186
-0.035057407 -0.0578447 -0.06411898 -0.03061734 0.0739881 0.051225595 0.046004944 0.029184442
-0.053363677 0.07425667 -0.03872907 0.067164384 0.05876742 -0.027743246 0.05650427 -0.07685092
-0.05176434 0.0563512 0.058908135 0.009866544 -0.071236216 0.0442012 0.106020994 0.067850195
-0.0033729763 -0.080450244 0.020735037 -0.016473863 -0.040139657 -0.008828332 0.081815995 0.07756197
-0.029524574 0.03261166 -0.050987147 0.08427019 0.11787506 0.085627265 0.04667666 0.02077615
0.07308767 -0.074055694 0.031985376 0.106914595 0.022824768 0.01582346 -0.010098872 0.014665064
-0.047189172 0.08995704 -0.05370487 -0.011941947 -0.019261923 -0.010411589 -0.024000749 0.06809213
-0.005427534 0.075615 0.11735025 0.014357823 0.07766373 -0.0121453665 0.033012718 -0.028660681
-0.042575456 -0.06495287 -0.030498615 -0.055545434 -0.019833935 0.049839 -0.04371305 -0.0010554831
0.03279686 -0.00045108874 -0.060513165 -0.06869139 -0.074851446 -0.027931819 0.044263862 0.010522777
0.06070095 -0.0406435 0.012081649 -0.009333064 0.08537037 0.040387515 -0.081016935 -0.047116738
0.06346921 0.056383602 0.015475412 0.024354605 0.062096477 -0.08324827 0.08763775 -0.041081943
0.055869825 0.055243377 -0.054459963 -0.044887558 -0.05904592 -0.022635262 0.07646338 -0.07857736
-0.03784983 0.084938236 -0.04634595 -0.013460328 -0.0022831177 0.023513239 0.035127852 -0.052063342
0.07528707 0.01716353 -0.061121233 -0.040522862 0.08983905 -0.0734017 0.0005878372 -0.013472204
-0.025942944 0.038617294 -0.020324571 0.036056887 -0.06190583 0.0269632 0.038281705 0.083511345
-0.03128318 -0.011295247 0.055520363 -0.016748369 0.09329449 -0.032127775 0.048524 0.07041649
-0.050450463 -0.047791794 -0.033082787 0.031238826 0.09486794 -0.009601798 0.08293284 0.0977103
0.05554481 0.031697378 -0.05246803 0.037733536 0.08448898 -0.03558985 -0.017164886 0.058439832
0.06333524 0.048994314 0.041586656 0.04021759 -0.084290154 0.03220796 -0.044175938 -0.043490067
