surrogate/run/train/routing/saves/train-test2/05min/river/state_dict.pt (torch, 535012 bytes, 8 tensors)

pre_sequence.0.weight f4 [126, 34]
000000 6c 45 c0 bc 90 dd 90 bc c8 1e 72 3d f9 f9 53 3c
       -0.023470603 -0.017683774 0.059111387 0.012938016
000010 82 15 8f 3d f7 20 1c bd 7b 54 c9 3d 02 9a 2b 3c
       0.06986524 -0.038117375 0.098305665 0.01047373
000020 55 48 14 be bb 09 d0 3b 84 0c 81 3d 4e 38 d5 bd
       -0.14480717 0.006348816 0.06301215 -0.1041113
000030 66 ed 6f bc 0b 2d 9f bc 5b 8b 0b 3e 2f e5 ff 3d
       -0.014644003 -0.019430658 0.13627379 0.12494885
000040 f7 23 b1 bd 21 b1 bb 3d dc 71 1d 3e 6b ec bb bc
       -0.08649438 0.09164644 0.15375465 -0.022939881
000050 c9 8e fa 3d b2 99 c9 bd a3 1a 06 3e 60 3d 0f 3d
       0.12234265 -0.09843768 0.13096099 0.03497064
000060 61 ee 9d 3d 0a fd 43 be 2c 75 28 3e 4a 5c 8c 3e
       0.07711483 -0.19139495 0.16450948 0.2741416
000070 a0 c0 13 be 64 dd 0d 3e 22 53 ae 3d 10 80 cd 3d
       -0.1442895 0.13853985 0.0851195 0.100341916
000080 01 7a c6 3e 02 f4 51 3c 13 82 5e bd 15 10 9a 3d
       0.38764957 0.012814524 -0.054323267 0.07522599
000090 70 9b 55 3e ae 79 96 bc 14 0e b9 3d 3c 17 b7 bd
       0.20860076 -0.018368568 0.09035888 -0.089399785
0000a0 1c 21 ca 3b f8 1c 90 bc 68 f1 11 3e 8c f6 3c bb
       0.0061684977 -0.017591938 0.14252245 -0.0028833477
0000b0 e9 04 cd bd cf 20 65 bd d0 45 14 3c b4 d1 d7 bc
       -0.10010702 -0.05593949 0.009049848 -0.026345111
0000c0 18 d1 9b bd d3 dc 85 bd a9 39 b1 3d 73 f5 c3 3d
       -0.07608241 -0.065362595 0.08653576 0.095683
0000d0 f7 9c 3e 3e 00 6b 84 bd 9c 3f 80 bd d9 d7 f1 bd
       0.18614565 -0.06465721 -0.062621325 -0.11808748
0000e0 b3 60 ff bc b5 01 f4 3d 39 c9 e9 3a 57 6b 0b bc
       -0.03117404 0.11914388 0.0017836458 -0.0085094785
0000f0 97 b3 99 3e 81 81 8b 3d 49 dd 22 bd 3c ed 97 bd
       0.3001983 0.0681181 -0.039761815 -0.07418296
000100 c1 e5 c0 bc d5 96 c9 3e a6 c0 21 3c d7 19 68 3d
       -0.023547055 0.39372888 0.009872591 0.056665268
000110 dd 3a 8f bc 5a 02 c6 3d f6 38 1c bb a5 89 8e 3d
       -0.017484123 0.09668417 -0.0023837662 0.06959847
000120 fe cc cf bd 68 38 8e 3d 60 77 a3 3d 87 14 7d bd
       -0.10146521 0.069443524 0.07981753 -0.061787155
000130 09 ff 9f 3d 36 14 00 3d 08 74 e8 bd e8 3c 88 3d
       0.07812316 0.031269275 -0.11350256 0.06652242
000140 ee 64 9b 3c e2 15 9b 3d 52 98 0d be d3 5a 1b 3e
       0.018969025 0.07572533 -0.13827637 0.15171365
000150 38 89 c1 bd d5 b7 ac bd c5 ec be 3d 9b fc 77 3c
       -0.094500005 -0.08433501 0.09322504 0.015135909
000160 22 4e 1a be 6d 3c ef bd fb a9 cd 3b 24 10 4a 3d
       -0.15068868 -0.11681447 0.0062763668 0.0493318
000170 3c 6a 9b bd e5 a9 d8 3d d9 38 32 be 01 71 16 be
       -0.07588622 0.1057928 -0.17404498 -0.14691545
000180 99 31 46 bd 4f f5 29 be 75 7d de bd 6d 61 74 be
       -0.048387144 -0.16597484 -0.10863773 -0.2386529
000190 bd d3 c3 3d 95 65 7c bc 38 71 c4 bd da 50 d0 bc
       0.0956187 -0.015405078 -0.09591907 -0.025429178
0001a0 be 8c ee bd 5c f9 7a bb 9e 36 3e be 32 d0 a9 3d
       -0.11647938 -0.0038295602 -0.18575522 0.08291663
0001b0 a5 e2 5a 3c 1f 61 6f 3d 60 f2 ce bc 37 7e 5e 3a
       0.0133597 0.05844223 -0.025262058 0.00084874354
0001c0 cc ae 07 3d 47 b7 9c 3d 50 eb dc bd 80 f6 3b 3e
       0.033125684 0.07652145 -0.1078707 0.18355751
0001d0 ce 7e 98 3d 47 01 67 bb ec f7 80 3d 24 75 37 be
       0.07446061 -0.0035248564 0.06297287 -0.1791578
0001e0 53 bb 4f bd bb 16 15 be 33 f2 53 bb 69 67 18 3d
       -0.050715756 -0.14559452 -0.0032340407 0.037207995
0001f0 79 f5 ba 3d 9f e4 a9 3d 67 0b 8d 3d 81 55 5f 3d
       0.091288514 0.08295559 0.068869404 0.054524902
000200 8f 7e 71 3e 1b 59 e0 bd 28 04 dc bc 67 4c ce 3d
       0.23583435 -0.109544955 -0.02685745 0.10073166
000210 ea 4a 85 bc c9 5d 23 3e 19 0b 70 be 35 2b 16 3d
       -0.016271073 0.15953745 -0.23441733 0.0366623
000220 93 32 a5 3c 5a 44 16 3e 93 c5 06 bd 81 8c 2c 3e
       0.020165717 0.14674512 -0.032903265 0.16850473
000230 a2 a8 ab bd 6b 38 49 3d 26 b3 5c 3c 01 36 5d bd
       -0.083817735 0.04912607 0.013470447 -0.05400658
000240 a2 7e 15 3d 07 1d bf bd 6e 3c c0 3d b9 2c 40 3b
       0.03649772 -0.093317084 0.09386526 0.0029323532
000250 e3 db 5f bd 1c 92 91 3d c2 62 18 be ae 0c 23 bd
       -0.05465306 0.07107946 -0.14881423 -0.039807014
000260 84 cf 88 3d 6f d1 8d 3d bb 65 ff 3d 6e 20 00 be
       0.066802055 0.06924712 0.124705754 -0.12512371
000270 91 0b aa 3d e3 a9 9a bd f6 1f df bd 8e 53 94 bd
       0.08302987 -0.075519346 -0.10894768 -0.07242499
000280 7b 44 fc bd 0d 4b 90 3c 55 e4 9e 3e c7 5a 32 bd
       -0.12317749 0.017613912 0.3103358 -0.043543603
000290 5f 95 eb 3d ca 8a f3 3c 3b a7 e4 3c 84 44 75 3e
       0.115031 0.029729266 0.027911773 0.23951918
0002a0 db 27 fc bd 60 fa d4 bc a2 6c bb bc c0 ee 7a bd
       -0.12312289 -0.025998294 -0.022878949 -0.061262846
0002b0 80 66 0d be 52 f0 35 bd 97 e5 b1 3b e0 8b 30 bc
       -0.13808632 -0.04441864 0.0054289806 -0.010775536
0002c0 fc 48 b8 bc f5 0e 15 3d 97 bb 25 bd e3 46 d3 3c
       -0.02249574 0.036391217 -0.040462103 0.025790637
0002d0 07 0c 42 3d f1 3a f8 3d 72 14 11 be 56 19 1d 3e
       0.04737475 0.12120617 -0.14167956 0.15341696
0002e0 2a d9 c4 3d 7c 75 87 bd b8 1d f4 bd 8d 9f 32 bd
       0.09611733 -0.06614205 -0.11919731 -0.04360919
0002f0 9f cc cc 3d 35 a2 3a be af 43 99 3c 42 74 a6 bd
       0.09999966 -0.1822594 0.018709032 -0.08127643
000300 fb 5b 09 3e d2 a2 1f be cd 14 06 be 47 cf 09 3d
       0.13413994 -0.15589455 -0.13093872 0.03364494
000310 03 71 88 3e ac 1b 11 3c c0 73 26 be ed 97 49 bd
       0.2664872 0.008856695 -0.16255093 -0.049217153
000320 82 bf ee 3b 63 0a b2 3e 65 5d a1 3d 52 3a 2e be
       0.007286013 0.3477355 0.07879142 -0.17014435
000330 e1 c5 b7 bb db 19 a1 bd 49 fb 22 3c aa a1 29 3e
       -0.005608306 -0.0786626 0.009947606 0.16565576
000340 66 2b d5 3d be 3e de bb 18 70 68 3d e4 6a 7f bd
       0.10408668 -0.006782382 0.056747526 -0.0623578
000350 30 4b 6d bd bb 2e eb bc ea c1 38 3d 63 59 b2 3d
       -0.057933033 -0.028708806 0.045106806 0.087084554
000360 15 5b 8d ba 32 66 02 be b1 43 4f 3d e8 2f 4a 3d
       -0.0010784591 -0.12734297 0.050601665 0.049362093
000370 f4 f7 42 bd a8 b0 51 bc e0 b2 01 3e 11 4c 61 bd
       -0.047599748 -0.012798466 0.12665892 -0.055004183
000380 a2 d8 5a 3d bc f9 82 3d cc b9 9c 3d d6 e0 29 3e
       0.053429253 0.06395289 0.076526254 0.16589674
000390 85 8d 21 3e cf f1 6c bd 62 2f d6 3c e0 fb 5c bd
       0.15776642 -0.057847794 0.02614564 -0.053951144
0003a0 46 50 12 3e 3d 63 5d 3e 3f 96 5a bd 1a ad 27 3e
       0.14288434 0.21619888 -0.053365942 0.16374627
0003b0 b3 a6 09 be 5e a1 05 bc e0 43 fb 3b d0 3b 7c 3d
       -0.13442497 -0.008156149 0.0076680034 0.06158048
0003c0 0e 10 8e 3d ee 41 01 be 13 51 44 be 06 00 8f 3d
       0.06936656 -0.12622806 -0.19171552 0.06982426
0003d0 1c 0e a6 bd 99 25 cb 3c 17 45 ce 3c 3a 09 78 3d
       -0.0810816 0.024798201 0.025179429 0.060555674
0003e0 e5 63 9a bd 8c 00 fd 3d 95 ae 35 be 00 1e e6 3d
       -0.075385846 0.1235362 -0.17742379 0.11236191
0003f0 d9 cd 82 bd fb 12 1b 3c 53 90 89 bd 05 d9 ac 3d
       -0.063869186 0.0094649745 -0.06716981 0.08439831

pre_sequence.0.bias f4 [126]
000000 f2 5f 0e 3e 4f ca 26 3e da 66 13 3e 19 4f 06 be
       0.13903788 0.16288112 0.14394704 -0.13116111
000010 9d 2c 54 3d 6c 2c 38 3e c0 88 0d be b1 3a 46 3e
       0.05180036 0.17985696 -0.13821697 0.19358326
000020 8f 2c 81 3e fc 34 f5 bb 38 9a 25 3d 47 86 0f 3e
       0.25229308 -0.007483123 0.040430278 0.14016066
000030 13 20 c8 3d b8 7a 76 3d f4 39 18 bb f3 39 5e 3d
       0.09771743 0.060175627 -0.0023227902 0.054254483
000040 4c af ae bd 02 c3 6f be b6 99 55 3e 4c aa ef 3d
       -0.08529529 -0.23414233 0.20859417 0.117024034
000050 1d e0 06 be 76 80 54 3c fa 8d 9d 3d 55 15 74 3d
       -0.1317143 0.012970081 0.076930955 0.059590656
000060 2e aa ae 3c f1 2d 2b 3e fc ed bf 3a a3 22 02 be
       0.021321382 0.16716744 0.0014643068 -0.12708525
000070 4c 6d e8 bd ef 56 c7 3d d1 07 c6 3d aa ac 39 bd
       -0.11348972 0.09733378 0.096694596 -0.04533068
000080 3a 7f be bd 3c 7f a5 bd 09 98 b1 bd 7c 6f 22 3d
       -0.0930161 -0.08080909 -0.086715765 0.0396571
000090 aa 54 c6 3c 27 95 2f bd 62 6b 51 3d 4d a8 b9 bd
       0.024210293 -0.042866852 0.0511278 -0.09065304
0000a0 d6 90 24 3e 63 54 9f 3d cf bd 90 3d 72 b9 0f be
       0.16070876 0.07779767 0.07067453 -0.14035586
0000b0 d6 0f ae bc 0a 5d 80 3d f0 3b d7 bd 30 2e dd bd
       -0.021247786 0.06267746 -0.10509479 -0.10799825
0000c0 e3 6c 2a 3e 28 1d 02 be 8e a0 b5 3d 88 ec cd 3d
       0.166431 -0.12706435 0.08868514 0.100548804
0000d0 09 0d 55 be 37 9c d8 bd e2 15 da bd b9 29 35 3d
       -0.20805754 -0.105766706 -0.10648705 0.044229243
0000e0 a8 65 2e be a9 db 77 3d 98 47 f3 bd 45 24 31 be
       -0.17030966 0.06051222 -0.1187889 -0.17298992
0000f0 92 c6 54 be 30 ae 41 be bd 3a 33 be c5 f1 0e 3d
       -0.20778874 -0.18914104 -0.17502876 0.03489854
000100 fa 79 e8 3d e7 70 b7 3d b1 aa 3d 3e 92 51 40 bd
       0.1135139 0.08957081 0.18522145 -0.04695279
000110 37 97 96 3d 68 a9 be bd 1b cf 09 3e e8 44 c3 bd
       0.07353061 -0.093096554 0.1345791 -0.09534627
000120 23 e1 9f 3d d7 e3 07 3e 0a 3e e4 3d c3 f6 e3 bd
       0.07806613 0.13270508 0.111446455 -0.111310504
000130 8a 98 ef bd 7d 92 83 bd 32 43 92 3d 11 81 1d bd
       -0.116990164 -0.06424425 0.07141723 -0.038453165
000140 bd 47 eb 3d 07 50 f7 bc eb e4 32 bc de a6 5c be
       0.11488292 -0.030189527 -0.010918836 -0.2154803
000150 96 1d 70 be bd 1c c4 bd c5 b8 aa 3c 56 ac cd bd
       -0.23448786 -0.09575794 0.020840058 -0.10042636
000160 32 8e eb bc 00 40 f5 3d 35 a0 51 be bd b5 d2 3d
       -0.028754327 0.11975098 -0.2047127 0.1028857
000170 f9 a2 e9 3d 2a ad ca bd cc e5 30 be fa f2 88 bd
       0.11408038 -0.0989631 -0.1727516 -0.06686969
000180 cb c6 cc bd 84 7f 03 be 8f c7 b8 bb a7 72 02 bd
       -0.09998854 -0.12841612 -0.0056390236 -0.031847622
000190 6a d6 c9 bd a0 6b 7b bd 2a 62 97 bd e2 6a 5e be
       -0.09855349 -0.061381936 -0.0739177 -0.2172046
0001a0 0c 36 8f bc 58 3e 66 be 34 d4 9d bd b7 9e db 3d
       -0.017481826 -0.2248472 -0.0770649 0.10723632
0001b0 0a cb b7 bd 6b 0a 82 3d 4f 5c 98 bc da 34 65 3e
       -0.089742735 0.06349643 -0.018598704 0.22383443
0001c0 e7 a5 96 bc 41 64 bb bc bf fb e6 bd 21 2a d3 bd
       -0.018389655 -0.022874953 -0.112784855 -0.1031077
0001d0 a9 41 22 3c ad 61 f9 3d 66 d0 3d bc 82 06 03 3d
       0.00990335 0.12176833 -0.011585331 0.03198863
0001e0 a7 31 13 3e a8 8a 7a 3d 00 eb ab 3d 65 30 43 bd
       0.1437441 0.06116739 0.08394432 -0.047653574
0001f0 8b 98 23 3e a8 17 a1 3c
       0.1597616 0.0196646

post_sequence.1.weight f4 [4, 126]
000000 a3 c1 80 bd fd a3 0f 3d 84 f8 3d 3c 06 ea 57 3d
       -0.06286933 0.0350685 0.011594895 0.052713417
000010 a5 97 71 bd 57 46 ca 3c 2e cc 49 bc fa 03 9b 3a
       -0.05898251 0.024691744 -0.012316747 0.0011826747
000020 d8 83 8e bb d0 29 14 3d a5 3d 50 bd c3 da 1f bd
       -0.004349213 0.036172688 -0.05084004 -0.039026987
000030 08 ce 8e 3d 7e 10 12 3c cc fd 82 bd 25 64 9e bd
       0.06972891 0.008915065 -0.06396064 -0.07733945
000040 1d 73 f4 3c 03 32 5c bb 8e 04 90 3e f3 0e 6c 3d
       0.029840047 -0.0033599145 0.28128475 0.057631444
000050 55 34 28 bd 59 60 13 3d b7 9b 7a 3d 78 22 b0 3c
       -0.041065533 0.035980556 0.061183657 0.021500811
000060 1c a5 2a 3d a3 04 73 bd f3 30 cb 3d cb 19 7c 3d
       0.041661367 -0.059330594 0.09921446 0.061548036
000070 e5 76 8c bd 55 86 3d 3d 21 f6 b0 bc ff 00 05 bf
       -0.06858615 0.046270687 -0.021601738 -0.51954645
000080 36 74 d9 bc 82 02 e3 bc ef bf e9 bd bc 67 37 3d
       -0.026544672 -0.027711157 -0.114135616 0.044776663
000090 41 be 82 3d c8 01 3d 3d 3e a1 9a bc b3 cc 45 3d
       0.06383944 0.046144277 -0.018875714 0.04829092
0000a0 22 a3 23 3d 3f 72 39 be 9c 07 a6 3d 61 e3 1e bd
       0.039950497 -0.18109988 0.0810692 -0.038791064
0000b0 a8 05 95 3c d7 5a 53 3d be de 10 bb 4e cc 97 bc
       0.018191174 0.051600304 -0.002210542 -0.018530037
0000c0 af 69 20 3d e0 58 2a bc 16 ee 8a bc 52 0c 68 3d
       0.039163288 -0.010397166 -0.016959231 0.056652375
0000d0 11 b4 b8 bc 50 c2 65 bc 1b 4b c4 3b 15 ab 16 3d
       -0.0225468 -0.0140233785 0.0059903986 0.03678425
0000e0 f2 26 9d 3c cb f9 b4 3c b0 d3 bf 3d b4 94 99 bd
       0.01918361 0.022091767 0.09366548 -0.07499066
0000f0 aa d7 2c 3d c9 9f a2 bd e4 4a fd bc 9f f3 a4 bc
       0.04219786 -0.07940633 -0.0309195 -0.020135699
000100 b6 f9 9a bd be 39 25 be 6b 75 95 bd b0 87 41 be
       -0.0756716 -0.16135308 -0.07297786 -0.18899417
000110 39 ba 0c 3d cc 79 1a be c6 8a 9d 3b ac 2b 80 3d
       0.034357283 -0.15085524 0.004807803 0.0625833
000120 1b 00 97 bd 53 02 64 bc 34 9a 00 3c ad 79 e7 3c
       -0.07373067 -0.01391657 0.007849265 0.028256262
000130 c4 67 e0 bd b1 12 90 bd 25 c2 e7 bc 25 53 06 be
       -0.10957292 -0.07034815 -0.028290818 -0.13117655
000140 56 49 33 3c ae b0 7c 3c aa 53 88 bc b3 6d fc bc
       0.010942778 0.015422983 -0.016641457 -0.030814027
000150 4c 3e 70 3b 34 0e c2 3d 63 09 dd 3c ae d0 2f 3d
       0.0036658226 0.09475365 0.026982015 0.04292362
000160 d2 c5 02 bd a3 c1 37 be 71 e6 b5 bd 8e 15 85 be
       -0.031926937 -0.1794496 -0.08881844 -0.25993007
000170 0b a7 00 bd e5 38 eb 3c 13 ac 66 bd 43 35 dc 3c
       -0.031409305 0.028713653 -0.056316447 0.026880866
000180 52 b4 e3 3d 5e 3b 0a 3d 45 77 96 bc 04 15 26 bd
       0.11118378 0.033748023 -0.018367419 -0.040547386
000190 26 21 83 bd 5f d9 89 3c 42 3b b1 3b 4b 42 bb 3c
       -0.06402807 0.016827283 0.0054086754 0.02285876
0001a0 32 24 1d bc 26 4a 59 bc e7 e6 1c bf 16 9e 1c 3d
       -0.009591149 -0.013262307 -0.6128983 0.0382367
0001b0 73 d6 95 bc 98 4d 2e 3c d2 d8 c9 3c 3d 83 d0 bc
       -0.018290734 0.010638617 0.02463952 -0.025453204
0001c0 39 04 a6 bc 45 10 0a bc 48 72 53 bd 3d a7 29 3c
       -0.020265685 -0.0084267305 -0.05162266 0.010354814
0001d0 91 c4 99 3c ca a7 c1 bd 4e 0a 25 3c a8 53 1d bb
       0.018770488 -0.09455831 0.010073258 -0.0024006162
0001e0 43 77 4a 3e c7 93 46 bc b8 31 67 bd 76 89 4c bd
       0.19772057 -0.012120194 -0.0564439 -0.04993578
0001f0 28 7a 2b be 6b 60 2b 3c cc 87 4c bd 92 3d 2c 3d
       -0.16745818 0.01046 -0.049934193 0.042050906
000200 60 4b c6 3c e9 0b 94 3d 47 d6 8c bd cd f7 b6 3c
       0.024205863 0.07228834 -0.06876808 0.022334957
000210 35 64 7a bc ec 8c 08 3b 0e d2 7f bb 67 66 7b 3d
       -0.01528268 0.002083595 -0.0039035114 0.061376955
000220 06 c7 fd bc 52 5d 12 bd 83 88 db 3d 5c 4a 05 3b
       -0.03097869 -0.03573353 0.10719397 0.002033851
000230 ec 5b bd bd 2f 0b bf bd ec 8d db 3c 85 18 86 b9
       -0.09246048 -0.09328305 0.026801072 -0.0002557674
000240 83 5c a1 3e 14 5b 26 3d b6 12 11 bd f1 ce 17 3d
       0.31515893 0.040614203 -0.035418235 0.03706259
000250 e3 3e 4f 3d f0 33 96 3c 2e 7f 76 3d 67 8d 62 bd
       0.050597083 0.018335313 0.06017988 -0.055310633
000260 f6 b7 21 3e 37 bc 87 3d 0c 36 c0 bd 72 87 13 3d
       0.15792832 0.06627696 -0.093853086 0.036017843
000270 7a b1 83 bc a7 64 ae be f1 86 ff 3a 02 30 e9 bc
       -0.016075838 -0.34061167 0.0019495172 -0.028465275
000280 a3 ff 04 be 7b 86 96 3d fa 8e 1a 3d b2 7a 33 3d
       -0.12988143 0.07349869 0.03773401 0.043818183
000290 70 5a 81 bc a7 70 38 3d d2 da 61 3d cf ed e0 bd
       -0.015790194 0.04502931 0.055140324 -0.109828584
0002a0 2d 8a d4 3d 2f 6f ff bc 64 1f 0b 3c 66 98 37 3d
       0.103779174 -0.031180946 0.008491371 0.044823073
0002b0 53 4f c7 3c 7c e2 9f bc db 24 f7 3c f7 75 c5 bb
       0.024329817 -0.019517176 0.030168941 -0.0060260254
0002c0 1a b2 ea bc ab 80 02 3d b4 92 ab bc b7 52 95 bc
       -0.028649379 0.03186099 -0.020943977 -0.018227918
0002d0 b3 ec 89 3b 33 f3 c0 3d 41 9a 37 3d 71 ab 90 3c
       0.004209125 0.094213866 0.044824842 0.017659875
0002e0 3b 4e 15 3e 67 62 86 bd ef 77 d6 3c 7d 20 c7 bd
       0.14580624 -0.065617375 0.026180236 -0.097229935
0002f0 56 c2 cc bc cf ab ff bc 01 67 7b bd 11 57 5e be
       -0.02499501 -0.031209854 -0.06137753 -0.217129
000300 44 f0 52 bd 77 6c 33 be 3e 91 e0 3c 21 2a 45 be
       -0.051498666 -0.17521845 0.027413007 -0.19254352
000310 85 c0 a9 3b 61 b3 0b 3d 04 d6 5d bd 4f bc 13 bc
       0.005180421 0.034106616 -0.05415918 -0.009017064
000320 71 ce 94 3b 03 09 c6 3c b5 c1 b4 bd 3a 54 5c bd
       0.0045412113 0.024174219 -0.08826009 -0.053791262
000330 a0 03 76 bd 67 4d 0b be de 82 b4 3b b8 66 4f 3d
       -0.06006205 -0.13603745 0.0055087646 0.05063507
000340 2c a1 97 bc 0b aa e1 bc 92 20 07 3c 49 40 b0 3d
       -0.01850947 -0.027546903 0.008247511 0.086060114
000350 de c4 06 3d 23 bb 52 3d af f4 bd bc 00 5a 06 bd
       0.03290259 0.051448 -0.023187963 -0.032800674
000360 68 a6 de bd 17 36 8b be 5d b8 f9 bc 72 e2 86 3d
       -0.10871583 -0.27189705 -0.03048342 0.0658616
000370 1d e4 58 bd 88 70 e4 3c 50 53 1e 3e ec 43 b1 3c
       -0.05295192 0.02788569 0.15461469 0.021638833
000380 4f 4b c2 bc 9f ad 2f bd ea a7 fa bd 9c e4 76 3c
       -0.02371755 -0.042890187 -0.12239058 0.015069153
000390 80 6c 13 3d 36 42 85 3c 03 97 70 bb 16 35 66 bc
       0.035992146 0.016266923 -0.0036711104 -0.014050743
0003a0 ae 79 e3 be 0d dc 38 3d 90 5f e0 bc 37 f7 32 3c
       -0.44428772 0.04513173 -0.027389318 0.010923198
0003b0 bd c0 c4 3c fd 4a 27 bd 4a 77 0b bd 44 eb cc bc
       0.024017686 -0.040843 -0.03404931 -0.025014527
0003c0 31 70 03 be ec b2 8c 3b e6 08 39 3c f3 b4 e5 bd
       -0.12835766 0.00429379 0.011293625 -0.11216154
0003d0 ae d3 0c 3c 04 97 bf bc 50 e5 01 3e 37 e5 28 bc
       0.00859539 -0.02338744 0.12685132 -0.010308555
0003e0 8e 4c 32 bd 46 2b 7c bd de b9 c4 bd 54 59 26 3c
       -0.04353004 -0.061564706 -0.09605764 0.010153133
0003f0 6a 81 9f bc e7 4c a3 3c 7d 94 b5 3c 33 47 14 3d
       -0.01947089 0.01993413 0.022165531 0.036200713

post_sequence.1.bias f4 [4]
000000 1a e4 07 bc 9c 42 d0 bc 75 a7 11 3d 24 0d ac 3c
       -0.00829413 -0.025422387 0.03556009 0.02100236

lstm.weight_ih_l0 f4 [504, 126]
000000 87 b6 2a 3d f0 9f 80 bd 7f be 2f 3e ea 51 51 bc
       0.041677978 -0.06280506 0.17162512 -0.0127758775
000010 7e 10 86 bd e2 33 ce bd 0a 68 65 3d 17 5c d2 bd
       -0.065461144 -0.100684896 0.056007423 -0.10271471
000020 f6 df 9d bd f1 4b 2a 3e 78 f2 68 bd 3e 9a f1 3d
       -0.07708733 0.16630532 -0.05687186 0.117969975
000030 06 4a a5 bc 37 fc dc bc 4e 1d 5b 3d 3f f9 38 3e
       -0.020176899 -0.026975734 0.053494744 0.1806383
000040 2b 66 31 bd 99 f0 03 3e 1a f6 04 be c3 58 da 3d
       -0.043310326 0.1288475 -0.12984505 0.10661461
000050 b7 68 9e bd 9a 24 6c bc 45 b2 2b 3d 3d aa ea bc
       -0.077348165 -0.014413023 0.041918058 -0.028645629
000060 e1 a3 aa 3c 63 a3 2f 3d ce 24 89 bc b3 fb a0 3e
       0.020830097 0.042880427 -0.016741183 0.3144203
000070 ee 2c 78 3d bf aa 16 bd a5 0a 2c be 49 ff 36 3e
       0.060589723 -0.03678393 -0.16800936 0.17870821
000080 12 4f 04 3f 23 69 db 3d ed 39 6f 3e 56 8c 61 3c
       0.5168315 0.107134126 0.2336194 0.013766369
000090 26 20 4f 3e 23 88 dc bd 27 87 42 3d 81 77 bf 3d
       0.20227107 -0.107681535 0.047492173 0.093489654
0000a0 69 3e 96 bd 8d 4a 2c 3e 45 f0 02 3e 13 3f ec 3c
       -0.073361225 0.16825314 0.12786968 0.02883867
0000b0 f4 88 85 3e 0e b4 39 bc 51 62 27 3d 63 da 92 bd
       0.2608105 -0.011334432 0.040865246 -0.0717056
0000c0 61 33 11 3e ef c8 d9 3d 20 b5 42 bd 7c 0b bd bd
       0.14179756 0.10634028 -0.047536016 -0.09230706
0000d0 0f 9a b8 3b ea ef c1 3b a5 7b 67 3d a9 ff 49 3e
       0.0056335996 0.0059184926 0.0565144 0.19726433
0000e0 ec 9e c9 3d 6f f5 53 3b b0 6a 26 3e 2a 5e d1 3d
       0.09844765 0.0032342335 0.16251636 0.102230385
0000f0 64 43 cf 3d 15 06 47 3e a0 c5 83 3e 69 1d f3 3d
       0.101202756 0.19435914 0.25736713 0.11870844
000100 a2 c6 35 be 76 75 70 3e da ee 1a bd 98 9a c3 bd
       -0.17751554 0.23482308 -0.037825443 -0.09550971
000110 82 f7 0d 3d bb a1 25 bd 99 03 90 bb 56 4b 20 3e
       0.03465987 -0.04043744 -0.00439496 0.15653738
000120 fa 19 69 ba b5 4d 43 3e bb e5 9c 3d 51 16 5e 3c
       -0.00088921154 0.19072612 0.07661005 0.013555125
000130 c9 2d 37 3d 4f aa b5 3d a2 11 82 bd ee 1f 81 be
       0.0447214 0.088703744 -0.063510194 -0.25219673
000140 c2 53 53 3c 2e b6 04 be 15 42 7e bd c3 a6 7c 3d
       0.012898387 -0.12960121 -0.06207474 0.061682474
000150 93 b2 77 3d 6c 6e 97 3d 0b af 10 3d a1 b9 f5 bd
       0.060473036 0.07394108 0.035323184 -0.119982965
000160 1e 42 4e 3d e7 19 08 bb a4 97 82 3b 15 b9 c9 3d
       0.050356023 -0.0020767392 0.003985362 0.09849755
000170 68 aa 5b 3d 3f ee 13 bd e9 c5 ae bc de 07 5f bd
       0.05362931 -0.03611588 -0.021334605 -0.054450862
000180 c2 f0 1f 3e 84 7b 75 bd e5 0c b9 3d 27 06 d8 3d
       0.15619186 -0.059932247 0.090356626 0.105480485
000190 f1 00 24 3e 1b a4 0d be 99 1b 5d 3d 26 77 4a 3d
       0.16015984 -0.13832133 0.053981397 0.049430035
0001a0 14 45 fa bd ec 21 08 3e d1 8e 89 3e cd 53 19 3e
       -0.12220207 0.1329419 0.26866773 0.14973374
0001b0 dd 81 e7 3d f8 36 7e 3c 83 12 0b bd 11 17 a2 bd
       0.11304066 0.015516035 -0.0339532 -0.07914556
0001c0 92 bc 85 3e 06 d0 ea 3d 98 3e 0a 3e f8 25 96 bd
       0.2612043 0.114654586 0.1350044 -0.07331461
0001d0 b7 30 b2 bd 35 98 0e bd db a8 6a bc 62 6c ac 3d
       -0.08700698 -0.034813125 -0.014322485 0.0841911
0001e0 c9 7e 42 bd 34 d5 61 3e af 56 39 3e d2 24 5e 3d
       -0.047484193 0.22053987 0.18099473 0.054234333
0001f0 2a e4 2a 3e 1e e8 10 3c 32 c2 62 bd dd 67 ec 3c
       0.166886 0.008844404 -0.05536098 0.02885812
000200 b7 7d cc 3d c6 99 0b be 94 85 a7 3d d4 da 50 be
       0.09984916 -0.13632879 0.08179775 -0.20395976
000210 c6 4e 38 bd bf 11 b5 bd 9a 56 01 be 5e 9b 18 3e
       -0.044997 -0.088412754 -0.12630692 0.14903018
000220 46 d5 09 3c 9e 8a f7 bc 8e 4c f9 bc dc 54 ad 3c
       0.008412665 -0.030217465 -0.030432012 0.021158628
000230 7f 0f 85 bc cc 95 60 3e 16 a4 e4 bc 01 8d a0 3c
       -0.01624274 0.21932143 -0.027910274 0.019598486
000240 53 f5 5c 3d f0 62 af 3d aa bf 8c 3d e1 b7 c1 bd
       0.053944897 0.08563793 0.068724945 -0.094589
000250 59 71 95 bd fd 0d 7e 3d 00 a5 8f 3d a2 0c a9 bd
       -0.0729701 0.06202506 0.07013893 -0.08254363
000260 a3 74 26 bd 30 69 3d bc 7f bf b2 3d 87 65 de bc
       -0.040638577 -0.011560723 0.08727931 -0.027148021
000270 ab 05 1b bc 2a 2e 3c bc 2a bf 8d 3e d4 13 2f 3d
       -0.009461801 -0.011485616 0.2768491 0.04274352
000280 6f 15 04 3e 95 f7 19 bd 72 53 ac bc e4 b9 12 3c
       0.12898801 -0.03758963 -0.021035884 0.008955453
000290 59 d8 d7 bc 8f 4b 0b bd d1 0f 05 be 3a e7 8c 3c
       -0.02634828 -0.034007605 -0.12994315 0.017200101
0002a0 d8 a0 bb bc 3a 1b cc 3d 3d f9 71 bc 2d a7 69 bd
       -0.022903845 0.099661306 -0.014768896 -0.057044197
0002b0 6e bb d0 3d dc ec bf bc 0f dd 3c bb e0 bd 08 bc
       0.101919994 -0.023428373 -0.0028818285 -0.008346051
0002c0 98 f6 15 be eb 8e b0 bb 83 4b a8 bc 0f 39 6a 3e
       -0.1464485 -0.005388131 -0.02054382 0.22873329
0002d0 1b f0 06 3e 3f 89 88 3c ed 77 12 3e 9c 4d 6d bd
       0.1317753 0.016667007 0.1430356 -0.057935342
0002e0 8b bd 19 3e 11 8f 16 3d 5e 89 28 3c 1e 76 8d 3d
       0.15013711 0.036757533 0.010286657 0.06907295
0002f0 25 ef ed 3d f8 0e c7 3c 50 5b ec be 03 fc d6 3d
       0.11617879 0.02429913 -0.46163416 0.10497286
000300 29 07 4b be c9 d3 b5 bc ad cd b2 bd 44 1d 43 3d
       -0.1982695 -0.022195714 -0.08730636 0.04763533
000310 4e 48 7d ba ce 10 4e be 2a b2 8e 3c b7 8a 96 3d
       -0.00096619583 -0.20123598 0.01741894 0.073506765
000320 f3 13 9f 3d 5b b0 5e 3d 56 c1 e8 3d e7 77 fe bc
       0.07767477 0.054367404 0.11365001 -0.031063033
000330 a1 e8 94 bc 03 91 02 be 60 65 87 3d 3e 68 ea bc
       -0.018177332 -0.1275063 0.066111326 -0.02861416
000340 9b d1 e8 ba a6 66 ea 3d 7f 98 8c 3d 03 60 0c 3d
       -0.0017762663 0.1144536 0.06865024 0.03427125
000350 e4 9f e4 bd 97 4f 6f 3d 42 0f 2a bd 95 29 27 3d
       -0.11163309 0.058425512 -0.041518457 0.04081114
000360 d4 86 1d 3d 8a 0a 56 bd 7d 05 98 3d 71 e1 fb bc
       0.03845866 -0.052256145 0.07422922 -0.030747147
000370 66 b8 3b 3e 74 18 30 3c 55 00 fc bd 15 b7 60 3d
       0.18332061 0.010748018 -0.12304751 0.0548621
000380 30 e5 b6 3d 3f c5 eb 3d 96 0b ed bc 80 eb bd bd
       0.08930433 0.11512231 -0.028936189 -0.09273434
000390 85 cb 4d 3c 45 f4 9d bc e3 29 eb be 80 bf 1b 3e
       0.01256073 -0.019281516 -0.45930395 0.1520977
0003a0 8b 3a 25 be 49 55 f3 bb fd ca bb bc 2d 5f d5 bb
       -0.16135614 -0.0074259383 -0.02292394 -0.00651159
0003b0 80 a2 25 3e 3d 55 e0 bd b4 db 1d 3c fc b7 83 3e
       0.1617527 -0.10953758 0.009634901 0.25726306
0003c0 b4 54 23 3d e6 d7 df bc eb 0d a1 3c 28 1e d8 ba
       0.0398757 -0.027324628 0.019659957 -0.001648848
0003d0 90 d9 46 3d 01 d0 3f 3d 3d a0 cc bd b7 44 e5 3c
       0.048547328 0.046829227 -0.099915005 0.027986867
0003e0 99 2f a2 bd df f6 bf 3d b8 b0 85 3c a3 38 71 bd
       -0.07919235 0.09373259 0.016319618 -0.058891904
0003f0 00 de d2 bc 67 c5 4b ba 8d 2c 00 3e 18 d5 0b bc
       -0.025740623 -0.00077732507 0.12516995 -0.008534692

lstm.weight_hh_l0 f4 [504, 126]
000000 3c 5a b1 3d ba b1 9c bd 32 31 d8 bb 07 8e 31 bd
       0.08659789 -0.07651086 -0.0065976614 -0.04334834
000010 64 86 70 bd cd fb ea bd cb 95 8e 3e 98 ca f1 ba
       -0.058721915 -0.114738084 0.27848658 -0.0018447218
000020 f1 76 21 3e 4e 13 c8 bd 05 ad 93 3d f3 85 d3 bb
       0.15768029 -0.09769307 0.07210735 -0.006455177
000030 fc b6 3d 3d 5d c7 16 be 22 a7 a6 bd 18 47 ad bb
       0.046317086 -0.14724489 -0.08137347 -0.005288016
000040 2b b4 0c 3e b1 4f b5 bd 3e 46 b7 3d ce f7 ea 3d
       0.13740604 -0.088530906 0.089489445 0.11473046
000050 bc 4f b6 bd 15 46 1b 3e d6 54 96 bd f1 ab 56 bb
       -0.08901927 0.15163453 -0.073404 -0.0032756294
000060 7d af 20 bd 71 20 32 be 56 49 9d 3c 74 2b 35 be
       -0.03922986 -0.17395188 0.019200008 -0.17692357
000070 b0 f4 60 bd 16 b3 84 bc 48 78 92 b8 89 c5 98 3d
       -0.054920852 -0.016198676 -6.984227e-05 0.07459552
000080 18 e4 74 bd dd d9 eb 3d b6 14 3c 3d 12 ad 5b bd
       -0.05978784 0.115161635 0.04591819 -0.05363185
000090 cf f6 ef bd d2 ef 79 bd fa 5a c7 bd 2c 21 8c bd
       -0.11716997 -0.061019726 -0.09734149 -0.068422645
0000a0 86 c5 e2 bd ea 61 d1 3d 84 cb 0c bd c0 ee ce 3e
       -0.11072831 0.10223754 -0.034373775 0.40416527
0000b0 87 2b b6 3d bc 79 e8 bd eb 0f 1a bd ca 21 ff 3d
       0.08895021 -0.11351344 -0.037612837 0.124576166
0000c0 e2 02 99 3d c6 f3 bb 3c 43 9b 55 3e 53 d8 be bd
       0.07471253 0.022943389 0.20860009 -0.09318604
0000d0 13 e0 a1 3c 91 f5 be bc 65 41 86 3d 5d ac f0 3c
       0.019760167 -0.023310455 0.06555442 0.029379064
0000e0 0c 13 4e 3d d0 24 bc bc f8 b6 75 be 85 62 f8 3c
       0.050311133 -0.022966772 -0.23995578 0.030320415
0000f0 27 43 2a be 9a af 61 be 9b 08 b7 bd 94 05 d1 bd
       -0.16627179 -0.22039643 -0.08937188 -0.10206142
000100 8e 66 18 bc 44 55 5f bc 97 7b e3 bd d0 a2 5f 3d
       -0.009301795 -0.013631169 -0.11107557 0.05459863
000110 15 74 9a be 20 44 4f be a2 6c 42 3d 5a 48 95 3c
       -0.3016669 -0.20240831 0.04746688 0.018222976
000120 19 44 22 3d 1e 7e c8 3d a9 ad 41 be fc d5 80 bd
       0.039615724 0.0978968 -0.18913902 -0.06290814
000130 fb 30 67 3c a5 a7 52 bd f7 21 41 be 84 69 ea 3c
       0.014110799 -0.05142941 -0.18860613 0.028614767
000140 92 50 0c be 3d d2 fd 3c d3 91 8d 3c 29 73 be 3e
       -0.1370261 0.030984038 0.017281448 0.37197235
000150 57 00 61 3e 3d 11 0f 3d e6 0d 1d 3d 2a fb ed bc
       0.21972786 0.03492855 0.038343333 -0.029050428
000160 67 00 05 ba 04 74 a4 3c bd 14 01 3d 2d 8a 5d be
       -0.00050736073 0.020074852 0.03151392 -0.21634741
000170 bf c2 2a 3d 83 8c 8d 3d 1d 3e 2b 3d d8 63 9e bd
       0.04168963 0.06911566 0.041807283 -0.077338874
000180 46 8d 61 3e 29 61 9c be 09 40 41 3e 59 25 c3 3d
       0.22026548 -0.30542877 0.18872084 0.09528608
000190 5a 70 87 bd 5a f0 16 3c 61 ee a8 bc cc 8f 06 be
       -0.06613226 0.009212578 -0.02062148 -0.13140792
0001a0 6b d8 1b 3e ef 25 9f bc 0b ba 98 3c 05 86 68 bd
       0.15219276 -0.019427268 0.0186434 -0.056768436
0001b0 c5 ec 25 3e d1 c2 14 be 4b b3 db bd 08 1f 8c bd
       0.16203602 -0.14527442 -0.10727557 -0.06841856
0001c0 86 01 d8 3c d6 a5 a3 bd ae e5 88 38 57 36 ba bd
       0.026367914 -0.07990615 6.5277665e-05 -0.09092396
0001d0 d2 75 cc 3d e9 4d 48 be be 97 28 3d 67 f2 84 3b
       0.0998341 -0.1956097 0.041160338 0.004057217
0001e0 88 01 85 3d 84 79 45 3e f2 b7 0f be d7 1f a1 be
       0.06494433 0.19284636 -0.14035013 -0.31469604
0001f0 e8 66 18 3d ad d8 37 be 1f 26 90 3d 3c f3 60 3c
       0.037207514 -0.17953749 0.07038521 0.013729867
000200 a4 ca f9 bc 9e 69 8f 3d ed 5f 13 bc 24 d1 42 bd
       -0.030492134 0.07002567 -0.008995038 -0.047562733
000210 a2 5a b1 bc 39 a8 9e 3d 3e de b5 38 15 03 dd 3b
       -0.021649662 0.0774693 8.6721484e-05 0.006744752
000220 3b 28 b1 3d 66 82 3e 3d d7 f4 50 bd c4 20 a7 bc
       0.086502515 0.046511076 -0.051014747 -0.020401366
000230 ab c8 8a bc e0 21 36 bd 51 ff 49 bd 83 f3 3e 3c
       -0.01694139 -0.0444659 -0.049315754 0.011654737
000240 79 a6 18 be 00 3e 6f bd 4a 89 97 3d f5 23 b7 3d
       -0.14907254 -0.058408737 0.07399233 0.08942405
000250 a4 16 02 be 8a ec a9 bd f0 77 af bd ef a5 9d bd
       -0.12703949 -0.08297069 -0.08567798 -0.07697665
000260 aa ce f0 bc 4c a8 30 bd a3 cf 0b be 79 9e 96 bd
       -0.02939542 -0.04312925 -0.13653426 -0.07354445
000270 11 7a e2 bb 29 a5 6d 3d 86 65 ac bc fa 74 f2 bb
       -0.006911524 0.058018837 -0.021044504 -0.0073991986
000280 1d 31 99 3d 4f 33 80 bc 10 af e7 bc 91 b8 77 bc
       0.07480071 -0.015649466 -0.028281718 -0.015119688
000290 bf 6b 6e 3d a4 c2 d1 bd 76 d3 07 be f5 16 13 3d
       0.058208223 -0.10242203 -0.1326426 0.035910565
0002a0 7c ec 3b bd 87 69 b1 3c ce 23 1f 3b 03 ba 41 3c
       -0.045879826 0.021656765 0.0024282816 0.011824134
0002b0 f0 9c c0 bd ca 37 c2 3c b8 53 48 3d 60 b7 75 3d
       -0.094049335 0.023708243 0.048907965 0.059989333
0002c0 91 8c 2c bd 5e 20 26 be d1 84 0c 3d 3e c0 d4 3a
       -0.042126242 -0.16223285 0.03430635 0.0016231609
0002d0 68 b8 17 bd 67 20 71 bb 93 ed 85 bd 15 ee 32 3c
       -0.037041098 -0.0036792995 -0.06539454 0.010921021
0002e0 99 1d aa bd 62 88 b8 3d d4 37 72 be 39 b5 0a be
       -0.083064266 0.09010388 -0.23654109 -0.13545693
0002f0 90 e1 9f 3c 0f 58 02 3e c2 29 4d bc 68 0a d9 3d
       0.019516736 0.12728904 -0.012522163 0.10597688
000300 c8 69 2e 3e 70 df 78 3d 79 3d 4c be 8e bb 6b bd
       0.1703254 0.06075996 -0.19945325 -0.057551913
000310 01 e3 87 3c a1 39 06 be 86 7b d9 bc e8 8c 83 bd
       0.016587736 -0.13107921 -0.026548158 -0.0642336
000320 5c 75 b2 3d 85 a5 6a bc c0 18 11 bd 73 62 36 3d
       0.08713791 -0.0143216895 -0.035423994 0.044527482
000330 84 3b 05 3b e0 25 7a bd 9c c8 a0 3d d5 0f e8 bc
       0.0020329664 -0.061071277 0.07850763 -0.028327862
000340 91 41 82 bc 43 6f 00 3e 00 24 c5 3d 9b 37 a6 3d
       -0.015900405 0.12542443 0.09626007 0.08116075
000350 77 35 a0 3c 0d 67 51 bd 2f 5c 70 3d ca c1 1f 3d
       0.019556744 -0.051123668 0.058681663 0.03900317
000360 bf ea 01 3d f5 4e 27 be f5 f7 a1 3d c6 a6 5b bd
       0.031718012 -0.16338713 0.07908622 -0.053625844
000370 f5 9c d6 bd c6 5e 13 3e 0e b2 5e 3d 01 6d e4 bd
       -0.10479156 0.14391622 0.054369025 -0.11153603
000380 f6 08 76 bd 2e d5 b2 3d df 8d 5a bc cb f3 92 bd
       -0.06006714 0.08732067 -0.013339489 -0.07175406
000390 3c 0e f1 3c cf 6c 74 bd 0b 8e a4 3d 58 ae 99 3d
       0.029425733 -0.05967408 0.08034905 0.075039566
0003a0 d4 c0 9b 3d 34 6e a9 3d c2 2c 04 3d ee ad d4 3d
       0.076051384 0.08272973 0.032269247 0.10384737
0003b0 9e 49 ae 3d 50 d4 87 3d 86 b8 e4 bd 74 80 b2 3b
       0.08510135 0.06632292 -0.111680076 0.0054474417
0003c0 ce 26 ed 3b a4 65 15 3d 7d 91 91 bd de f1 b5 bd
       0.007237292 0.036473885 -0.07107828 -0.08884023
0003d0 54 f4 0b 3e 62 ec a4 ba dc 14 fc bc 99 0a f8 3c
       0.13667423 -0.0012582655 -0.030771665 0.03027849
0003e0 c2 98 8e 3c c9 87 23 3d 37 cb ed 3d 80 3d 70 3d
       0.017406825 0.039924417 0.11611026 0.0586524
0003f0 55 ef d7 3d 07 0c cf bd 22 6f c7 3c 09 84 99 bd
       0.10543696 -0.10109716 0.024344984 -0.07495887

lstm.bias_ih_l0 f4 [504]
000000 70 06 df 3b e7 c5 a6 bd 2d ff 5a bc d4 54 b8 3c
       0.0068061873 -0.081432156 -0.013366503 0.022501387
000010 4a ea 1d bd 8f b5 70 3c 9e 34 a8 3d ca 56 19 3d
       -0.038553514 0.014691724 0.08213161 0.037436284
000020 cc 0b 46 3d 32 8a 52 bd 59 cd 4e 3d 39 cd 1c bc
       0.048351094 -0.051401325 0.050488804 -0.009570413
000030 44 c4 56 bd dd a6 5d 3c 91 d7 12 3c df 41 33 bd
       -0.052433267 0.013528553 0.008962528 -0.04376399
000040 94 43 09 3d 65 3e 93 3c 6b 45 35 be ad 00 0f 3b
       0.033511713 0.017974088 -0.17702262 0.002182047
000050 32 51 a3 bd eb 95 55 bd bc 6e 5c bd 49 80 6d 3d
       -0.07974471 -0.052144926 -0.053816542 0.05798367
000060 b6 54 60 bc bc 47 26 3d 22 7a eb 3c fc 07 16 3d
       -0.013692072 0.040595755 0.02874476 0.03662871
000070 21 e6 b1 bd 81 c6 06 3e 5b e0 a1 bd b7 06 ed bd
       -0.08686472 0.1316166 -0.079041205 -0.115735464
000080 11 49 65 3d 30 ed 68 bd 01 ef 1b 3c 07 67 b8 3d
       0.055977885 -0.056866825 0.009517432 0.09004026
000090 64 e3 40 3d 19 d7 46 3d 77 01 17 3d c7 8a d3 3c
       0.047091857 0.048544977 0.03686663 0.02582301
0000a0 a5 d9 74 bc 22 5a 17 be 40 c2 08 3d d9 7a aa 3d
       -0.014944469 -0.14780477 0.033388376 0.083242126
0000b0 1c 0d 0d 3d 3d a5 ba 3d 01 49 74 3d 96 76 09 3c
       0.03443633 0.09113548 0.059639934 0.0083900895
0000c0 ff 94 02 be 69 e1 b8 bb ed 95 18 bd e4 69 e4 bb
       -0.1275215 -0.0056421054 -0.037252355 -0.006970631
0000d0 6d 2f 39 bd 4d d7 06 bd f8 93 85 3c e1 1e 94 bd
       -0.045211244 -0.03292017 0.016305909 -0.07232452
0000e0 3d 5e 22 bd d8 79 d3 3d 11 3a ef 3c de 83 af bb
       -0.039640654 0.10325974 0.029202493 -0.005356296
0000f0 3a 01 6d bb 90 05 5e bc da ab 94 bd 58 a8 9b bb
       -0.0036164061 -0.013551131 -0.072593406 -0.0047502927
000100 84 d3 8b bc f8 a7 02 be 26 6f b9 3c ce 1e 93 bc
       -0.017068632 -0.12759387 0.022636008 -0.017959025
000110 59 8a 3e bd 6e 16 a9 bb 74 cd 0f bc c0 4b 95 3c
       -0.046518657 -0.0051601445 -0.008777011 0.018224597
000120 6f e8 12 bd c3 d4 bc bd ac 79 5a 3d 1a 2a e5 bd
       -0.035866197 -0.092202686 0.05333869 -0.11189671
000130 0d 7b 9c 3b e3 29 6f bd ca 85 e8 3c 25 a6 cd bd
       0.004775411 -0.058389556 0.028384108 -0.10041455
000140 d8 7c a8 bd d2 8b 0d be 47 ad 95 bd c7 4b 8a bd
       -0.08226937 -0.13822868 -0.07308441 -0.06752735
000150 2b 26 22 bd 9d ea 16 bd da 76 ff bb ea fe 45 3d
       -0.03958718 -0.03684484 -0.0077961506 0.048338808
000160 90 9c 82 3d e5 8a 2b bb c6 1d 1e 3d 11 21 60 bc
       0.06377518 -0.0026175317 0.038602613 -0.013679759
000170 ed 6a b8 3c 4b c9 91 bb 20 0e 1d bc 05 f2 9c bc
       0.022511924 -0.004449045 -0.009585887 -0.019158373
000180 51 35 a6 bd 5f 66 5a 3d 99 a9 42 bd 3a 2a 62 3d
       -0.08115638 0.053320285 -0.047525022 0.05521605
000190 72 09 84 bd 76 f4 f7 3d 3c 88 22 bd 43 5e 0b 3d
       -0.06447114 0.12107174 -0.039680704 0.03402544
0001a0 61 d3 1c bd 3b 7d 27 3c 91 09 8c be dc b5 ff bc
       -0.038287524 0.010222728 -0.2735105 -0.031214647
0001b0 f3 b3 0d bd ad 6c e2 3b 9a f3 cc bd 2e f4 12 be
       -0.03459544 0.006909928 -0.10007401 -0.1435096
0001c0 be d7 ed bd 15 77 e1 bc d8 57 96 bc 60 a0 78 bb
       -0.11613415 -0.027522603 -0.018352434 -0.0037937388
0001d0 ba 55 b0 bc 68 e5 11 3d 88 e3 70 bd 25 71 df 3b
       -0.021525253 0.03561917 -0.05881074 0.006818908
0001e0 bc 88 ae bc e7 3b 40 3d 44 31 ad 3c 61 5f da 3c
       -0.021305434 0.046932127 0.021141656 0.026656808
0001f0 0f 1f 25 3d 52 a6 50 3c 73 64 d3 bd 68 98 9f bd
       0.040312823 0.012734966 -0.103218935 -0.07792741
000200 aa 0a fc 3a e7 a2 d5 3c 97 b1 02 3b 0c 32 f2 3d
       0.0019229252 0.026078654 0.0019942278 0.11825952
000210 2d 81 06 3e 5b de 11 3e b9 48 4a 3d 59 68 01 3d
       0.13135214 0.14244978 0.04938576 0.031593654
000220 61 aa 2d 3d 0e ff 00 bd ed 41 bd bd 6e fb dd bc
       0.042398814 -0.03149324 -0.0924109 -0.02709743
000230 33 a6 bb bd f3 12 cc bd 8e 10 ef bb 34 40 a2 bd
       -0.09162559 -0.09964552 -0.0072956746 -0.07922402
000240 da ab 00 bd f2 db 78 bd 56 c4 c5 3d 6d b9 88 3c
       -0.03141389 -0.06075663 0.09656589 0.01668998
000250 8d 81 80 bd 75 61 93 3d c6 99 08 be 28 93 6f 3d
       -0.0627471 0.07196323 -0.1333991 0.05848995
000260 e5 a6 9c bd a2 5c 51 bd 8a c1 43 3d 10 69 ca bd
       -0.0764902 -0.051113732 0.047791995 -0.0988332
000270 7a 0e ff 3c f7 1a 0a be b5 c9 22 3d 50 97 b3 bd
       0.031134833 -0.13486849 0.039743144 -0.08769095
000280 a3 bf 12 be af 8e aa 3c 64 8e 5a bc 57 db e6 bc
       -0.14330916 0.02081999 -0.013339613 -0.028180761
000290 12 fa 38 be 48 fd 9a 3c 0a 16 96 bd 34 3b 10 3d
       -0.18064144 0.018919602 -0.07328422 0.03521271
0002a0 67 51 e0 bd 2d 24 9c bc 75 f1 7f bc 57 4c c4 bd
       -0.10953026 -0.019060219 -0.015621533 -0.09584873
0002b0 cc 28 dc 3d e6 3c 00 bd cd 2d a4 3d 95 f0 b1 bc
       0.10749969 -0.031308077 0.08016548 -0.021721164
0002c0 34 d6 14 3e b2 7d 9a bc 69 ab 2f 3c 4d dd 44 3d
       0.14534837 -0.018858764 0.01072202 0.04806261
0002d0 53 68 c3 3d 0b 1c bd ba 26 d5 86 bd bd dc 40 3d
       0.09541383 -0.0014427913 -0.065836236 0.047085512
0002e0 3b 35 88 bc 51 90 cc bd 86 b7 13 3d 25 d0 70 bc
       -0.016626945 -0.09988464 0.036063693 -0.014698063
0002f0 dc 74 61 3c a5 60 7e bc f2 54 d2 bb ea cf 29 be
       0.013760772 -0.015525972 -0.0064188177 -0.16583219
000300 0e 02 9c bc 12 96 74 bc 27 64 a8 3d 7a b2 d3 bd
       -0.019043949 -0.014928358 0.082222275 -0.10336776
000310 e7 ba a2 3d 53 ee 19 bd 6d 90 e8 3b 86 e4 bb 3d
       0.07945805 -0.0375808 0.007097295 0.09174447
000320 03 17 bf 3d ba c0 72 bd 6f 93 69 bc 66 31 dc bc
       0.09330561 -0.05926583 -0.014256342 -0.026879024
000330 42 10 c7 3d e7 51 d5 bd 95 59 02 bd df 64 d4 3c
       0.09719898 -0.10416012 -0.031823713 0.025927005
000340 ed 93 f8 3c c3 e4 a3 bd 20 0b 8a 3b 37 4b 82 3c
       0.030343974 -0.08002617 0.004212752 0.015905006
000350 d7 61 35 3d 28 3a 51 3b 9c a1 9f bd 99 3e d2 bc
       0.04428276 0.0031925533 -0.077944964 -0.025664615
000360 87 ca 56 3c 58 85 30 bd 18 61 74 bd f3 40 a4 bd
       0.01310981 -0.043095917 -0.05966291 -0.080202006
000370 b4 ae b6 bd fc 60 20 3d 9b a4 1a be ce 63 a5 3d
       -0.08920041 0.03915499 -0.15101855 0.08075677
000380 16 4a ea 3a 64 02 0d 3d 45 80 51 bd 5b 06 ad bb
       0.0017874863 0.034426108 -0.051147718 -0.0052802986
000390 d5 8a 05 be e4 c0 f8 3c 73 8b 54 3e a0 1a 82 3d
       -0.13041241 0.030365415 0.2075632 0.063527346
0003a0 79 62 2d be e5 ee 88 bd 72 01 24 3d d8 a1 b6 3d
       -0.16932096 -0.066861905 0.04004044 0.08917588
0003b0 34 50 da 3c ad f7 f1 ba 85 df 66 3d 85 15 6f bc
       0.026649572 -0.0018460654 0.05636551 -0.014592533
0003c0 c2 b7 cf bd 84 bb 32 bb 47 b6 c4 bd 5a e8 b4 bd
       -0.10142471 -0.0027272413 -0.09605079 -0.0883338
0003d0 ad 6d 71 3e e9 c5 86 3d 99 38 91 3d ec ec 21 bc
       0.23576994 0.06580717 0.07090873 -0.009883147
0003e0 27 77 c6 3d 05 e1 4b 3d 5f 4c e6 bc 6f 5d 65 3b
       0.09690695 0.049775142 -0.028112588 0.0034998318
0003f0 2b ee d8 3d 5f e3 95 bd 09 69 c5 bd 7b 0e 70 bd
       0.10592302 -0.07318758 -0.096391745 -0.05860756

lstm.bias_hh_l0 f4 [504]
000000 2e 99 2b bd 16 eb d9 bc bc d5 b4 bd 17 af be 3c
       -0.04189413 -0.026601356 -0.08829829 0.023276849
000010 75 1d 4e bd e3 11 c7 3d 1b 4a c1 3d 9f 91 fc 3c
       -0.05032106 0.097202085 0.094379626 0.030831156
000020 14 bd 37 3d 83 1d f0 bc 1d 7b 46 3d 84 d7 01 3b
       0.044858053 -0.029310947 0.048457254 0.0019812295
000030 02 6d 09 3d 37 f6 17 be 1c bc 6e 3d 65 22 83 bc
       0.033551224 -0.14840017 0.058284864 -0.016007612
000040 71 41 82 bc b9 c8 af bc 07 aa 03 be 9d bb bf bd
       -0.015900346 -0.021458017 -0.12857829 -0.09361956
000050 dc 38 8d 3d 66 b3 7c 3d e7 e6 5c 3b 37 d5 d9 3c
       0.06895611 0.061694525 0.0033706964 0.026590927
000060 d3 fb 58 3c bc 74 c7 bc 82 8b 4a bd 4d f8 af 3d
       0.013243633 -0.024347655 -0.04944945 0.085922815
000070 62 8b 5c bd be 54 8c 3c 5c 4d d0 bc b0 23 a9 bd
       -0.053843863 0.017130252 -0.025427513 -0.0825876
000080 d4 8d b1 bd 2b 4e 15 3c 98 3b ad 3d 6b ff 5f 3d
       -0.0866963 0.009112875 0.08458632 0.054686945
000090 f5 7d b2 3b 96 05 9f bd 06 2f 9e bd 98 34 82 bd
       0.005447144 -0.07764737 -0.07723813 -0.06357688
0000a0 ee 2a e8 3c 1c e9 50 be e2 01 6c 3d 5d 79 26 3d
       0.028340783 -0.20401424 0.057618983 0.040643085
0000b0 59 7b af bc f0 04 f4 bc 1a ac 09 3c d4 3f ff 3c
       -0.021421121 -0.02978751 0.008402849 0.031158365
0000c0 a9 8a 9c 3b d0 d0 83 bd 30 c1 08 3d d8 cc b3 3d
       0.0047772718 -0.06436312 0.033387363 0.08779305
0000d0 4c 17 22 bd 42 7d b0 bd 8e 27 b7 3c 7f ef 6b 3d
       -0.039573 -0.08617641 0.022357728 0.05760145
0000e0 69 30 10 bd 4b ba 76 3c 11 fe 08 bd 56 8a 6f bd
       -0.035202418 0.015059064 -0.03344542 -0.058481537
0000f0 02 3b e6 bc a6 4d e7 bd 7d 1e 59 3d 4d e3 c2 bc
       -0.028104309 -0.11294107 0.05300759 -0.023790026
000100 55 0a bf bd c2 ef 1b bd 21 59 37 3c 04 cb 2c bd
       -0.093281426 -0.038070448 0.011190684 -0.0421858
000110 c6 69 ec bc 22 00 b3 bd f3 13 1e 3c 6b ca 67 3d
       -0.02885903 -0.0874026 0.009648311 0.056589525
000120 9c 43 89 3d 94 8e ca bd 7a 2e 81 3d dc 08 df bd
       0.067023486 -0.09890476 0.06307693 -0.10890362
000130 ff 87 b7 bc 65 e7 0a 3d ff 1e 87 bd 76 17 2e 3d
       -0.022403715 0.03391208 -0.06597709 0.042502843
000140 89 fa 9c bc 65 fb 06 be 78 8e 79 bd 5d db 94 ba
       -0.019162433 -0.13181837 -0.060926884 -0.0011356879
000150 c2 ec f7 3c c0 8e 0d 3d 66 6d d7 3c f3 72 9f 3c
       0.030264262 0.034559965 0.026297282 0.019463992
000160 79 2e d5 3c 6d 73 92 bd 56 2c cb 3d b5 2f be bd
       0.026023136 -0.07150922 0.09920566 -0.09286443
000170 9a f3 b7 3a 1c e8 e8 bc c3 31 20 bd c7 e4 78 bd
       0.0014034391 -0.02843099 -0.039109956 -0.060765054
000180 d0 d0 e7 bd de 35 78 bd 5a 44 fb bd e8 7f f1 3b
       -0.11319125 -0.060598247 -0.122688964 0.007369984
000190 f1 4a 85 3d a9 b9 b9 3d 3e 69 14 3d b6 91 0a 3d
       0.065084346 0.09068615 0.03623318 0.033830367
0001a0 f1 c8 e7 bd cc e0 00 3e ca 8a 7b be 89 8c 32 3d
       -0.113176234 0.12585753 -0.24564663 0.043591056
0001b0 7d 76 12 3d 5b 1a a7 bc fa 24 d8 bc 01 16 0b be
       0.03575753 -0.02039831 -0.02638482 -0.13582613
0001c0 6d d6 ef bd e5 a2 ed b9 bd fa 8b 3d 95 b1 86 bd
       -0.1171082 -0.00045325528 0.06834934 -0.0657684
0001d0 21 6c a5 bd 9f 92 4c bb 40 b7 4c 3d c6 4e a4 ba
       -0.080772646 -0.0031215323 0.04997945 -0.0012535683
0001e0 2a 20 0f bd 9d c6 de bd 0d 6b 3e 3c 2f fa c4 bc
       -0.034942783 -0.10877726 0.011622203 -0.024045078
0001f0 35 e9 94 bd e9 b3 08 bd 11 85 0d 3b 46 39 06 3d
       -0.07271043 -0.0333747 0.0021594206 0.032769464
000200 76 aa a9 bc c3 91 f8 3c ad bc 95 bd e5 e3 43 3e
       -0.020711165 0.030342942 -0.07311378 0.19129904
000210 b6 f5 53 3e b2 98 15 3e 0d 5c be 3d fd cd 11 bc
       0.206992 0.1460903 0.09294901 -0.008899209
000220 d7 ef 26 3d 28 04 9a bd 1a bf 20 bc 52 a4 c0 3d
       0.040756073 -0.07520324 -0.009811187 0.094063416
000230 54 b7 a6 bd 49 85 86 bd c1 a8 5c 3c 82 ac 97 bd
       -0.08140436 -0.06568391 0.013467968 -0.0740595
000240 60 f2 94 bd 22 d3 c0 bc f4 64 8e bc 08 be 58 bd
       -0.07272792 -0.023538176 -0.017382123 -0.052915603
000250 12 22 b7 bd 2d 25 44 bc cd d3 9b bd ab 1d 11 3d
       -0.08942045 -0.011971754 -0.07608757 0.035428684
000260 e6 f7 c9 bd ec 1f ab 3d 74 06 a3 3d 11 76 c7 bd
       -0.09861736 0.08355698 0.07960215 -0.09739316
000270 9e 1e b7 3d 48 ec 26 be 15 98 a0 3a 79 9a ae bd
       0.08941387 -0.16301072 0.0012252355 -0.08525557
000280 87 0f 08 be 06 cf dd bd 0d 0a c5 bd 85 fb 00 be
       -0.13287173 -0.10830502 -0.09621058 -0.12595947
000290 64 f2 10 be 17 6a 7b bc b2 f8 8e bd 31 07 ac bc
       -0.14154965 -0.015345118 -0.069810286 -0.020999523
0002a0 7d 77 96 bc e0 9e fe 3c 31 5b 65 bc b9 6c 19 be
       -0.018367523 0.031081617 -0.0139987925 -0.1498288
0002b0 e6 1e 2a bd 27 1d 38 bc ac 04 59 3d 75 e1 bc bc
       -0.041533373 -0.011237419 0.05298297 -0.023056725
0002c0 50 94 0f 3e be 49 d9 bd 54 58 e3 3b 8c ab 0b bc
       0.1402142 -0.10609768 0.00693802 -0.008524787
0002d0 1a a9 b8 3d bd 79 b2 3c ea b3 ad bd 99 60 4e bb
       0.090166286 0.021786565 -0.084815815 -0.0031490682
0002e0 ff f3 6b 3d 89 94 b5 bc 5c 41 fe bb bd a3 a8 bc
       0.05760574 -0.022165554 -0.0077592563 -0.020585889
0002f0 ea c3 cb 3c ee a4 23 be 62 da 34 3d af 92 06 be
       0.024873693 -0.15980884 0.04415358 -0.13141893
000300 42 28 ba bc 0a 15 7c 3c 16 a5 fd bc ca 94 ed bd
       -0.022724275 0.0153858755 -0.030962508 -0.11600645
000310 6a fa db bc d9 08 9e bd 6e c0 ae 3d d7 ee 5a 3c
       -0.026852805 -0.07716531 0.08532797 0.013362608
000320 65 6b 94 3c 8a 72 50 3b 47 d6 04 be fb 79 e1 bd
       0.018117616 0.0031806552 -0.12972365 -0.11009594
000330 39 06 07 3c fb 58 18 bc 1b 34 54 3d b1 d3 d4 bd
       0.00824123 -0.009298558 0.051807504 -0.103919394
000340 ee ba 66 3c f2 be 92 bb f2 c2 56 bd 19 b4 00 bd
       0.014082653 -0.004478329 -0.052432008 -0.031421755
000350 5e 1b 39 3d 91 c5 ea bd 7e cf a8 bd 13 03 5b bd
       0.045192115 -0.11463464 -0.08242701 -0.05346973
000360 e3 fa 85 bd 15 bc 88 bd 42 3e 21 bd 49 27 93 bd
       -0.065419935 -0.06676499 -0.039366014 -0.071852274
000370 99 47 e0 bd 20 c9 de 3a 88 e3 37 bd fa 84 7b 3d
       -0.10951156 0.0016997196 -0.044894725 0.061406113
000380 2f 39 b3 bd 09 0e 94 bd d9 bc 07 bd 07 10 94 3b
       -0.08751141 -0.072292395 -0.033139084 0.004518512
000390 46 d2 e2 3a e3 52 4a 3c f2 93 53 3e 86 bf 1b 3e
       0.0017305098 0.012348863 0.20661905 0.15209779
0003a0 51 fd 5f be 66 4b f0 bd 96 95 d5 3c 50 6b 39 3d
       -0.21873976 -0.11733131 0.026072305 0.045268357
0003b0 34 6d 19 3e d6 cc 96 bd de d9 8b 3d b0 65 7e 3d
       0.14983064 -0.07363288 0.06828664 0.062108696
0003c0 05 be 4c bd 79 00 9a 3d b2 54 bb bd 09 d9 aa 3b
       -0.049985904 0.075196214 -0.09147014 0.005213861
0003d0 30 34 52 3e 50 bb c6 bb 6b 61 a3 bc 97 4c 88 3d
       0.2052772 -0.00606481 -0.019943913 0.06655233
0003e0 f1 52 d4 3d 04 05 ce 3c f4 a6 36 3b 82 2d bf 3d
       0.10367382 0.025148876 0.0027870508 0.09334852
0003f0 77 4d 6a bd 60 d7 d4 3b 9a 1c ab bd d4 3e da bd
       -0.057202782 0.0064954013 -0.08355065 -0.10656515
