surrogate/run/train/routing/saves/train-test2/05min/lake/state_dict.pt (torch, 535012 bytes, 8 tensors)

pre_sequence.0.weight f4 [126, 34]
-0.0277898 0.014735358 0.0363725 0.0027061114 0.06364399 -0.05696403 0.1637086 0.11586158
-0.1436399 0.03506348 0.053288117 -0.15876119 -0.07624842 -0.07123995 0.14900382 0.124413766
-0.10196781 0.08879351 0.16827214 -0.054626733 0.081307836 -0.07281095 0.15454169 0.049801953
0.0832364 -0.14945404 0.122889005 0.009779357 -0.10973597 0.16819832 0.13621485 0.053055573
0.112252556 0.051084194 -0.15806758 0.0993677 0.15678743 -0.08764092 0.028765703 -0.12800984
0.039177917 -0.02603265 0.08347789 -0.08787794 -0.16871837 -0.106445275 -0.04557585 -0.049505327
-0.07760013 -0.06948559 0.13215293 0.12742224 0.15266052 -0.11575417 -0.0796882 -0.065776266
-0.014173092 0.15188219 -0.0062245578 -0.066701405 0.06827181 0.06486077 0.0070186653 -0.09368188
-0.055710867 0.14930572 0.0281498 0.07351598 -0.020166637 0.09615513 0.05369076 0.11952435
-0.063575685 0.042725857 0.11671973 -0.054112002 0.060961716 -0.013670281 -0.1666388 0.06485236
0.060753897 0.09518349 -0.16048643 0.13464597 -0.11841279 -0.047949158 0.11448873 0.03617566
-0.14874592 -0.1195425 0.042266075 0.104618326 -0.06940023 -0.0003697439 -0.13242735 -0.14956947
-0.00074419926 -0.13344382 -0.09980756 -0.11616075 0.11762701 0.060190517 -0.1758148 -0.09636362
-0.07093747 0.06707237 -0.12761348 0.14082007 0.038081728 0.026186423 -0.0027790426 0.12500179
0.058143687 0.06415949 -0.13322508 0.13175632 0.08337342 -0.010874999 0.071133 -0.20059805
-0.044253893 -0.1355534 0.035449002 0.06988885 0.13510455 0.109216034 0.062422134 0.10063591
0.17308724 -0.025403343 -0.08177442 0.08229085 -0.038988534 0.062470507 -0.12644772 -0.00632708
0.043145698 0.08740929 -0.050658036 0.17007494 -0.10009777 0.027591296 0.0077184364 -0.079911985
0.021615794 -0.1081891 0.1452409 -0.021211898 -0.09843634 0.08728966 -0.167419 -0.060432848
0.0935589 0.07331325 0.10740435 -0.13788587 0.09891177 -0.049368255 -0.12104818 -0.11087157
-0.08157384 0.001222179 0.118664846 -0.05197484 0.18086934 0.0780268 0.02409223 0.014767254
-0.18897569 -0.010671652 -0.021879006 -0.15193257 -0.1377889 0.0064547 0.059818257 -0.035679694
-0.026101505 -0.0005902095 -0.14681819 0.12921503 0.10231241 0.13389613 -0.17486764 0.1261641
0.08261999 -0.10003206 -0.13528849 -0.076276705 0.19269672 -0.12549156 0.014323361 -0.05830362
0.1465186 -0.15605979 -0.04212065 0.032657415 0.028841551 0.033367682 -0.13795435 0.15099327
0.0031706977 0.07868199 0.14207926 -0.20307903 0.0241819 -0.06303491 0.0074856654 0.16179825
0.09586585 0.087157205 0.055446804 -0.09655797 -0.10746386 -0.08061047 0.067648366 0.07368249
-0.0063532097 -0.15656821 0.03217678 0.043169707 -0.09416812 -0.046830915 0.10678833 -0.07749943
0.05023248 0.031563394 0.048665 0.119876854 0.13197094 -0.19279249 0.028733341 -0.014308968
0.17057246 0.1399208 -0.17392415 0.15301381 -0.08828157 -0.050176375 -0.017047683 -0.020234244
0.11706201 -0.045759924 -0.115791574 -0.007883203 -0.14878407 0.07427117 0.071261816 0.1186675
-0.040918406 0.15881447 -0.1668715 0.16800533 -0.045365326 0.014100698 -0.039001644 0.11990065
00000000: 6fa7 e3bc 926c 713c 55fb 143d 0459 313b
00000010: c857 823d 1d53 69bd 3aa3 273e d648 ed3d
00000020: 5716 13be b99e 0f3d a444 5a3d 4b92 22be
00000030: 2228 9cbd 40e6 91bd 7594 183e a5cc fe3d
00000040: 80d4 d0bd 5fd9 b53d 884f 2c3e 48c0 5fbd
00000050: b984 a63d e81d 95bd 2d40 1e3e 22fd 4b3d
00000060: d877 aa3d 7b0a 19be 3bad fb3d 9939 203c
00000070: 41bd e0bd 2e3c 2c3e e87b 0b3e cd50 593d
00000080: abe4 e53d a93d 513d 78dc 21be 4b81 cb3d
00000090: e28c 203e 157d b3bd 0da6 eb3c 0315 03be
000000a0: 0679 203d 6d42 d5bc 75f6 aa3d 59f9 b3bd
000000b0: 82c4 2cbe fbff d9bd bead 3abd 19c6 4abd
000000c0: d1ec 9ebd 764e 8ebd 1953 073e fa7a 023e
000000d0: 0a53 1c3e 8610 edbd 9133 a3bd b5b5 86bd
000000e0: 4236 68bc 0187 1b3e 60f7 cbbb bf9a 88bd
000000f0: 17d2 8b3d b9d5 843d d5fc e53b 49dc bfbd
00000100: 1431 64bd 99e3 183e 699a e63c 8c8f 963d
00000110: 8134 a5bc fbec c43d d8ea 5b3d 2fc9 f43d
00000120: f833 82bd 4f01 2f3d c10a ef3d 8ca4 5dbd
00000130: feb2 793d 50f9 5fbc 5da3 2abe 50d1 843d
00000140: 14d9 783d 90ef c23d 8e56 24be a2e0 093e
00000150: 6882 f2bd 5666 44bd 1179 ea3d ee2c 143d
00000160: da50 18be b3d2 f4bd 311f 2d3d 2242 d63d
00000170: b521 8ebd 30da c1b9 099b 07be bd28 19be
00000180: 5e16 43ba 7fa5 08be e867 ccbd b0e5 edbd
00000190: 6ee6 f03d 558a 763d cc08 34be 4a5a c5bd
000001a0: aa47 91bd 3d5d 893d 1cad 02be 2333 103e
000001b0: 96fb 1b3d e984 d63c 9920 36bb 7800 003e
000001c0: 1328 6e3d 0d66 833d 286c 08be 21eb 063e
000001d0: afbf aa3d 0d2d 32bc 2eae 913d 9369 4dbe
000001e0: 9243 35bd 83ce 0abe f932 113d e321 8f3d
000001f0: d958 0a3e a8ac df3d 5aae 7f3d 331a ce3d
00000200: c83d 313e ac1a d0bc 5979 a7bd 1b88 a83d
00000210: 71b2 1fbd 13e1 7f3d 837b 01be 6553 cfbb
00000220: 8bb9 303d a403 b33d cd7e 4fbd 2028 2e3e
00000230: 0f00 cdbd 2407 e23c f0ea fc3b e5a8 a3bd
00000240: 9b13 b13c 3f92 ddbd 08ba 143e 93c4 adbc
00000250: fe98 c9bd ecc4 b23d e36f 2bbe 6f88 77bd
00000260: cf9b bf3d 4225 963d d0f6 db3d f431 0dbe
00000270: 4192 ca3d 5e36 4abd 1ce8 f7bd a210 e3bd
00000280: 2f10 a7bd 8631 a03a 8e06 f33d 92e3 54bd
00000290: d035 393e 84cc 9f3d 115d c53c 5af2 713c
000002a0: d882 41be 27d8 2ebc 9a3b b3bc 3694 1bbe
000002b0: 8918 0dbe f381 d33b fd03 753d df24 12bd
000002c0: d3d2 d5bc 4ab8 1aba 8257 16be f250 043e
000002d0: 2b89 d13d 111c 093e 8110 33be 2931 013e
000002e0: ab34 a93d 9cdd ccbd 1189 0abe f636 9cbd
000002f0: 4a52 453e dc80 00be 88ac 6a3c c7cf 6ebd
00000300: f908 163e 23ce 1fbe b486 2cbd c8c3 053d
00000310: 1e45 ec3c 8dac 083d e843 0dbe fb9d 1a3e
00000320: 7bcb 4f3b 0624 a13d 3a7d 113e f3f3 4fbe
00000330: 1f19 c63c 7218 81bd 504a f53b 71ae 253e
00000340: 5155 c43d 7a7f b23d 301c 633d 2fc0 c5bd
00000350: 0316 dcbd 1a17 a5bd 3a8b 8a3d d8e6 963d
00000360: 962e d0bb 6b53 20be cdcb 033d b8d2 303d
00000370: 37db c0bd c6d1 3fbd d7b3 da3d 05b8 9ebd
00000380: 93c0 4d3d 9e48 013d f354 473d ff81 f53d
00000390: 6423 073e 656b 45be 2f62 eb3c 2970 6abc
000003a0: 8caa 2e3e 6647 0f3e 2c19 32be a7af 1c3e
000003b0: f8cc b4bd be85 4dbd 95a7 8bbc 49c2 a5bc
000003c0: 35be ef3d c26e 3bbd 2224 edbd 8d28 01bc
000003d0: da5a 18be 7c1b 983d b7f1 913d f207 f33d
000003e0: 0f9a 27bd 43a0 223e 5de0 2abe 9709 2c3e
000003f0: fed0 39bd 9d06 673c 30c0 1fbd 798e f53d

pre_sequence.0.bias f4 [126]
0.14871438 0.13477252 0.09936421 -0.07312304 0.058920126 0.20915458 -0.07657076 0.13495387
0.12694527 0.07615003 0.05956574 0.16092376 0.0540196 0.0986165 0.07508554 0.1193351
-0.054003473 -0.1657117 0.15174848 0.17253028 -0.055634025 0.030082926 0.07586061 0.0969531
0.13457182 0.10128806 -0.009692344 -0.08948492 -0.15375616 0.113413334 0.08769682 -0.04139957
-0.07012111 -0.03790421 -0.045623556 0.061544858 0.019005502 -0.009042605 -0.0052412925 -0.115624905
0.0938379 0.08945078 0.123228826 -0.020108268 -0.07931332 0.11703584 -0.046704154 -0.06322438
0.16314614 -0.093818136 0.103888705 0.104735695 -0.18570942 0.034219384 -0.019612065 0.038741224
-0.10795007 0.047988333 -0.16641816 -0.06760908 -0.16321503 -0.032296903 -0.14483178 0.020609446
0.10604256 0.11511522 0.1600291 0.08140348 0.13115217 -0.08795384 0.10405399 -0.13532504
0.119411655 0.13209102 0.14383157 -0.040612876 -0.024998482 -0.04475204 0.10557415 -0.13345827
-0.004915518 -0.06182937 0.035952218 -0.16357191 -0.16667889 -0.10708472 0.02072217 0.0029852325
-0.14526898 0.15175061 -0.12956409 0.16248707 0.13551185 -0.042665068 -0.12282158 -0.029334983
-0.07469712 -0.08457683 0.11640778 0.0018854513 -0.09717098 -0.12701301 -0.110503204 -0.15428272
-0.09923405 -0.16071342 -0.073833205 0.124142565 -0.12816703 0.075495906 0.076939955 0.14512517
-0.14236978 0.010967759 -0.030334268 -0.0152238 0.067450844 0.08161233 0.07827607 0.08630527
0.14480521 0.16180739 0.123324245 -0.08737282 0.17695414 0.09856099
00000000: 9548 183e cf01 0a3e 777f cb3d 88c1 95bd
00000010: 3b56 713d 9e2c 563e 21d1 9cbd 5931 0a3e
00000020: f1fd 013e 8cf4 9b3d 35fb 733d 33c9 243e
00000030: a843 5d3d 73f7 c93d 73c6 993d f665 f43d
00000040: bf32 5dbd 54b0 29be f463 1b3e c7ab 303e
00000050: 81e0 63bd 7870 f63c cf5c 9b3d 598f c63d
00000060: 32cd 093e 1d70 cf3d a3cc 1ebc df43 b7bd
00000070: 4172 1dbe 4045 e83d 649a b33d 9892 29bd
00000080: a89b 8fbd 7241 1bbd c4df 3abd 7616 7c3d
00000090: 6db1 9b3c 6f27 14bc 26bf abbb c0cc ecbd
000000a0: 162e c03d f831 b73d 655f fc3d 18ba a4bc
000000b0: 066f a2bd 7db0 ef3d db4c 3fbd c97b 81bd
000000c0: c80f 273e b923 c0bd 9ac3 d43d ab7f d63d
000000d0: 9c2a 3ebe a029 0c3d 7ba9 a0bc 1eaf 1e3d
000000e0: ed14 ddbd 6a8f 443d 8669 2abe a176 8abd
000000f0: d721 27be c249 04bd c84e 14be 24d5 a83c
00000100: d72c d93d 87c1 eb3d abde 233e deb6 a63d
00000110: c14c 063e 2521 b4bd 421a d53d a692 0abe
00000120: 198e f43d de42 073e 9548 133e b059 26bd
00000130: 9ec9 ccbc ea4d 37bd 4337 d83d 49a9 08be
00000140: 5b12 a1bb cb40 7dbd a242 133d 657f 27be
00000150: dfad 2abe 3c4f dbbd 8ac1 a93c e4a3 433b
00000160: 64c1 14be 8364 1b3e 73ac 04be 0363 263e
00000170: 9ec3 0a3e 91c1 2ebd e189 fbbd eb4f f0bc
00000180: cefa 98bd 9e36 adbd 3467 ee3d 3f21 f73a
00000190: 9401 c7bd b30f 02be 814f e2bd 4afc 1dbe
000001a0: 393b cbbd 0f92 24be dd35 97bd 753e fe3d
000001b0: 383e 03be 999d 9a3d b292 9d3d b19b 143e
000001c0: 62c9 11be 1eb2 333c 927f f8bc 3f6d 79bc
000001d0: ab23 8a3d 5e24 a73d 344f a03d d1c0 b03d
000001e0: d147 143e d6b0 253e 6c91 fc3d 85f0 b2bd
000001f0: 7733 353e 58da c93d

post_sequence.1.weight f4 [4, 126]
-0.057475187 0.093795925 0.07764557 0.0056191077 -0.037210193 0.08612637 -0.036516555 -0.060386296
0.05334698 -0.003145692 -0.088997655 0.017343242 0.03473558 0.02729405 -0.07405414 -0.080636956
0.0136191305 0.030127572 0.04227621 0.07027806 -0.093283854 0.042541783 0.09107811 0.049817756
-0.052848086 -0.04128658 0.05891935 0.090805404 -0.023844589 0.078053296 0.05481023 -0.10545946
0.015408091 -0.061042413 -0.06279682 0.05688625 0.1200314 0.04982585 0.041937888 0.054798897
0.042973097 -0.11068103 0.044591263 0.07918344 0.039766375 0.05226611 -0.04988489 0.06288459
0.02078785 -0.08613086 0.062390737 0.041109674 -0.08286294 -0.0023687263 0.006340221 0.040924333
0.03131677 -0.035861686 -0.0056254724 -0.04717976 0.11176369 -0.10214839 -0.060485892 -0.024192326
-0.011840106 -0.112965316 -0.081418015 -0.062271032 0.097315274 -0.10583773 -0.04368175 0.08445943
0.059297476 0.040786695 0.082691394 0.056730002 -0.09286296 -0.04158731 -0.0866203 -0.021902194
-0.056883074 0.038370825 -0.060781978 -0.020706274 0.021842858 0.04696161 -0.00060947187 0.07146043
-0.060852166 -0.112605624 0.007903427 -0.09841249 -0.037205793 0.04837342 -0.096202016 -0.040952317
0.10593495 0.061618485 -0.016296629 -0.06895121 -0.054878205 0.075922675 -0.02895029 -0.09302648
-0.09639977 -0.11299695 -0.0668383 0.09746863 -0.012453448 0.032529753 0.040352955 -0.045005232
-0.024260495 0.018625645 0.026462799 0.09522821 0.056752086 -0.10377799 0.014662371 -0.0038849222
0.053924397 -0.022177638 -0.099048525 -0.07955587 -0.08925194 0.015698789 -0.121498816 0.06838836
-0.06368676 0.121406205 -0.11069202 0.0653453 -0.10001996 0.02143132 -0.035356693 0.10209583
0.062328666 -0.06700156 0.07467478 -0.08389128 0.04363318 -0.05401119 0.100013964 -0.08104301
0.12630738 0.020604912 -0.075324856 0.07907296 0.104698196 0.016578155 0.102282785 -0.039193153
0.085122496 0.087808825 -0.12190894 0.077450484 0.069525264 -0.05296922 -0.00601204 0.11783581
-0.09994172 0.06327527 0.06643925 0.07376153 -0.07214002 0.11987543 0.12717305 -0.13198894
0.013351005 0.027026115 0.05882029 0.11361623 0.055513617 -0.009798335 0.0765632 0.07107077
-0.041423146 -0.12455358 -0.05326413 -0.10773632 0.11828728 0.11241135 0.11967257 0.109266624
0.09060531 -0.07859777 0.019076684 -0.037415344 -0.016141314 -0.07482899 -0.0891104 -0.12827915
-0.04214525 0.024082754 0.101050586 -0.12182822 0.010307473 0.11139544 -0.0037468493 -0.036786087
0.03403826 -0.10420738 -0.11184428 -0.08781903 -0.09388656 -0.11510021 0.011195789 0.06135711
0.11082737 0.06755956 -0.00094765273 0.11003131 0.06558089 -0.050996516 0.06773106 0.057164848
-0.093533345 -0.042224776 -0.056575514 0.13212605 0.0583426 0.06086472 0.07672402 0.0887554
0.049752284 -0.028125713 -0.1106057 -0.012420213 -0.119121544 0.05367651 0.021685915 -0.033244453
-0.084280804 0.0051751547 -0.11264388 0.0033583757 -0.039397057 -0.0863156 0.029321378 -0.12892686
-0.101324886 0.057378203 -0.00760197 -0.12113884 0.022213515 -0.03884298 0.063656755 0.05144169
-0.03702869 -0.114360504 0.053204052 0.010959111 -0.058462847 0.119311094 0.067553096 0.12854561
00000000: 1a6b 6bbd 1418 c03d a404 9f3d 7e20 b83b
00000010: b769 18bd 0663 b03d 6292 15bd 9f57 77bd
00000020: 5d82 5a3d f427 4ebb 6744 b6bd 6a13 8e3c
00000030: e546 0e3d c697 df3c b2a9 97bd fd24 a5bd
00000040: c622 5f3c 19ce f63c d229 2d3d f2ed 8f3d
00000050: 9b0b bfbd 4b40 2e3d 2987 ba3d b40d 4c3d
00000060: 3c77 58bd 1e1c 29bd 6b55 713d 2ff8 b93d
00000070: ba55 c3bc 68da 9f3d b180 603d 21fb d7bd
00000080: 3872 7c3c 9c07 7abd 9f9b 80bd 8e01 693d
00000090: 06d3 f53d 3116 4c3d 10c7 2b3d cf74 603d
000000a0: 8f04 303d bcac e2bd 54a5 363d ed2a a23d
000000b0: 11e2 223d fd14 563d 1954 4cbd a3c9 803d
000000c0: 484b aa3c 6065 b0bd 6e8d 7f3d 9e62 283d
000000d0: 0cb4 a9bd a23c 1bbb a1c1 cf3b 46a0 273d
000000e0: 0346 003d b4e3 12bd e255 b8bb 903f 41bd
000000f0: 5de4 e43d 2d33 d1bd 0ec0 77bd fc2e c6bc
00000100: 01fd 41bc 5c5a e7bd 7dbe a6bd e90f 7fbd
00000110: 3b4d c73d 74c1 d8bd a2eb 32bd 11f9 ac3d
00000120: e9e1 723d f30f 273d 1b5a a93d b85d 683d
00000130: f02e bebd 7557 2abd fc65 b1bd 3b6c b3bc
00000140: 3afe 68bd ba2a 1d3d 86f6 78bd 34a0 a9bc
00000150: cbef b23c d15a 403d f7c4 1fba d959 923d
00000160: 1f40 79bd c79d e6bd 607d 013c 7d8c c9bd
00000170: 1a65 18bd 3523 463d 9005 c5bd 9ebd 27bd
00000180: 6cf4 d83d aa63 7c3d 8280 85bc 4b36 8dbd
00000190: f8c7 60bd 597d 9b3d 2929 edbc ab84 bebd
000001a0: 3e6d c5bd f26a e7bd 85e2 88bd a29d c73d
000001b0: 8c09 4cbc eb3d 053d 2449 253d 6857 38bd
000001c0: f2bd c6bc cf94 983c 83c8 d83c 0207 c33d
000001d0: e074 683d 8e89 d4bd 713a 703c 2e9a 7ebb
000001e0: d4df 5c3d e1ad b5bc f4d9 cabd 30ee a2bd
000001f0: b9c9 b6bd bf9a 803c 5fd4 f8bd 320f 8c3d
00000200: 346e 82bd d1a3 f83d 7fb2 e2bd c2d3 853d
00000210: 44d7 ccbd bc90 af3c 2ed2 10bd 9e17 d13d
00000220: 584c 7f3d 1d38 89bd 17ef 983d 31cf abbd
00000230: b5b8 323d d63a 5dbd 1fd4 cc3d e1f9 a5bd
00000240: b956 013e a2cb a83c eb43 9abd 01f1 a13d
00000250: 026c d63d e9ce 873c a379 d13d 0089 20bd
00000260: b454 ae3d 1dd5 b33d 65ab f9bd 5c9e 9e3d
00000270: 4363 8e3d 41f6 58bd a600 c5bb e753 f13d
00000280: 3fae ccbd 7796 813d 4d11 883d 4910 973d
00000290: 26be 93bd 4081 f53d a739 023e 1c28 07be
000002a0: 2cbe 5a3c df65 dd3c 8bed 703d a0af e83d
000002b0: 3f62 633d 3289 20bc 2bcd 9c3d 8d8d 913d
000002c0: 51ab 29bd f315 ffbd 7d2b 5abd dca4 dcbd
000002d0: 9a40 f23d ec37 e63d e416 f53d 2ec7 df3d
000002e0: 478f b93d def7 a0bd b546 9c3c d540 19bd
000002f0: ca3a 84bc f13f 99bd 837f b6bd 9c5b 03be
00000300: 7fa0 2cbd 3249 c53c 9cf3 ce3d 1381 f9bd
00000310: ade0 283c 4b23 e43d b38d 75bb 02ad 16bd
00000320: b46b 0b3d ae6a d5bd 9d0e e5bd 77da b3bd
00000330: 9947 c0bd a9b9 ebbd 8b6e 373c 9851 7b3d
00000340: 76f9 e23d ab5c 8a3d e66b 78ba 1858 e13d
00000350: 464f 863d b9e1 50bd 95b6 8a3d b025 6a3d
00000360: 698e bfbd e3f3 2cbd babb 67bd 0d4c 073e
00000370: a6f8 6e3d 494d 793d 7c21 9d3d 64c5 b53d
00000380: 0dc9 4b3d e567 e6bc 3e85 e2bd 267e 4bbc
00000390: fff5 f3bd e6db 5b3d a9a6 b13c 562b 08bd
000003a0: 6a9b acbd 5894 a93b d6b1 e6bd 3218 5c3b
000003b0: cf5e 21bd 3cc6 b0bd 6333 f03c 6705 04be
000003c0: 6c83 cfbd 6805 6b3d f219 f9bb a417 f8bd
000003d0: 1ef9 b53c d119 1fbd 795e 823d 86b4 523d
000003e0: 65ab 17bd d735 eabd 7eec 593d d88d 333c
000003f0: bd76 6fbd 6059 f43d 4759 8a3d 76a1 033e

post_sequence.1.bias f4 [4]
-0.021608496 0.044326648 0.05695201 -0.022283241
00000000: 4d04 b1bc dc8f 353d 8346 693d 588b b6bc

lstm.weight_ih_l0 f4 [504, 126]
-0.016313702 -0.06336868 0.0012326186 0.06884114 0.023998212 -0.09825351 0.041476227 -0.055693086
0.032437585 0.09509449 -0.052545544 0.014787027 0.019571064 -0.018893113 0.09505369 0.06313286
-0.046419803 0.07928423 -0.06418773 -0.06129082 -0.07047136 -0.010968021 0.055544857 -0.054410245
0.04196474 0.045516755 -0.0036517235 -0.006644859 0.05182766 -0.057557423 -0.0025899236 -0.026657263
0.08136652 0.051911972 0.0127526885 -0.06377034 0.015522318 -0.065778844 -0.03280822 -0.032526862
-0.08989273 0.049808435 0.08613826 0.015571231 0.062169008 -0.080141686 -0.016810048 -0.04857437
-0.09036783 0.081416406 -0.08840269 -0.069094 -0.08485283 0.019636618 0.017309347 0.07920358
-0.005286427 -0.07602422 0.06811816 -0.010846274 0.062845044 0.024051305 0.014770931 0.077081926
-0.06570287 -0.026887562 -0.030582754 -0.05858756 0.029444797 -0.030697593 -0.024920698 -0.06301937
-0.088734485 0.049378492 0.074202836 0.050463174 0.06739294 -0.00050851435 -0.056148257 -0.060767967
0.0680773 -0.016424647 -0.05207346 0.0062505263 0.0953274 0.00031307974 -0.058716852 -0.060708392
0.016768271 0.006913659 0.019623995 0.07562338 0.0731793 -0.058670275 -0.071088284 0.0100452015
0.035380334 -0.073194586 -0.036551394 0.017289288 0.04681493 -0.045861334 -0.06670692 0.052459992
-0.049221054 0.06028736 0.014766953 0.022895321 0.085923344 -0.017743232 -0.0077487705 -0.0075547197
-0.03931122 0.051801242 0.08149204 0.025135199 -0.07406633 0.022519507 -0.021479545 0.08343622
0.057255954 0.0525343 0.060626503 -0.0499809 0.06581141 0.06845116 -0.010498664 0.010737099
0.051167995 -0.10617902 0.063074306 0.045440253 -0.042361107 -0.05987736 -0.08377703 0.04649862
0.0132607035 -0.056542747 0.0036825682 -0.018710388 -0.04136657 0.061411493 0.0116521185 -0.017254096
-0.015235312 0.043346927 -0.0020669827 -0.04700604 0.019186558 0.045257814 0.028809406 -0.051361732
-0.020932762 -0.006322445 0.04614751 -0.023092221 -0.031610478 -0.09617923 0.05616929 0.060733914
-0.04307698 -0.025255742 0.029108845 -0.013226907 -0.020181105 0.026317133 -0.093978256 -0.09372736
0.01796137 0.007760857 -0.011920257 -0.0093443645 0.070278525 -0.023347951 -0.051109154 -0.016293028
-0.07992577 0.028023915 0.010747257 0.077450626 0.08469727 -0.043836437 0.035198607 -0.021310713
0.009045638 0.070183545 -0.022776578 0.07731507 -0.03407061 -0.05913492 -0.10999245 0.04667717
-0.02501834 -0.06489788 -0.075004384 -0.01317708 0.011862762 -0.085707024 -0.017058209 0.058720917
0.041899297 -0.041604646 0.07604716 -0.012975833 -0.04043073 0.020255554 0.065440334 -0.037408344
0.018765697 0.039951324 0.035198487 -0.0010143236 -0.027355522 0.06920529 -0.044161256 0.08453091
0.027671231 -0.064244375 0.04859442 -0.04908807 0.019898076 -0.013937494 -0.07201313 -0.027184607
0.0064575067 0.050578736 -0.025348373 -0.09921112 -0.058145087 0.006056235 -0.101842426 -0.011590156
-0.094132386 -0.01192955 -0.055910077 -0.003768645 0.088173434 -0.07264905 0.027923549 0.057828825
-0.0012843462 -0.06391726 0.008530478 -0.07798104 0.077630654 -0.066870116 -0.06643223 0.06664456
-0.0495499 0.02003743 0.076915495 -0.07154546 0.09150423 0.015929647 -0.013440605 -0.034388594
00000000: 50a4 85bc 70c7 81bd d18f a13a 95fc 8c3d
00000010: e697 c43c 2339 c9bd fae2 293d 6f1e 64bd
00000020: 46dd 043d e6c0 c23d ff39 57bd 4945 723c
00000030: 7f53 a03c bbc5 9abc 82ab c23d cd4b 813d
00000040: b122 3ebd c55f a23d db74 83bd 150c 7bbd
00000050: 4a53 90bd 37b3 33bc 0183 633d 47dd 5ebd
00000060: 38e3 2b3d c76f 3a3d c151 6fbb 1ebd d9bb
00000070: 3e49 543d 55c1 6bbd b5bb 29bb 5560 dabc
00000080: 7da3 a63d a6a1 543d a7f0 503c 069a 82bd
00000090: 5251 7e3c 0fb7 86bd e961 06bd e33a 05bd
000000a0: ae19 b8bd ee03 4c3d 4269 b03d 7a1e 7f3c
000000b0: eea4 7e3d 5321 a4bd 3ab5 89bc ebf5 46bd
000000c0: c512 b9bd a5bd a63d 780c b5bd 2881 8dbd
000000d0: 52c7 adbd f9dc a03c 55cc 8d3c 7d35 a23d
000000e0: c439 adbb 96b2 9bbd 8981 8b3d 92b4 31bc
000000f0: e7b4 803d 3e07 c53c c601 723c 21dd 9d3d
00000100: 3a8f 86bd 4e43 dcbc af88 fabc 82f9 6fbd
00000110: 3736 f13c 8579 fbbc 7e26 ccbc 4d10 81bd
00000120: 6dba b5bd 1a41 4a3d a8f7 973d 79b2 4e3d
00000130: 4f05 8a3d d24d 05ba b7fb 65bd d5e7 78bd
00000140: 1d6c 8b3d fb8c 86bc fb4a 55bd 37d1 cc3b
00000150: 033b c33d da24 a439 1581 70bd 5da9 78bd
00000160: 9d5d 893c fa8b e23b 80c2 a03c 6ee0 9a3d
00000170: 07df 953d 3e50 70bd bc96 91bd a194 243c
00000180: f8ea 103d 0be7 95bd eab6 15bd 44a2 8d3c
00000190: 03c1 3f3d 18d9 3bbd a39d 88bd 4ae0 563d
000001a0: 049c 49bd e1ef 763d 17f1 713c f88e bb3c
000001b0: 94f8 af3d 415a 91bc 66e9 fdbb 958d f7bb
000001c0: cd04 21bd 8a2d 543d 4ce5 a63d 55e8 cd3c
000001d0: 17b0 97bd d47a b83c dff5 afbc 9ce0 aa3d
000001e0: 3885 6a3d 352e 573d 7f53 783d c6b8 4cbd
000001f0: 22c8 863d 1f30 8c3d 9702 2cbc a8ea 2f3c
00000200: 8895 513d 6374 d9bd 1a2d 813d 8f1f 3a3d
00000210: d782 2dbd f641 75bd 4b93 abbd 5675 3e3d
00000220: 6c43 593c 5e99 67bd 3e57 713b 8746 99bc
00000230: fe6f 29bd 9e8a 7b3d 87e8 3e3c 7658 8dbc
00000240: 889d 79bc 8c8c 313d 3776 07bb 6889 40bd
00000250: 212d 9d3c 4260 393d b401 ec3c ae60 52bd
00000260: 2f7b abbc 832c cfbb 2c05 3d3d e62b bdbc
00000270: fd79 01bd 9ef9 c4bd c511 663d 20c4 783d
00000280: 7d71 30bd 21e5 cebc ac75 ee3c abb5 58bc
00000290: d852 a5bc 0797 d73c ac77 c0bd 21f4 bfbd
000002a0: b923 933c ca4e fe3b 2e4d 43bc 1b19 19bc
000002b0: 30ee 8f3d 3444 bfbc d557 51bd f578 85bc
000002c0: 1fb0 a3bd 6992 e53c 4315 303c 6f9e 9e3d
000002d0: c375 ad3d d68d 33bd 6a2c 103d ce93 aebc
000002e0: 2834 143c 64bc 8f3d f295 babc 5d57 9e3d
000002f0: a08d 0bbd 7537 72bd b943 e1bd 8f30 3f3d
00000300: 43f3 ccbc 2ee9 84bd e69b 99bd aee4 57bc
00000310: 085c 423c 2a87 afbd a8bd 8bbc 5885 703d
00000320: 999e 2b3d a269 2abd 9dbe 9b3d 9798 54bc
00000330: b19a 25bd faee a53c 9505 863d 7e39 19bd
00000340: 85ba 993c 00a4 233d 4a2c 103d 0df3 84ba
00000350: b018 e0bc 81bb 8d3d 6fe2 34bd 8b1e ad3d
00000360: c7ae e23c 8e92 83bd f10a 473d 9210 49bd
00000370: 4a01 a33c 165a 64bc 9f7b 93bd 41b2 debc
00000380: 7e99 d33b a62b 4f3d 64a7 cfbc 332f cbbd
00000390: 8b29 6ebd 6273 c63b c392 d0bd a3e4 3dbc
000003a0: 7bc8 c0bd 2974 43bc f701 65bd 5ffb 76bb
000003b0: 4694 b43d 06c9 94bd edbf e43c ebdd 6c3d
000003c0: 8257 a8ba 0de7 82bd 6bc3 0b3c 86b4 9fbd
000003d0: d2fc 9e3d 33f3 88bd 9f0d 88bd f17c 883d
000003e0: d6f4 4abd 8925 a43c df85 9d3d 6d86 92bd
000003f0: 9266 bb3d e47e 823c fc35 5cbc 0edb 0cbd

lstm.weight_hh_l0 f4 [504, 126]
0.041127745 0.033205654 0.033160463 -0.07362443 -0.059165422 0.0023310212 0.07657735 0.086517684
0.06411913 0.011587701 -0.015840802 -0.029727077 -0.012123272 -0.038587544 -0.045127682 -0.09505002
0.07063546 -0.08117874 0.026816305 0.04039911 -0.027671354 0.025197273 0.012188449 -0.06281199
-0.026246538 0.08317343 -0.059827253 -0.094752006 0.06130697 -0.08077234 0.028690144 0.081159234
-0.036499873 0.04840461 -0.027143585 -0.10340235 -0.062939495 -0.040300913 -0.06304694 -0.07376457
0.047187272 -0.059301812 0.009290535 0.09665723 0.073442474 -0.07268753 -0.08445363 0.051959403
0.01268874 0.03299382 0.08473916 -0.10458405 -0.03504193 0.057023264 0.03084144 -0.0738282
-0.04972113 -0.042947285 -0.027335465 0.041029915 0.09308371 -0.08547858 -0.036398992 -0.0070087602
0.02633523 0.07418338 -0.06884108 -0.029706236 0.031176677 -0.039479632 0.0481924 0.027164305
0.05928696 -0.022198424 -0.044495326 -0.032471854 0.041190915 0.008288262 -0.09574978 -0.025566611
-0.08948332 -0.06237763 -0.051273428 0.051413752 0.052917603 0.044808827 0.031036258 0.018039163
0.005927809 0.05772916 0.020065423 -0.02142682 0.069354475 0.075424604 -0.05854034 -0.030659093
0.06488796 -0.069564305 0.09379675 0.020668574 -0.06461604 -0.0007755569 0.024018567 0.03607903
0.038185854 0.022022441 -0.015347473 -0.03029247 -0.0035792368 -0.025875071 -0.033314463 0.00031377788
0.04776379 0.03390554 0.029013649 0.02146539 0.050944485 -0.095436856 -0.038468823 -0.050566025
0.09105976 0.02944011 -0.075990215 0.025869805 -0.06296973 -0.081042476 0.029468982 0.071009934
0.017103078 0.04415205 -0.022935277 -0.08359117 -0.02921051 0.05674969 0.008364459 -0.07604164
-0.017151697 -0.025213031 -0.041922428 -0.020977419 -0.041185576 -0.07216307 0.012474534 -0.07203331
-0.042297617 -0.029714547 0.06618242 0.047511496 -0.029061815 -0.06285734 -0.033876546 -0.06598242
-0.008187477 0.023058724 -0.094445154 -0.0053709038 -0.049329963 -0.0020796182 0.033221126 -0.07435248
-0.05955556 0.10088867 0.041529257 0.040457036 -0.033293866 -0.046309326 -0.012803177 -0.04587704
0.016762039 0.06763302 0.09027537 0.08580779 -0.06942478 0.08437985 -0.025845015 0.03880975
0.024162415 -0.08085582 -0.050357502 -0.012364279 -0.036782656 -0.009898184 -0.050982393 0.08310706
-0.07569964 0.060081176 -0.06376955 -0.052395817 0.029692965 0.07036056 -0.06296241 0.054185573
0.06129983 0.0029110594 -0.06447849 -0.042544052 0.049046673 0.03381027 -0.039872643 -0.047179166
0.08038775 0.011278421 -0.07352923 -0.066168554 0.048456904 -0.095258236 0.052832104 -0.06571194
-0.009479466 0.0026816197 0.00987433 0.08887799 0.033926815 -0.01739719 -0.03029584 -0.008072227
-0.047084697 -0.08501602 0.03282286 0.048667904 -0.05060155 0.07170584 -0.009990595 0.045767225
-0.074516535 -0.03340446 -0.012255552 0.032834195 0.014965242 -0.07255711 0.074371256 0.046422563
-0.09063032 0.057342175 0.0666684 0.06794103 0.006508301 0.025218897 -0.1002573 0.0076280218
-0.07439325 0.057309557 -0.0028194585 -0.073352404 0.052874904 -0.024226781 0.10846864 0.085420646
-0.013460368 0.07157673 0.06488465 0.06166505 0.07746109 -0.07402596 -0.010485713 -0.10357993
00000000: 9175 283d a702 083d 44d3 073d 68c8 96bd
00000010: 7157 72bd 0cc4 183b 96d4 9c3d 2f30 b13d
00000020: e450 833d 57da 3d3c 92c4 81bc 3386 f3bc
00000030: b0a0 46bc f90d 1ebd ced7 38bd 96a9 c2bd
00000040: 53a9 903d 0a41 a6bd dead db3c 8a79 253d
00000050: 09af e2bc 836a ce3c 0fb2 473c 93a3 80bd
00000060: fb02 d7bc d556 aa3d 6c0d 75bd 570d c2bd
00000070: 041d 7b3d f86b a5bd 9807 eb3c d036 a63d
00000080: e480 15bd ea43 463d 395c debc 9cc4 d3bd
00000090: 6ce6 80bd 9212 25bd c11e 81bd e111 97bd
000000a0: 7147 413d 75e6 72bd 5437 183c 3af4 c53d
000000b0: 0269 963d 33dd 94bd 06f6 acbd 62d3 543d
000000c0: 6fe4 4f3c 8724 073d ba8b ad3d 2a30 d6bd
000000d0: 2088 0fbd 3a91 693d 30a7 fc3c 3d33 97bd
000000e0: 62a8 4bbd 7ee9 2fbd a0ee dfbc fc0e 283d
000000f0: aca2 be3d 650f afbd 1c17 15bd bea9 e5bb
00000100: fbbc d73c 75ed 973d 8dfc 8cbd 7e5a f3bc
00000110: 3b66 ff3c 65b5 21bd 6565 453d ad87 de3c
00000120: e2d6 723d 78d9 b5bc bb40 36bd 3501 05bd
00000130: ceb7 283d 7ecb 073c 7618 c4bd 1271 d1bc
00000140: 0843 b7bd b07f 7fbd 1604 52bd 3a97 523d
00000150: 21c0 583d 7689 373d c03f fe3c dec6 933c
00000160: 113e c23b 6975 6c3d 3e60 a43c 4c87 afbc
00000170: b809 8e3d 3778 9a3d ffc7 6fbd c728 fbbc
00000180: fbe3 843d bb77 8ebd 8318 c03d 2451 a93c
00000190: 6a55 84bd be4e 4bba 96c2 c43c 9bc7 133d
000001a0: c568 1c3d 6868 b43c f873 7bbc ea27 f8bc
000001b0: a191 6abb f5f7 d3bc bf74 08bd 8e82 a439
000001c0: f7a3 433d 89e0 0a3d 08ae ed3c 30d8 af3c
000001d0: 2aab 503d 6674 c3bd 7c91 1dbd 521e 4fbd
000001e0: 8a7d ba3d 632c f13c c2a0 9bbd eaec d33c
000001f0: 46f6 80bd 99f9 a5bd ef68 f13c a86d 913d
00000200: c11b 8c3c c8d8 343d c3e2 bbbc d931 abbd
00000210: e14a efbc 5d72 683d 150b 093c b8bb 9bbd
00000220: b781 8cbc 8f8b cebc dab6 2bbd d6d8 abbc
00000230: 35b2 28bd 3bca 93bd fd61 4c3c 3386 93bd
00000240: 4440 2dbd ec6b f3bc a68a 873d 6a9b 423d
00000250: 0b13 eebc 59bb 80bd 22c2 0abd cb21 87bd
00000260: c424 06bc a6e5 bc3c 766c c1bd 68fe afbb
00000270: 370e 4abd 344a 08bb e012 083d 1d46 98bd
00000280: 88f0 73bd b89e ce3d 951a 2a3d 47b6 253d
00000290: 265f 08bd d9ae 3dbd 6bc4 51bc 90e9 3bbd
000002a0: 8b50 893c 2e83 8a3d 4be2 b83d ffbb af3d
000002b0: 942e 8ebd 58cf ac3d edb8 d3bc f9f6 1e3d
000002c0: 42f0 c53c bc97 a5bd ab43 4ebd 8b93 4abc
000002d0: 69a9 16bd fe2b 22bc ead2 50bd 0934 aa3d
000002e0: 6a08 9bbd ae17 763d 9c99 82bd ff9c 56bd
000002f0: a93e f33c 3319 903d 70f2 80bd b1f1 5d3d
00000300: 8815 7b3d 79c7 3e3b 4c0d 84bd ac42 2ebd
00000310: 2ae5 483d a37c 0a3d 7f51 23bd f13e 41bd
00000320: 55a2 a43d 20c9 383c 7e96 96bd 6183 87bd
00000330: bf7a 463d c016 c3bd 7a66 583d fb93 86bd
00000340: c34f 1bbc 1dbe 2f3b f1c7 213c aa05 b63d
00000350: d8f6 0a3d 8d84 8ebc fb2e f8bc 6041 04bc
00000360: e2db 40bd e11c aebd 4371 063d ff57 473d
00000370: 9243 4fbd 83da 923d 98af 23bc 6a76 3b3d
00000380: 209c 98bd 1dd3 08bd 83cb 48bc 267d 063d
00000390: c630 753c d298 94bd f54f 983d 9625 3e3d
000003a0: 649c b9bd a1df 6a3d 7189 883d ab24 8b3d
000003b0: 9643 d53b dc97 ce3c b353 cdbd 7cf4 f93b
000003c0: 7d5b 98bd 6dbd 6a3d aac6 38bb c939 96bd
000003d0: 5b93 583d 3e77 c6bc ce24 de3d 05f1 ae3d
000003e0: e088 5cbc d296 923d 3ee2 843d 7e94 7c3d
000003f0: eca3 9e3d ec9a 97bd 45cc 2bbc b721 d4bd

lstm.bias_ih_l0 f4 [504]
0.04006384 -0.06300347 0.04826822 -0.012522342 -0.018460603 0.0032905154 0.05987571 -0.022928244
0.056231182 -0.046767905 0.04392976 -0.036073133 -0.021722702 0.08026365 0.022642955 -0.011227058
0.029404819 0.07589064 -0.08316964 0.057322998 -0.08010293 -0.033725414 -0.053868253 0.07054305
-0.0017471672 0.023265319 0.034619078 0.022941643 -0.043011777 0.089462265 -0.018426891 0.026166799
0.08553147 -0.066582985 -0.0023712425 0.08084251 0.047799896 0.074142314 0.049316194 0.02937593
-0.042338047 -0.016687077 -0.075652204 0.09130082 0.03429427 0.07131185 0.079359986 0.04248549
-0.07638645 0.021493433 -0.029465185 -0.0037125407 -0.028096922 -0.0002768655 0.058221985 -0.06287581
0.035966758 0.08955822 0.027783947 0.035634287 0.015790507 0.02960747 -0.050952893 0.02089409
0.040538013 -0.058373448 0.031761434 0.026417725 -0.03181143 0.017044283 0.02886417 -0.046508744
-0.023635134 -0.059765745 0.077358805 -0.08131596 0.06822415 -0.028958905 0.03283647 -0.066605054
-0.057867993 -0.04691202 -0.01399585 -0.037809066 -0.00047314836 2.10754e-06 -0.0034463813 0.0623119
0.10186434 0.015581074 0.0038477394 0.08258336 0.07138413 -0.01763436 0.08506715 0.03655461
0.0013920972 0.046686884 0.040635765 0.00847019 -0.06411098 0.11054143 -0.041676387 0.040127847
0.05325002 -0.049025275 -0.078691885 -0.01706766 -0.023112433 -0.014882862 -0.011151409 -0.093715265
-0.035376195 0.029980084 -0.05312246 0.08756479 0.011416286 0.07158118 -0.04806518 0.07238619
0.013369918 0.07954241 0.04017107 0.03234801 0.08222979 0.021107767 -0.029396726 -0.044348754
0.004754478 0.029203855 0.024048876 0.03167417 0.008464551 0.103657745 0.035912395 0.04166475
0.09703487 -0.032544736 -0.05541587 -0.039587487 -0.0010940721 -0.016149066 -0.040698197 0.0107476525
-0.0033130245 0.043434102 0.07185611 0.06921372 0.00042241445 0.0764765 -0.07589895 0.10621105
0.013653582 -0.06279519 0.06250309 0.02078203 0.010968045 0.02162012 0.08297152 -0.018147448
-0.061658893 0.07523581 0.077047616 0.04284551 -0.04930651 0.058927987 -0.042406064 0.057507757
-0.052499965 0.0032509265 -0.036678784 -0.0022194583 0.08058217 -0.013178474 0.065175906 0.020328691
0.06348346 0.07306205 0.010781441 0.037805907 0.103478864 0.010547436 -0.058591776 0.014119665
-0.01783779 -0.028350435 0.08413019 0.028096579 0.044753682 0.06791631 0.029190086 -0.07035166
0.056792162 0.021091018 0.0585344 -0.03401672 0.04637162 0.0132445665 0.021003796 0.0073957974
0.080929615 0.010071717 0.08421996 0.08132056 0.07970343 -0.062895425 -0.052244917 0.07563162
0.09767961 -0.057334762 0.040513165 0.018431187 0.09826933 0.06433139 0.044703852 0.020573298
0.064164706 0.08023782 -0.032713383 0.03499511 -0.03754555 0.08473881 -0.077704296 0.08560793
0.11244895 0.09153697 0.0343868 0.00340846 -0.054237854 0.00023916145 0.07432251 -0.02349181
-0.0069820867 0.001576326 -0.02686814 0.06745044 -0.042767 0.05724796 0.07767812 0.014083655
-0.015371339 -0.036873125 -0.03830333 -0.07982028 0.07633708 0.04074746 0.07339813 -0.026110444
0.060578514 0.06828223 0.013992497 -0.07415002 0.08617987 -0.050071683 -0.063037924 0.0047150487
00000000: fb19 243d f707 81bd e6b4 453d 822a 4dbc
00000010: b13a 97bc b0a5 573b 3c40 753d 03d4 bbbc
00000020: ab52 663d b48f 3fbd b1ef 333d 6cc1 13bd
00000030: cff3 b1bc 4561 a43d b87d b93c b2f1 37bc
00000040: 60e2 f03c 8d6c 9b3d d854 aabd 85cb 6a3d
00000050: 010d a4bd a923 0abd f5a4 5cbd e078 903d
00000060: 3401 e5ba e996 be3c bccc 0d3d 1df0 bb3c
00000070: 1e2d 30bd fe37 b73d fef3 96bc c15b d63c
00000080: 202b af3d a95c 88bd d966 1bbb c290 a53d
00000090: d3c9 433d edd7 973d c7ff 493d caa5 f03c
000000a0: a96a 2dbd 56b3 88bc 8bef 9abd edfb ba3d
000000b0: 2678 0c3d f20b 923d 7d87 a23d 4405 2e3d
000000c0: 8070 9cbd ff12 b03c f960 f1bc 194e 73bb
000000d0: 842b e6bc 4228 91b9 2d7a 6e3d 08c5 80bd
000000e0: e151 133d 4d6a b73d 299b e33c 42f5 113d
000000f0: 185b 813c 5d8b f23c fbb3 50bd 152a ab3c
00000100: 300b 263d ff18 6fbd 4718 023d fc69 d83c
00000110: b44c 02bd 74a0 8b3c 8d74 ec3c f47f 3ebd
00000120: 789e c1bc edcc 74bd 4b6e 9e3d fb88 a6bd
00000130: 1ab9 8b3d 3a3b edbc 897f 063d 3b68 88bd
00000140: fd06 6dbd d126 40bd da4e 65bc aedd 1abd
00000150: e610 f8b9 436f 0d36 afdc 61bb c33a 7f3d
00000160: 409e d03d c347 7f3c 5b2a 7c3b 7721 a93d
00000170: d831 923d ef75 90bc b037 ae3d 49ba 153d
00000180: 0877 b63a bf3a 3f3d b071 263d 8dc6 0a3c
00000190: 9e4c 83bd 8c63 e23d dcb4 2abd 195d 243d
000001a0: b11c 5a3d bace 48bd 3629 a1bd 7ad1 8bbc
000001b0: 4956 bdbc 3fd7 73bc 66b4 36bc caed bfbd
000001c0: a1e6 10bd cb98 f53c f096 59bd 2b55 b33d
000001d0: 600b 3b3c 2799 923d ffdf 44bd 363f 943d
000001e0: 800d 5b3c 22e7 a23d 6b8a 243d 597f 043d
000001f0: 1868 a83d 32ea ac3c 67d1 f0bc 0aa7 35bd
00000200: 74cb 9b3b ec3c ef3c 2602 c53c c6bc 013d
00000210: e6ae 0a3c 834a d43d e018 133d a8a8 2a3d
00000220: 38ba c63d a14d 05bd c0fb 62bd 7d26 22bd
00000230: f866 8fba 0c4b 84bc 27b3 26bd ec16 303c
00000240: 541f 59bb f5e7 313d 4c29 933d ecbf 8d3d
00000250: 8277 dd39 b69f 9c3d e970 9bbd 2e85 d93d
00000260: 46b3 5f3c c49a 80bd 9f01 803d 133f aa3c
00000270: 51b3 333c ae1c b13c f9ec a93d f5a9 94bc
00000280: 098e 7cbd 3b15 9a3d 24cb 9d3d c67e 2f3d
00000290: 9ff5 49bd 795e 713d fbb1 2dbd 418d 6b3d
000002a0: 340a 57bd 7f0d 553b 7e3c 16bd 5574 11bb
000002b0: 4408 a53d 87ea 57bc f27a 853d 5b88 a63c
000002c0: 9e03 823d 8ea1 953d a4a4 303c 5eda 1a3d
000002d0: baec d33d 27cf 2c3c eefd 6fbd 2b56 673c
000002e0: 8f20 92bc 2c3f e8bc 734c ac3d cc2a e63c
000002f0: a34f 373d b517 8b3d 0c20 ef3c 8814 90bd
00000300: e69e 683d 12c7 ac3c c4c1 6f3d 1e55 0bbd
00000310: 2bf0 3d3d bdff 583c 2710 ac3c 7258 f23b
00000320: 6dbe a53d d803 253c 847b ac3d 658b a63d
00000330: 8d3b a33d 51cf 80bd c4fe 55bd c0e4 9a3d
00000340: 3f0c c83d dbd7 6abd 22f1 253d 00fd 963c
00000350: 6e41 c93d 2dc0 833d 631b 373d 5589 a83c
00000360: c968 833d ba53 a43d 78fe 05bd 0857 0f3d
00000370: 5dc9 19bd 8b8b ad3d 6e23 9fbd 3653 af3d
00000380: a34b e63d bc77 bb3d 2cd9 0c3d 7860 5f3b
00000390: 8328 5ebd 6ac7 7a39 6636 983d e571 c0bc
000003a0: fdc9 e4bb b99c ce3a 931a dcbc 7523 8a3d
000003b0: 732c 2fbd d67c 6a3d b515 9f3d 21bf 663c
000003c0: 12d8 7bbc 4608 17bd f4e3 1cbd d178 a3bd
000003d0: 9d56 9c3d cfe6 263d c251 963d 92e5 d5bc
000003e0: 2d21 783d 8ed7 8b3d c940 653c f7db 97bd
000003f0: 127f b03d f717 4dbd 071a 81bd b280 9a3b

lstm.bias_hh_l0 f4 [504]
-0.012069572 -0.0043001766 -0.031965606 -0.01169637 -0.03104814 0.091620296 0.07300946 -0.030000875
0.05249532 -0.023118213 0.041762892 -0.023705415 0.07033045 -0.09310628 0.075449064 0.018482545
-0.023496062 0.03367246 -0.031337235 -0.045222413 0.079107955 0.088167004 0.0073562926 0.03692743
0.027091963 -0.046260063 -0.04908293 0.07568574 -0.007654024 -0.03311015 0.038986344 0.06164126
-0.067184456 0.004077454 0.07800276 0.042992752 0.0032199488 -0.060957514 -0.07284469 -0.06636017
0.003998256 -0.076874584 -0.049714975 0.045680363 -0.025506133 -0.058121495 0.024473181 0.0668718
0.06530862 -0.04137923 0.04614432 0.09774102 -0.02206716 -0.057284873 0.06469396 0.07620911
0.04072224 -0.0048427987 -0.0392897 -0.021244647 -0.010431072 -0.07679624 0.08350849 0.0005139348
-0.0410438 0.037504468 0.019506492 0.000480924 -0.012915045 -0.0709998 0.048592553 -0.0054391846
0.08651764 -0.066935346 0.08780853 -0.078113616 0.039125215 0.06987085 -0.06820943 0.08638074
0.009708037 -0.04008981 -0.0009864711 0.033276357 0.07430671 0.07644604 0.03305005 0.03139976
0.06144789 -0.0581775 0.068718426 -0.0021863852 0.048787486 -0.043307666 0.05345365 -0.007997145
-0.03290066 -0.07528984 -0.03983914 -0.04274329 0.07460718 0.07792228 0.039598104 0.039920777
-0.026932474 0.074866235 -0.04885594 0.063012354 0.05220069 -0.044120833 0.06772585 -0.08548231
-0.036423277 0.05895804 0.039703842 0.021220423 -0.052036107 0.030105509 0.06840886 0.06374037
-0.0012315827 -0.08715378 0.029978598 -0.021934811 -0.03877275 -0.028261343 0.08340599 0.07416969
-0.019479482 0.033765595 -0.056357227 0.109845676 0.089350134 0.10759219 0.082548395 -0.0017019393
0.09527228 -0.07930786 0.03299399 0.090092644 0.009801171 0.020191237 -0.018469745 0.016268995
-0.047528215 0.08329306 -0.050134435 -0.0052964035 -0.02811463 -0.01336633 -0.01453943 0.08149815
-0.0100040035 0.081371196 0.09658148 0.022338364 0.07333953 -0.008532933 0.04173837 -0.015549288
-0.050500996 -0.06300229 -0.011650619 -0.061918642 -0.0074439766 0.022246992 -0.038685683 -0.0026741591
0.04509109 0.05693707 -0.034940977 -0.060038235 -0.078968845 0.008302124 0.036045946 0.018893236
0.05798929 -0.020318221 0.0067291334 -0.022775354 0.09785927 0.03542062 -0.078882135 -0.03966067
0.061630968 0.05484065 0.037216272 0.021792185 0.056646977 -0.08657878 0.08332581 -0.033525225
0.052853234 0.053550795 -0.06265172 -0.047572896 -0.06744486 -0.029120253 0.104773976 -0.07651084
0.00045603793 0.076929286 -0.0394672 -0.00775824 -0.015529556 0.038648 0.037288576 -0.063375756
0.08027214 0.02354645 -0.020129686 -0.032239735 0.099251345 -0.061817814 0.039898902 -0.009197659
-0.019910716 0.05488357 -0.010984948 0.043945014 -0.059293415 0.044640332 0.035938244 0.06490584
0.016860116 -0.022727283 0.053671423 0.013899168 0.08726984 -0.01905479 0.073296614 0.07133769
-0.059868418 -0.052447874 -0.04182796 0.02046314 0.08914519 -0.019603262 0.09044901 0.096212946
0.039671216 0.04656332 -0.03337348 0.02032303 0.04366827 -0.03621576 -0.023861727 0.05573443
0.06780971 0.041927252 0.047075335 0.022027174 -0.08846463 0.035244636 -0.04928727 -0.046614323
00000000: 74bf 45bc 7fe8 8cbb 5eee 02bd 22a2 3fbc
00000010: ab58 febc 6ca3 bb3d fc85 953d 65c4 f5bc
00000020: 5505 573d 6862 bdbc 910f 2b3d dc31 c2bc
00000030: 6909 903d 81ae bebd 0a85 9a3d b568 973c
00000040: d07a c0bc 22ec 093d 795b 00bd 233b 39bd
00000050: 5a03 a23d e790 b43d 0e0d f13b 3841 173d
00000060: f7ef dd3c 317b 3dbd 2f0b 49bd 2001 9b3d
00000070: 9bce fabb 829e 07bd 25b0 1f3d 8c7b 7c3d
00000080: 0198 89bd 2a9c 853b e9bf 9f3d 2b19 303d
00000090: c705 533b 96ae 79bd 992f 95bd d7e7 87bd
000000a0: cd03 833b 6c70 9dbd eea1 4bbd 551b 3b3d
000000b0: 3df2 d0bc ce10 6ebd fb7b c83c 15f4 883d
000000c0: 87c0 853d 447d 29bd d401 3d3d 722c c83d
000000d0: 30c6 b4bc 8ba3 6abd 447e 843d 8613 9c3d
000000e0: 5dcc 263d 57b0 9ebb 3dee 20bd 4109 aebc
000000f0: 16e7 2abc 5947 9dbd 8006 ab3d 95b9 063a
00000100: 8b1d 28bd 499e 193d 14cc 9f3c 8724 fc39
00000110: a099 53bc 5868 91bd fc08 473d 303b b2bb
00000120: 2930 b13d 6615 89bd f5d4 b33d 08fa 9fbd
00000130: c341 203d 7318 8f3d 63b1 8bbd 63e8 b03d
00000140: 750e 1f3c 3635 24bd 7a4c 81ba ca4c 083d
00000150: 1e2e 983d be8f 9c3d 7d5f 073d 099d 003d
00000160: c8b0 7b3d 884b 6ebd 3fbc 8c3d 7549 0fbb
00000170: 63d5 473d 6163 31bd 37f2 5a3d 7506 03bc
00000180: d8c2 06bd 8f31 9abd 5e2e 23bd 9713 2fbd
00000190: a6cb 983d b795 9f3d 9f31 223d f883 233d
000001a0: 7ea1 dcbc 7853 993d 2b1d 48bd 9f0c 813d
000001b0: 64d0 553d 0cb8 34bd dab3 8a3d 5911 afbd
000001c0: 9330 15bd fc7d 713d 7fa0 223d 74d6 ad3c
000001d0: d023 55bd d49f f63c f219 8c3d 508a 823d
000001e0: 0f6d a1ba ae7d b2bd ad95 f53c a2b0 b3bc
000001f0: 2dd0 1ebd 5584 e7bc c2d0 aa3d 47e6 973d
00000200: 6f93 9fbc cb4d 0a3d d6d6 66bd c5f6 e03d
00000210: 34fd b63d 4b59 dc3d 220f a93d 9b13 dfba
00000220: 1d1e c33d 296c a2bd b524 073d 7e82 b83d
00000230: 1795 203c 1868 a53c dd4d 97bc 8e46 853c
00000240: f2ac 42bd 8d95 aa3d c459 4dbd 748d adbb
00000250: a750 e6bc 74fe 5abc ca36 6ebc 81e8 a63d
00000260: d5e7 23bc f1a5 a63d 83cc c53d f2fe b63c
00000270: 0933 963d b7cd 0bbc daf5 2a3d 71c2 7ebc
00000280: 22da 4ebd 5807 81bd 3de2 3ebc 679e 7dbd
00000290: 9aec f3bb 533f b63c e174 1ebd f240 2fbb
000002a0: 6fb1 383d d836 693d 451e 0fbd a7ea 75bd
000002b0: 6bba a1bd a205 083c eaa4 133d fdc5 9a3c
000002c0: 2e86 6d3d 6672 a6bc 1080 dc3b 6193 babc
000002d0: 716a c83d 3615 113d f58c a1bd 3a73 22bd
000002e0: c170 7c3d 97a0 603d 1770 183d 8685 b23c
000002f0: a906 683d 3750 b1bd b9a6 aa3d bf51 09bd
00000300: a27c 583d 1458 5b3d 8c4f 80bd ccdb 42bd
00000310: 8820 8abd 998d eebc bd93 d63d b7b1 9cbd
00000320: 6018 ef39 1a8d 9d3d 5ca8 21bd d638 febb
00000330: ae6f 7ebc 5e4d 1e3d e8bb 183d 26cb 81bd
00000340: b865 a43d 7ce4 c03c 03e7 a4bc d00d 04bd
00000350: 4a44 cb3d ad34 7dbd 086d 233d c7b1 16bc
00000360: cc1b a3bc 98cd 603d 36fa 33bc b0ff 333d
00000370: a7dd 72bd c8d8 363d fb33 133d 5aed 843d
00000380: 3a1e 8a3c 912e babc 91d6 5b3d 56b9 633c
00000390: 88ba b23d ca18 9cbc 891c 963d 7f19 923d
000003a0: 9638 75bd 95d3 56bd cc53 2bbd 51a2 a73c
000003b0: c191 b63d 0597 a0bc 553d b93d 4b0b c53d
000003c0: 497e 223d 2eb9 3e3d a1b2 08bd 7c7c a63c
000003d0: 80dd 323d fa56 14bd ab79 c3bc c949 643d
000003e0: d1df 8a3d e9bb 2b3d 11d2 403d 5572 b43c
000003f0: f22c b5bd ae5c 103d 73e1 49bd a9ee 3ebd
