surrogate/run/train/routing/saves/train-test2/30min/lake/state_dict.pt (torch, 535012 bytes, 8 tensors)

pre_sequence.0.weight f4 [126, 34]
00000000: 3c68 4ebd be74 f73c 880e ec3c 64ad cdba
00000010: f486 733d b5a5 69bd 914a 1c3e 7c4f e03d
00000020: a22b 16be c491 1f3d 154b 563d 04bc 24be
00000030: 5632 99bd ae12 8abd 7597 1e3e 2077 073e
00000040: c297 bdbd b7c8 c13d a495 203e 5fc0 61bc
00000050: 61e2 053e c25c 85bd f97a 1c3e 4720 4c3d
00000060: cd32 c73d dacb 08be 41d0 f63d b623 533c
00000070: 0742 ddbd 62bf 473e 61a2 0c3e 63a8 113d
00000080: 8b2e eb3d 17bc 4a3d 7d08 1dbe 7cb4 ea3d
00000090: 3950 173e e1e6 bfbd 4c4f bb3c f843 03be
000000a0: 459b 0f3d 8f14 08bd 87ab 9f3d 25fe afbd
000000b0: 6f01 2dbe 4bf9 dbbd 81d0 2bbd e57c 3cbd
000000c0: 4614 99bd c7fa 8cbd a94c 063e 0125 053e
000000d0: 3967 1c3e 55ee 04be b4dc b5bd 8592 9ebd
000000e0: 32d6 1abc b761 1b3e 3425 3ebc ec50 91bd
000000f0: c66d 9f3d 5a95 883d b0ec d63b d265 d3bd
00000100: ae32 89bd 8eda 253e f59b 283d eefe 8b3d
00000110: ad9d e3bc 4e79 b53d 8140 2e3d f0d4 c83d
00000120: e5ad aebd 053f 2f3d 377f 003e 5027 4fbd
00000130: e0a6 a23d e0ca 29bb 2e4e 22be c169 953d
00000140: becd 853d 5345 cd3d ee79 1dbe 83e6 123e
00000150: 8afa e5bd d5b4 42bd f09e f33d b576 e53c
00000160: 3772 12be 3ad1 5dbd 2255 553d 7a2f c93d
00000170: 5886 bcbd 5c60 06bd e17f 11be c4cc 22be
00000180: b595 25bd 8373 08be 45c0 21be e8bb e5bd
00000190: 272b c63d 9a3d 6d3d 8564 21be e0a8 9abd
000001a0: a61d d5bd 4b04 e23c e162 2bbe b366 103e
000001b0: c876 b23c c954 4d3d 2a94 b63b c4d4 083e
000001c0: 1177 8c3d 221e 933d 76da fabd 201f 183e
000001d0: f056 d23d edac 183c b2f3 c53d 97b5 37be
000001e0: 6ded 99bd 5942 37be 34c9 9cbc 578d 9e3d
000001f0: 3bab dd3d 946c cb3d 9087 953d d717 ca3d
00000200: 26fb 273e b920 74bd 6bc3 74bd 1c46 9b3d
00000210: 1a6f 40bd 8505 7a3d 587b 20be f860 eabc
00000220: acd3 203d d01d e73d 8c4b 44bd 60d8 3c3e
00000230: 2763 b0bd 3757 e23c bd01 b83c 5fc5 92bd
00000240: ad4d c13c f587 d2bd fa40 1b3e 2bbf 71bc
00000250: fd1d c4bd 37dc b73d d040 2cbe d734 82bd
00000260: e7d4 b63d 4847 943d 9ef0 f33d 847b 0fbe
00000270: 3885 d93d 442a a9bd ecf4 bbbd 827f 57bd
00000280: b2b7 acbd 4abb 82bc b145 f23d 48f4 9ebd
00000290: aa95 373e e10f 863d 6072 c93c 53bd 7d3c
000002a0: 18b8 48be 6b55 42ba 3b63 f1bc ee3d 1ebe
000002b0: f1a4 03be e609 733c 10d2 8b3d 0559 12bd
000002c0: b0cb 16bd 2fdc 333c 2913 05be 719b 213e
000002d0: 4df0 f03d be2a 183e d2f1 28be e4f2 093e
000002e0: dc6d b83d f008 c4bd d883 04be c191 97bd
000002f0: 589e 433e 959c 0abe 73be a03c d967 bcbd
00000300: f4fe 2b3e cc63 12be f46b 2cbd 5a3d 623b
00000310: 268d 473d 121d a53c 6bc6 96bd 7645 163e
00000320: 5b2a 9eb8 64f8 d83d 5131 163e aa5d 40be
00000330: 41cb f43c c861 61bd eb2f bf3c b3f9 3b3e
00000340: eabb f03d 95be b23d cd4e 113d 8e49 d4bd
00000350: e1eb e3bd efb6 9cbd 358a 9f3d c3c8 ac3d
00000360: 72bb 7ebb fcd0 1fbe ac96 063d be77 243d
00000370: 2432 d3bd 7659 6fbd 5666 f13d 594f 89bd
00000380: 864b 8c3d db8c af3c 1a1d 1c3d d324 093e
00000390: 11b3 133e ffed 32be 61b4 163d 811a 2fbc
000003a0: af83 3b3e ae29 1a3e a505 28be a0b5 183e
000003b0: 2937 c7bd 3253 1cbd 5394 53bc dd7a 05bc
000003c0: 19ff ee3d dcfc 3abd 361e edbd 6a57 01bc
000003d0: 9982 18be 8918 a13d 9251 843d ed20 eb3d
000003e0: 98e6 32bd 12b2 203e 78cb 2abe 4674 2f3e
000003f0: af3a 24bd 7a88 a33c 0e07 01bd d027 fd3d
-0.050392374 0.030207034 0.028815523 -0.0015691933 0.059454873 -0.057042796 0.1526282 0.109526604
-0.14665082 0.038957372 0.052317698 -0.16087347 -0.07480304 -0.06741844 0.15487464 0.13229036
-0.09257461 0.094621114 0.15682083 -0.013778775 0.13074638 -0.06511833 0.15281285 0.04983547
0.09726486 -0.13359013 0.1205144 0.012886932 -0.10803609 0.195066 0.13733818 0.035560977
0.11483487 0.049495783 -0.1533527 0.11460206 0.14776696 -0.093702085 0.02286496 -0.12818897
0.035060186 -0.03322273 0.07796388 -0.08593396 -0.16895078 -0.10740908 -0.04194689 -0.046017546
-0.0747457 -0.068837695 0.13115181 0.13002397 0.15273751 -0.12981541 -0.088799864 -0.0774279
-0.009450482 0.15173994 -0.01160555 -0.07095513 0.077846095 0.066691115 0.006558977 -0.10322155
-0.066991195 0.16196653 0.041164357 0.06835733 -0.027785147 0.08861028 0.042541984 0.098062396
-0.085292615 0.04278471 0.12548529 -0.0505746 0.07941985 -0.0025908276 -0.15850136 0.072955616
0.06533383 0.10022988 -0.15378544 0.14345746 -0.11229427 -0.047535736 0.11895549 0.028010705
-0.14301382 -0.054154612 0.052083142 0.098235086 -0.092053115 -0.03280674 -0.14208938 -0.15898424
-0.040425975 -0.13325314 -0.15796001 -0.11217481 0.096761994 0.057920076 -0.15761001 -0.075517416
-0.104060456 0.027589938 -0.16736938 0.14101677 0.021785155 0.050129686 0.0055718618 0.13362414
0.068586476 0.07183482 -0.12248699 0.14855623 0.10270488 0.0093185725 0.09665622 -0.17940365
-0.075159885 -0.17896403 -0.01913891 0.07741802 0.10823675 0.09932819 0.07301247 0.09867828
0.164044 -0.05960152 -0.059756678 0.07581732 -0.046980955 0.06104042 -0.15672052 -0.028610691
0.039264366 0.11284983 -0.04792361 0.18441916 -0.08612662 0.027629478 0.022461766 -0.07166552
0.023596609 -0.10279838 0.15161505 -0.014755051 -0.09576032 0.089775495 -0.16821599 -0.06357735
0.08927327 0.07240158 0.119111285 -0.14011961 0.106211126 -0.08260015 -0.091775745 -0.052611835
-0.084334746 -0.015958447 0.11829699 -0.07761437 0.17928186 0.065459974 0.024590671 0.015487033
-0.19601476 -0.0007413241 -0.029466262 -0.15453312 -0.12855889 0.014833903 0.068271756 -0.035729427
-0.036815345 0.010977789 -0.1299559 0.15781952 0.11764584 0.14860055 -0.16498497 0.13471562
0.09005329 -0.09572017 -0.1294092 -0.07400847 0.19103372 -0.13536294 0.019622063 -0.09199495
0.16796476 -0.14295882 -0.04209514 0.0034521432 0.048718594 0.020155463 -0.07362064 0.14674935
-7.5419164e-05 0.10594252 0.1466725 -0.1878573 0.029882075 -0.055024892 0.023338279 0.18356971
0.11754592 0.08727757 0.03547554 -0.10365592 -0.11128975 -0.07652079 0.07790033 0.0843673
-0.003886905 -0.15607065 0.032858536 0.040153258 -0.10312298 -0.058434926 0.11787097 -0.067045875
0.068503425 0.02142947 0.03811369 0.13392954 0.14423777 -0.17473601 0.036793116 -0.010687471
0.18311952 0.15054962 -0.16408403 0.14913034 -0.09727318 -0.03816528 -0.012913781 -0.008146969
0.1166975 -0.0456513 -0.11578028 -0.007894376 -0.14893569 0.07866008 0.06460871 0.114808895
-0.043676943 0.15692928 -0.1667918 0.17134199 -0.040095028 0.019962538 -0.03150087 0.12361109

pre_sequence.0.bias f4 [126]
00000000: 9fbb 0f3e 5f5f 173e 3109 fd3d 97df 90bd
00000010: ea45 6b3d cff8 563e 8d11 5cbd 7981 123e
00000020: 0899 003e dbbb 8d3d bc38 763d 5244 1e3e
00000030: 3c45 633d 46db da3d a015 8a3d 72f4 a03d
00000040: 571b 3fbd d004 27be eddc 253e deea 2b3e
00000050: c62d 5bbd 906d be3c 9aa8 853d 0270 be3d
00000060: 135e 073e 70f1 ec3d 47c3 9fbb eef9 94bd
00000070: ae45 21be 5c6c e93d ecdc dd3d ca0c 19bd
00000080: 8d70 b6bd 7b19 efbc ddba 2fbd afbf 633d
00000090: 29d4 b13c da12 563c 4c04 6e3b b340 d4bd
000000a0: 1971 c73d d61e b53d a214 e23d 68a8 a8bc
000000b0: dd56 a0bd 7315 013e 256c 38bd 6374 92bd
000000c0: d8c0 353e 5dff acbd 8b05 d83d 2437 a83d
000000d0: 6b60 2abe 010e 2c3d 1509 b5bc 6dcf 193d
000000e0: 5200 14be 9594 063d c4c8 1cbe c2a9 81bd
000000f0: 3152 25be 6837 0cbd cec7 19be 9383 c63c
00000100: 7fb6 933d eece dc3d b7fc 173e d7c5 9d3d
00000110: 5f8e 023e 7715 8cbd 50dc db3d f2d1 fbbd
00000120: a853 043e dcc0 0b3e a1b0 1d3e b94e 16bd
00000130: 98a9 96bc f54e 1cbd 7a8e fc3d a794 16be
00000140: b07c 193c f070 8fbd b564 053d 9550 2ebe
00000150: c32f 17be 6cc8 00be ec14 4f3c a709 39ba
00000160: 9de1 23be 6799 203e f1f9 0fbe fa52 113e
00000170: 771d 103e b57c 13bd 59f9 e2bd 74b2 37bd
00000180: 2586 95bd 23b1 2cbd 6afd f43d 0e89 113c
00000190: bc00 d6bd ad9b 05be 57ba c6bd ff07 1bbe
000001a0: 4106 a9bd 5294 26be a079 99bd b4d0 f23d
000001b0: 3e93 f0bd f9ed b73d 0231 b23d d799 163e
000001c0: c84a 0dbe f689 1a3b 7311 f1bc 7d34 34bc
000001d0: 7a13 8b3d 58bc a83d a9ff 8c3d 3186 a83d
000001e0: 0a3a 1e3e 7ffa 103e 4de0 e93d e29b abbd
000001f0: 292e 373e c59b d63d
0.14036416 0.14782475 0.12355269 -0.070738964 0.057439722 0.2099335 -0.053727675 0.14307202
0.12558377 0.06920596 0.0601127 0.1545575 0.05548595 0.10686354 0.06742406 0.07859124
-0.046656933 -0.1631043 0.16197558 0.16788813 -0.05351045 0.023245603 0.06526299 0.092987075
0.1321948 0.11569488 -0.004875574 -0.07274233 -0.15749237 0.11397621 0.10833153 -0.037365712
-0.08908186 -0.029186955 -0.042902816 0.055602726 0.021707611 0.013066018 0.003631848 -0.10363903
0.097383685 0.08843772 0.11039092 -0.020588115 -0.07829068 0.12605838 -0.04502501 -0.07151105
0.17749345 -0.08447144 0.10547932 0.08213642 -0.16638343 0.042005543 -0.022099057 0.037551332
-0.14453247 0.032856543 -0.15310961 -0.06331207 -0.16144635 -0.034232527 -0.15017626 0.024232661
0.07212543 0.10781656 0.14842497 0.077037506 0.12749623 -0.068400316 0.10735381 -0.12295903
0.12922537 0.13647789 0.1539941 -0.03669617 -0.018391415 -0.038161237 0.12331863 -0.14705144
0.009368107 -0.07003963 0.032566745 -0.17022927 -0.14764313 -0.12576455 0.0126392655 -0.0007058628
-0.16004033 0.15683518 -0.14060189 0.1419181 0.1407374 -0.0360076 -0.110827155 -0.04484792
-0.07300977 -0.04216112 0.119623974 0.008882774 -0.10449359 -0.13047667 -0.0970351 -0.15139769
-0.08253146 -0.16267517 -0.07493901 0.11856213 -0.11746834 0.089809366 0.08700754 0.14707123
-0.13798058 0.0023580766 -0.029427266 -0.010998842 0.06790824 0.08239049 0.06884701 0.0822872
0.15451828 0.14158057 0.11419735 -0.08379342 0.17888702 0.104789294

post_sequence.1.weight f4 [4, 126]
00000000: 76cf 40bd 822f b93d df3f a83d fb54 543b
00000010: f7ce 0cbd faf8 853d 06fc 9dbc 77d8 40bd
00000020: ef09 a73d d845 03bc 9db2 d0bd e686 9f3c
00000030: 28f1 b33c 57c6 083d 99b1 b9bd 69c2 a5bd
00000040: 8dcb ab3c 80e8 fb3c 867d e03c 470e 863d
00000050: d8c8 b1bd 1f55 bb3c d536 b23d a586 763d
00000060: 18a6 efbc 6bde 35bd 55e0 263d ac57 933d
00000070: d721 9fbc 2145 ba3d 8de2 1b3d f72e cfbd
00000080: cd2d 0d3d 02ea 90bd 19cd 78bd 5436 563d
00000090: 5feb e63d 9806 2a3d a2cd 573d 5422 4e3d
000000a0: 4ce7 ba3c 7d8d c2bd 4a3f 413d 7880 773d
000000b0: 790c b83c 8b88 263d 479c 51bd 1067 833d
000000c0: 51cb 843c 1e71 b7bd 6f0d 703d 56b4 783d
000000d0: 1e71 b9bd fdf4 5c3b 766b b0bc 99af 213d
000000e0: 684b ae3c 9ddf 22bd 0171 8dbc 4fad 1fbd
000000f0: 1c01 cb3d 2be0 b8bd 3987 95bd f574 8abc
00000100: 35a2 06bc b68a d6bd 79d0 a3bd 49a4 84bd
00000110: 42df a53d 2050 cfbd 2e1a 54bd 3818 9c3d
00000120: e334 8c3d bd8c 1e3d 5c51 573d 7112 8f3d
00000130: 3849 b5bd 1151 06bd ef31 abbd f784 b5bc
00000140: 866d 79bd a75b 173d be4c a9bd 5a11 0dbd
00000150: 0443 623d 3331 183d ac05 813c f442 a63d
00000160: 5f65 7cbd 7650 e5bd b2a1 a63c 2698 bdbd
00000170: 55a1 b6bc bf9d 0a3d deac b4bd 3a1c 8bbd
00000180: af96 c13d 5727 4b3d de97 febc 2f40 8fbd
00000190: adb7 4abd 88bb 983d f282 d3bc 3e6d c2bd
000001a0: f6e3 cebd 7b53 d6bd 1ce2 54bd 87fa a63d
000001b0: 8fee b9bb 7426 ac3c e697 3c3d 385d 21bd
000001c0: a474 39bd edf5 0e3d e08b 283c 3e23 9d3d
000001d0: cea8 613d 6ff0 d5bd 6b34 e23c 4369 7939
000001e0: ed92 4a3d 08d6 aabc d343 c0bd c1ad 8bbd
000001f0: 628e bdbd 53c2 db3b e460 e9bd ac8c 853d
00000200: 668c 73bd 9d55 fe3d d390 dfbd 4894 b23c
00000210: a72d c6bd 63ff 8e3c d731 0fbd db6d c63d
00000220: 5a90 093d 4307 74bd 271e 963d bfb7 a0bd
00000230: 10c3 fb3c 6dc6 56bd 6cb4 e43d 9a6d a9bd
00000240: 6f6e b13d e351 803c a822 93bd c0db 973d
00000250: 84a9 cb3d 9a3b b23c d402 e13d 6309 53bd
00000260: 5b1c b83d 105e ac3d eb4f f3bd 89a3 b23d
00000270: 3412 633d ad7b 50bd 54b2 193b 56b8 dd3d
00000280: 5803 c4bd da60 813d 6c80 853d 48bb 8f3d
00000290: 0a86 9dbd 34be e93d 7eb4 fc3d ed14 f9bd
000002a0: 25a4 a33c 35fa a73c 81de 743d b226 e13d
000002b0: 350f 813d cdcb 52bc ada8 943d 9c48 5e3d
000002c0: 505a 3dbd 9664 02be 7b1d 5ebd 9d5f e0bd
000002d0: f014 db3d e507 e53d cd75 e73d 696a db3d
000002e0: 0a99 ae3d c70a 9bbd b110 473c 62c7 0abd
000002f0: 64c9 b7bc 6357 8cbd 3b8f aebd e69e 00be
00000300: e873 34bd 9698 943c 0f79 803d bb00 f5bd
00000310: 2264 0c3c e1b7 db3d 3df2 80bc 413b 18bd
00000320: b14c 7dbd 1a12 c7bd cbbe d8bd e94b acbd
00000330: 2f7d b2bd 1570 e9bd 12ff e53b ddfa 6a3d
00000340: 4c73 f33d 6a4a 193d f9b5 873c 8248 de3d
00000350: a84d 983d cb33 77bd 2229 893d 02ed 693d
00000360: 67c1 b1bd aba0 1bbd 950c 51bd 29d5 053e
00000370: 5630 993d 6108 523d b11b 893d 62f9 a83d
00000380: 8f5e 503d 7713 e9bc 5c68 cabd c1fc 91bc
00000390: 7bfa f6bd 762c 593d 77bb 2b3d 788a f1bc
000003a0: 44c0 aebd 2615 43bb 9419 c9bd 2c7a 69ba
000003b0: 365a 31bd a589 b0bd 4650 9e3c 50b0 ffbd
000003c0: f0c8 eabd 8e32 673d 70c4 88bc 5812 f5bd
000003d0: f088 a63c a054 34bd 157f 693d f04f 5a3d
000003e0: 2f77 07bd 462e d5bd 2fc5 573d c8a4 0c3c
000003f0: 5b02 9bbd b378 063e 9ff3 923d 8a0d ff3d
-0.04707285 0.090422645 0.082153074 0.0032399285 -0.034377065 0.06541629 -0.019285213 -0.047081437
0.081561916 -0.0080122575 -0.10190318 0.019473504 0.021965578 0.033392277 -0.09067077 -0.080937214
0.020971084 0.030750513 0.027403604 0.06545692 -0.08680886 0.022867737 0.08701865 0.060187
-0.029254004 -0.044401567 0.040741283 0.071944565 -0.019425316 0.090952165 0.038057853 -0.1011638
0.034467507 -0.070758834 -0.06074247 0.052297905 0.11275362 0.041510195 0.05268634 0.050325707
0.02281537 -0.09499643 0.047179498 0.06042525 0.022466885 0.04065756 -0.05117443 0.06416142
0.01621023 -0.08957122 0.05860656 0.060718857 -0.090547785 0.003371536 -0.021535616 0.039474104
0.02127619 -0.039764035 -0.017265799 -0.03898364 0.09912321 -0.09027132 -0.07301182 -0.016901473
-0.008217384 -0.10475676 -0.079987474 -0.064766474 0.08099224 -0.101227045 -0.05178278 0.07621807
0.06846025 0.038708437 0.052567825 0.06985939 -0.08851856 -0.032792155 -0.083591335 -0.02215813
-0.060895465 0.03695264 -0.082665905 -0.034440376 0.055239692 0.037156295 0.015749775 0.08118239
-0.061620113 -0.11196987 0.020340774 -0.09257536 -0.022293726 0.033841845 -0.08822034 -0.06792493
0.09452569 0.049598064 -0.031078275 -0.06994664 -0.049491573 0.07457644 -0.025819276 -0.094934925
-0.10102074 -0.104651414 -0.051973447 0.08153253 -0.0056741904 0.02101443 0.0460433 -0.03939554
-0.045277253 0.0349025 0.010287255 0.076727375 0.055092625 -0.1044625 0.027612885 0.00023785704
0.049456526 -0.020854011 -0.093879364 -0.0682025 -0.09255673 0.006706515 -0.113954335 0.06520972
-0.059460066 0.12418673 -0.10916295 0.021799222 -0.09676676 0.017455762 -0.03495964 0.09688922
0.03358493 -0.059577238 0.0732997 -0.07847547 0.030732661 -0.052435327 0.11167225 -0.08272858
0.08663642 0.015664047 -0.071843445 0.07414961 0.09944442 0.021756936 0.109868675 -0.051522624
0.089897834 0.084163785 -0.118804775 0.08722598 0.05543728 -0.050899196 0.002345224 0.10826175
-0.0957095 0.06317301 0.06518635 0.07018143 -0.076915815 0.114132315 0.12339114 -0.121621944
0.019975731 0.02050505 0.05978251 0.10993709 0.06301729 -0.012865973 0.07258735 0.054268464
-0.046228707 -0.12733683 -0.054227334 -0.10955737 0.10697353 0.111831464 0.113017656 0.107136555
0.08525284 -0.07570415 0.012149976 -0.033881553 -0.022434898 -0.06852605 -0.08523413 -0.12560615
-0.04405585 0.018139165 0.0627309 -0.1196303 0.008568795 0.107284315 -0.015740508 -0.037165884
-0.061840717 -0.097202495 -0.10583266 -0.08412916 -0.08715283 -0.11398331 0.007018932 0.057368148
0.118872255 0.037424482 0.016566264 0.108536735 0.07436687 -0.060352128 0.066972986 0.057110794
-0.08679467 -0.03799502 -0.05103739 0.13069595 0.074799225 0.051277522 0.06694735 0.08250691
0.050871428 -0.028451664 -0.09883186 -0.017820718 -0.12059494 0.053020917 0.041926827 -0.029484972
-0.085327655 -0.0029767244 -0.09819332 -0.00089064497 -0.043298922 -0.086200036 0.019325387 -0.12484801
-0.11464107 0.056444697 -0.016695231 -0.119663894 0.020328969 -0.044026017 0.05700596 0.05329889
-0.033072647 -0.104092166 0.052678283 0.008584209 -0.07568809 0.1313198 0.07175373 0.12453754

post_sequence.1.bias f4 [4]
00000000: 5021 d0bc c907 213d b6f1 663d add0 bcbc
-0.02540651 0.039314065 0.056382857 -0.023048723

lstm.weight_ih_l0 f4 [504, 126]
00000000: 15fc ddbb 3815 6bbd 96c9 103c 2563 ae3d
00000010: 54d2 df3c 2523 a8bd 840e 373d b06e 3dbd
00000020: fa50 5b3d 23d9 ba3d 95af 3fbd 4a49 523c
00000030: 1ef9 a93c ba2f 58bc 0f9f dd3d 9190 9c3d
00000040: 316b 28bd 06df b23d 6cc6 3cbd a9ed 3fbd
00000050: be21 87bd 9317 1bbc aabe 9b3d 63e2 0dbd
00000060: 5c55 353d 265c a33d 6be9 07ba 7be5 593b
00000070: 2834 ac3d 33a6 3abd 9480 ce3c 0935 0a3b
00000080: c118 a33d e74a 533d 6c49 423d ad50 67bd
00000090: 188e bb3c a2f0 77bd ea23 cbbc c92b 65bc
000000a0: 7014 8dbd c1b5 863d 71b7 a63d d26f b23c
000000b0: 791b 913d bf70 9dbd bd6d e839 eeae 2cbd
000000c0: f675 59bd 74d2 aa3d 6c97 a2bd 75e9 75bd
000000d0: 6191 a3bd d533 d43c 92f9 9e3c b2f9 a33d
000000e0: c8ef 5a3d 6130 35bd e11a a43d 819c dcbb
000000f0: 499a 523d 40cd 143d b0cf 063d dea2 b13d
00000100: 0f06 46bd 10f0 80bc 570c cfbc 222d 43bd
00000110: 441e 0a3d 3ce9 e9bc 3903 9fbc 3023 33bd
00000120: 693f 97bd 0723 3a3d a22c 9f3d f1b5 7a3d
00000130: 2e55 a13d ddbc 8c3c 2e04 17bd deae f2bc
00000140: 2339 963d 9008 51bc ec6e 5dbd 70eb 243c
00000150: e818 e23d 0913 243d 60cd 1cbd b9d6 4cbd
00000160: a228 2d3d b678 a43c da7d 2c3d 65a8 843d
00000170: abea a53d 2491 58bd b129 9dbd b14b a73c
00000180: f173 253d 06d9 7bbd 7118 f1bc b024 a23c
00000190: 3b09 7c3d cbf1 61bc 3122 a4bd 87a8 703d
000001a0: 57f9 91bc 3226 813d c117 a23c 96a7 6e3d
000001b0: 5b2f bc3d 6688 45bc 1707 6bbb f684 39bb
000001c0: f031 b9bb 31ca 6d3d e9f8 b63d c202 c23c
000001d0: 0c19 89bd d0b6 e03c 078d 18bc 15b2 bc3d
000001e0: 020c 7d3d ba91 823d 3be4 853d fc58 25bd
000001f0: 88cc a53d ff48 a03d 5f79 43bb d005 723c
00000200: 062c 563d 36a0 c3bd c1bd 803d 552b 143d
00000210: 3a57 21bd 531d 7cbd ad46 adbd edd2 4b3d
00000220: 1d4b 9d3c 9f52 9abd 0dbc 923c 539f 83bc
00000230: 6d12 20bd 8604 af3d 8767 8f3c 588d 5fbc
00000240: c6d8 bebb 9f1f 5f3d a0aa e53a ad96 36bd
00000250: 21b7 633d 81b2 353d 1619 fa3c db7b 3bbd
00000260: de6e d3bc 4a99 fb3b 901d 363d 3348 3ebc
00000270: eae4 43bc 61b0 c4bd e08c 8f3d 3d29 893d
00000280: 750d 02bc fbf2 d8bc 8806 903d e162 02bc
00000290: aa97 97bc 45ba 393d e342 a3bd 86fa 9bbd
000002a0: 45d5 883c c879 643c e3aa 3abc 88a4 0cbc
000002b0: 6768 6e3d 24b7 8dbc 5ba9 4fbc 2d72 42bc
000002c0: c003 9ebd d78b 0c3d f8a7 db3b 1798 a43d
000002d0: f10b c43d bd75 17bd 8801 853d ef5c c9bc
000002e0: c30a b03c 0886 8e3d f08f 4dbc 420d a63d
000002f0: ac92 baba df8d 6dbd 7055 cbbd f336 4e3d
00000300: 0899 a9bc 4ab9 68bd 4139 9bbd 6268 3cbc
00000310: 5f54 1e3c 8936 95bd a178 373c 8378 663d
00000320: bda9 373d fb5a 1abd d692 b43d 7867 153b
00000330: 20b4 73bb 365a b23c 14bd 8b3d af9d 0bbd
00000340: df1a 3d3c 6cca 313d 60a4 4c3d 67c6 cdba
00000350: 0570 4a3c 63ed a63d 0840 91bc d13a b33d
00000360: 60ca 593d a297 9abd 02c5 593d fba0 43bd
00000370: 79cf dc3c a965 dcbb 4ba2 95bd 1314 b1bc
00000380: 8068 413c 1aad 653d 289e bebb 438f 9fbd
00000390: 8018 febc 73aa 283c 44e6 82bd 4e7c 1fbb
000003a0: f920 92bd e075 e3bb aa3b 4dbd 1d95 343c
000003b0: 336e b83d 930a 8ebd f9e9 263d 6547 8a3d
000003c0: fd9f d8ba e26c 8abd d8b1 183c 6594 9dbd
000003d0: f25c b53d f049 84bd 399c 87bd 1651 ae3d
000003e0: 30ab 11bd f342 9d3c 8afb 963d 13e5 93bd
000003f0: ce74 c73d 2873 e23c 597a c23c 205d abbc
-0.0067744353 -0.057393283 0.008837124 0.08515004 0.027321972 -0.08209828 0.044691578 -0.046248138
0.053544022 0.09123447 -0.046798307 0.012834856 0.020748671 -0.013194973 0.10821354 0.07644761
-0.04111785 0.087339446 -0.046087667 -0.04685751 -0.06598233 -0.00946607 0.07604726 -0.034639727
0.04427086 0.0797656 -0.00051846233 0.0033248353 0.084083855 -0.045568656 0.025207795 0.002108874
0.07963706 0.051585104 0.0474333 -0.056473423 0.022894904 -0.06053222 -0.024797399 -0.01398749
-0.06888664 0.065776356 0.081404574 0.021781836 0.07085318 -0.0768752 0.0004433225 -0.042159013
-0.053091012 0.08340922 -0.07939038 -0.060037095 -0.07986713 0.025903622 0.019406114 0.0800661
0.05345133 -0.04423559 0.08012939 -0.006732524 0.05141667 0.036328554 0.03291291 0.086736426
-0.04834562 -0.01573947 -0.025274439 -0.047650464 0.03372027 -0.028553598 -0.019410716 -0.04373473
-0.073851414 0.04544356 0.07772185 0.06120867 0.07877575 0.0171799 -0.03686922 -0.029624399
0.07335117 -0.012758389 -0.05406086 0.010065898 0.11039907 0.040057216 -0.0382818 -0.050009463
0.04227508 0.02007709 0.04211221 0.06477431 0.081014 -0.052872792 -0.07673968 0.020421835
0.040393773 -0.061486267 -0.0294306 0.019792885 0.06153224 -0.013790558 -0.08014334 0.05875447
-0.01781909 0.06306113 0.019786717 0.05826529 0.0918872 -0.012056446 -0.003586238 -0.002830801
-0.005651705 0.058054153 0.089341946 0.023682956 -0.066942304 0.027430922 -0.009310967 0.09213654
0.06177903 0.063754514 0.06537672 -0.040368065 0.08095652 0.07826423 -0.0029826981 0.014771894
0.052288078 -0.09552042 0.06286193 0.036174137 -0.039389826 -0.061551403 -0.08460746 0.0497617
0.019200856 -0.0753529 0.017911935 -0.016067183 -0.039080072 0.08545785 0.01750542 -0.013644539
-0.0058241813 0.054473516 0.0017522164 -0.04457729 0.055594567 0.044359688 0.03052954 -0.045772415
-0.025809702 0.0076781856 0.044461787 -0.011613893 -0.011956433 -0.09603954 0.07009292 0.06697319
-0.007937779 -0.02648305 0.07032496 -0.007958145 -0.018504936 0.045343656 -0.07971742 -0.07616143
0.016703257 0.013945051 -0.011393282 -0.008584149 0.058205035 -0.017299242 -0.012674655 -0.011868042
-0.07715559 0.03431305 0.006703373 0.08036821 0.0957259 -0.03697752 0.06494433 -0.024580447
0.021489507 0.06959158 -0.012546524 0.081079975 -0.0014234385 -0.057996627 -0.09928405 0.050345372
-0.020702854 -0.05681733 -0.0757928 -0.011499496 0.00966367 -0.072857924 0.011198194 0.056267273
0.04483961 -0.037684422 0.08817069 0.0022797268 -0.003718622 0.021771532 0.06823173 -0.034085926
0.011542051 0.043405935 0.049961448 -0.0015699387 0.012355809 0.08150747 -0.017730728 0.08751453
0.053171515 -0.07548453 0.053166397 -0.047760945 0.0269544 -0.006725986 -0.073063456 -0.021616017
0.0118047 0.056073286 -0.0058171935 -0.07790997 -0.031017542 0.0102945445 -0.06391576 -0.0024335566
-0.07135195 -0.006941542 -0.05010573 0.0110218795 0.09005394 -0.069356106 0.040750477 0.06751899
-0.0016527172 -0.06759049 0.009319745 -0.0769432 0.088556185 -0.06459415 -0.06621594 0.0851156
-0.035563648 0.019196963 0.07372196 -0.07221427 0.097390756 0.027642801 0.02373998 -0.020918429

lstm.weight_hh_l0 f4 [504, 126]
00000000: 5913 353d 762a 2f3d a8b2 0d3d 6297 92bd
00000010: 274a 84bd 9d57 bebb 1419 9e3d 73b6 a63d
00000020: 2cfb 9a3d ea7e 0d3b e30e febb 6d1f 03bd
00000030: 3fdc 28bc 9480 9ebc 06a0 6dbd a347 c2bd
00000040: 2437 913d c086 9cbd 41ec 863c e63d 3e3d
00000050: 382a 0ebd ad16 543b 47cb 563c 398d 7fbd
00000060: b3a9 b7bc d2fe 8b3d 5093 4abd 96c7 b1bd
00000070: 2729 8f3d 9696 8bbd 277a 133d 5bab ad3d
00000080: 90f2 dcbc e090 303d 5955 fabc a164 a6bd
00000090: 258f 83bd 294c 0dbd abe1 65bd ae2a a3bd
000000a0: c4a4 db3c 30c4 5ebd 2efc 303b cee1 c13d
000000b0: 1889 943d fd4a 98bd ec46 82bd 4d74 653d
000000c0: 4107 263c 2687 063d 9e65 bf3d af64 95bd
000000d0: b9c8 25bd 091e 5e3d 5397 b83c e03f aebd
000000e0: 7886 4fbd 0e43 8ebd 940b e5bc c0f8 233d
000000f0: 094f b43d 610e b9bd bb29 30bd 62e8 893a
00000100: a0ff c73c 9b0a 9a3d 2ff9 85bd 1200 96bc
00000110: d19b 9b3c 8ef3 26bd be2f 2c3d b43f 033d
00000120: 11d7 513d f637 adbc fb92 b7bd a6f9 8ebc
00000130: 00ff 233d d4f0 163c 069b bdbd 635b 97bb
00000140: 4dfe c9bd da71 72bd 6c19 66bd d08a 693d
00000150: a23e 363d 47fb 733d 6445 f63c b062 943b
00000160: 2150 3a3b 307d 653d 0389 b83c f408 dbbc
00000170: 3629 913d feac 8c3d d704 52bd c34f 23bd
00000180: b03e 723d f01f 8abd 8bd4 d63d 623f 613c
00000190: cc45 82bd 4d7e 98bc 1c97 903c cb4f 0c3d
000001a0: fdf2 f43c a84c 5f3c 35ed a7bb c7ef febc
000001b0: b223 b8bb 8257 21bd 0a24 ffbc 5adb 91bb
000001c0: 736e 403d 6bc7 fc3c 4a5f 2fb9 1457 d33c
000001d0: 2bd1 653d 45b6 c0bd 2c14 15bc 0ff6 6abd
000001e0: 0b45 9a3d 8f90 cb3c 7950 a0bd 7321 043d
000001f0: 6bc2 51bd 1082 a6bd 9b04 e73c b5a8 983d
00000200: c66f 7d3c 821b 1f3d d43e acbc 2385 b4bd
00000210: 32ee c3bc 54a1 633d c0d2 323c 412f a5bd
00000220: e76a 49bc fb77 73bc bedb 3abd 062c 56bc
00000230: 014a 46bd 22c7 92bd 7466 f53b b705 92bd
00000240: a9de 5ebd 0267 d4bc 9651 8e3d 7b3a 303d
00000250: 1f73 babc 6e6d 84bd 27de 47bc 5cd9 72bd
00000260: 0677 3bbb cedf 893c 13ac b6bd 3ec4 6fbb
00000270: 1d78 40bd 526f 27bc 212c 0d3d 2e25 abbd
00000280: f06a 6abd bab7 b33d 3563 223d 39ec 243d
00000290: 07b4 fabc 7a3e 32bd a71c a0bc 7e9e 04bd
000002a0: 2f64 d33c 8e6e a03d b64b b03d 9221 a73d
000002b0: d819 98bd 1f2f ad3d a047 e0bc e428 0b3d
000002c0: 11d9 bd3c 62c3 b5bd eb84 55bd 5b1e 6ebc
000002d0: 0d12 14bd 5961 92bc 9390 5fbd 53d5 8e3d
000002e0: 462b a4bd 79bc 6f3d 7d22 81bd a38c 60bd
000002f0: bd96 c53c 389b 993d 08ad 75bd dba4 533d
00000300: f46a 7d3d e0a8 f13b bd25 85bd a77a 1dbd
00000310: c9b6 3d3d 9e1c 023d ddc1 0fbd 3791 3cbd
00000320: 8cbb 5c3d ffb6 583c e794 89bd 4858 87bd
00000330: 69fb 4b3d 1531 9cbd d20d 503d 28db 82bd
00000340: 0e8d 67bc 570c 94bb 59ee 163d f06d b73d
00000350: 6beb 003d d8f2 0fbc 54ce 13bd b232 10bc
00000360: ec67 3abd 990c b4bd 67cd 1c3d fd65 183d
00000370: fbf4 0abd 3b40 8f3d 53c8 6cbc d028 483d
00000380: de02 9fbd d312 10bd 6533 03bc 00c9 f63c
00000390: 8cd2 6d3c e491 94bd b67d 913d 79b5 383d
000003a0: c934 b9bd 8bc3 5c3d f836 a33d 9a3d 803d
000003b0: a858 213c 951c 003d 4027 c8bd 4676 2f3c
000003c0: 5324 a2bd 0303 7a3d 197f 893b da22 95bd
000003d0: 5c72 533d 5187 e0bc 12a4 d53d ce14 a33d
000003e0: 95c7 73bc fb0d 943d a32b 8b3d 6d35 7e3d
000003f0: 26df 333d b4cf 79bd 1365 56bc 7740 a9bd
0.044207904 0.042765103 0.034594208 -0.0715778 -0.06459456 -0.005808784 0.07719627 0.08140268
0.075674385 0.002159054 -0.0077532395 -0.03201239 -0.010306417 -0.01934842 -0.05801394 -0.0948632
0.07090595 -0.07642889 0.016470077 0.04644575 -0.03470823 0.0032362149 0.0131099885 -0.06239054
-0.022419786 0.068357125 -0.049456894 -0.08680646 0.06990271 -0.06815831 0.036005165 0.08479949
-0.026971132 0.043106914 -0.030558275 -0.08124662 -0.06423787 -0.03449646 -0.056123417 -0.07967125
0.026811965 -0.054386318 0.002700578 0.09466897 0.07252711 -0.07436178 -0.063611835 0.056019116
0.010133565 0.03284373 0.09345554 -0.072945945 -0.040474627 0.054227863 0.022533095 -0.08508277
-0.05066535 -0.069463834 -0.027959622 0.04003215 0.08804137 -0.09035946 -0.043008547 0.0010521526
0.024413884 0.07521554 -0.065416686 -0.01831058 0.018995197 -0.040759616 0.042037718 0.032043174
0.051230494 -0.021144848 -0.08963581 -0.017453026 0.04003811 0.009212691 -0.09258084 -0.0046190484
-0.09862957 -0.05919061 -0.056176588 0.057017148 0.044493325 0.05956581 0.030062385 0.004528366
0.0028429108 0.05602759 0.02252627 -0.026737668 0.070879385 0.06868933 -0.051274147 -0.03987099
0.059141815 -0.06744373 0.10489758 0.013748022 -0.06360969 -0.018614912 0.01765018 0.034255784
0.029901022 0.013629116 -0.005124713 -0.031120194 -0.0056194896 -0.039390095 -0.031145114 -0.0044511976
0.046980333 0.030856809 -0.00016724798 0.025798358 0.05610768 -0.09409765 -0.009099048 -0.057363566
0.075327 0.024849204 -0.07827849 0.032258462 -0.051210802 -0.08130276 0.028200438 0.07454053
0.015468543 0.038844593 -0.021026053 -0.08814456 -0.023917291 0.055573776 0.0109145045 -0.080656536
-0.012293554 -0.014860149 -0.04561972 -0.013072019 -0.04841042 -0.07166888 0.00748902 -0.07129996
-0.054411564 -0.025928024 0.06949155 0.04302452 -0.022759972 -0.064661846 -0.012198961 -0.05928932
-0.002860488 0.016830351 -0.08919539 -0.0036585475 -0.04698955 -0.010219412 0.034465913 -0.08356701
-0.05723089 0.087752774 0.039645392 0.040264342 -0.030603422 -0.043516614 -0.019544913 -0.032377712
0.025804607 0.07833587 0.08608191 0.081607 -0.07426804 0.08456253 -0.027377903 0.033974543
0.023174794 -0.08875157 -0.052128714 -0.0145336045 -0.036150027 -0.017868685 -0.054581236 0.06974282
-0.08016066 0.05852935 -0.06305406 -0.05482162 0.02411973 0.07500309 -0.05997947 0.05167089
0.061869577 0.007374868 -0.06501339 -0.03844705 0.046316896 0.031765573 -0.03509699 -0.046036925
0.053889796 0.013227223 -0.06717854 -0.06608635 0.04980031 -0.07626549 0.05079443 -0.06389457
-0.014132751 -0.0045180726 0.0368484 0.08956516 0.031474512 -0.008785926 -0.03608544 -0.008801149
-0.045509264 -0.08791465 0.038281824 0.03720664 -0.033925038 0.06994673 -0.014452058 0.048867047
-0.07764219 -0.035174202 -0.008007859 0.030125141 0.01451553 -0.07254389 0.071040556 0.04509494
-0.09043271 0.05389742 0.07969469 0.062617496 0.009847797 0.031277258 -0.09773111 0.010709351
-0.079170845 0.06103803 0.0041960594 -0.07282038 0.051622733 -0.027408274 0.104316846 0.079629526
-0.014879127 0.07229229 0.067954324 0.06206267 0.043913983 -0.060989097 -0.013085621 -0.08264249

lstm.bias_ih_l0 f4 [504]
00000000: e52e 4e3d e609 7cbd 98aa 7b3d 73c7 ffbb
00000010: e4bb a5bc 3849 173c 0e29 823d dd4d acbc
00000020: c01b 303d 22e8 53bd 380f 273d 4d89 0ebd
00000030: 430f 87bc 76fb a73d 2ee7 063d 9a17 27bc
00000040: f9e1 073d 364a 9d3d b138 adbd abd8 703d
00000050: 73e7 9fbd 5539 9dbc 3535 3abd 37b1 973d
00000060: a485 f33b b04d 863c 76a6 233d ea95 ac3c
00000070: 1e98 22bd 6b1d b83d a964 9fbc 0332 ec3c
00000080: 6b34 b53d 1f47 84bd a204 0ebb 27d2 ae3d
00000090: 7d51 613d 24d7 993d 8667 723d ec82 053d
000000a0: 2d11 32bd 1273 32bc 8f5a 84bd 7888 4e3d
000000b0: 85c0 c43c f5bb 923d d5e1 9f3d f5f9 383d
000000c0: 2cce 85bd c68b e73c 8e71 c0bc 20c7 bc3b
000000d0: 3e39 b0bc 4261 cc3b a819 8a3d 512f 56bd
000000e0: 3fe2 083d aa51 be3d df75 ce3c da02 203d
000000f0: 5344 613c 17ef dd3c 9143 47bd 4acf c23c
00000100: 9d51 183d 54b6 76bd fd00 1a3d 2e5c 093d
00000110: 7fdc 14bd 750d 873c 7e88 133d 33a9 29bd
00000120: b399 d8bc 3d37 34bd 5932 943d 54c5 a1bd
00000130: 9e2b 893d 33ae 60bc 3c49 093d e537 88bd
00000140: 02c4 82bd a7fc 4abd 8cca 1dbb 63e8 3cbd
00000150: df55 f4bc a828 3a3c 560f 94bb e1ba 813d
00000160: 9c0b cb3d 5f9d cc3c 0302 023d ff99 943d
00000170: a063 883d 13ee 84bc f737 9d3d 591a 293d
00000180: 99ed a7b9 b822 4d3d 5b78 2a3d c24b 763c
00000190: 0686 83bd 8001 d53d 97f3 0ebd 67c8 433d
000001a0: 3895 5e3d 91b7 4dbd 338a a2bd e26f 1b3c
000001b0: aa84 98bc db6b f8bb e1b6 d339 fb82 b4bd
000001c0: 4064 1cbd 9285 0d3d 4578 61bd 8abf 9b3d
000001d0: 0d23 433c b997 9d3d a47b aa3c a18f 9b3d
000001e0: f5bb 6a3c 8e2b b43d ac8a 223d df81 023d
000001f0: 99f9 a43d 9fe3 bc3c 1907 abbc a44a 2fbd
00000200: 92ed df3b 60e2 db3c a8f3 983c ee1e 723c
00000210: 6193 fe3b 7c15 d73d 713d 683c 6fa9 173d
00000220: b585 b33d f1a2 02bd 842d 56bd 675e 4abd
00000230: 01fa 983b 3cc9 97bc e7d3 21bd 6f7a 353c
00000240: 6584 0cbc b3dc 3a3d 3ad4 923d b832 a13d
00000250: 4102 b03b 53cc a63d 01c7 89bd a457 b43d
00000260: 95ef 983c a61e 97bd 27d9 853d 11d8 a13c
00000270: 1300 a23b b5b3 bf3c 2575 a03d c743 a7bc
00000280: b014 82bd ebf7 8b3d c011 9a3d 6fb7 2d3d
00000290: 6784 60bd 3a7e 613d b750 4cbd b387 6d3d
000002a0: 5eed 39bd 4fc1 74bd aa4a 5dbd bbd4 67bb
000002b0: 776b 983d 9bb8 e8bc a31a 8c3d dc56 c03c
000002c0: d196 853d 9e54 ac3d 0c2f 763c df3f 233d
000002d0: ea40 e93d ac63 743c a1ee 84bd 1a24 793c
000002e0: 6520 c5bc e12c dcbc 416a a13d 647b af3c
000002f0: 2653 383d 67dc 8f3d d4c4 d33c fc46 95bd
00000300: 36c5 753d 57eb 033d e990 4f3d e9b8 12bd
00000310: 7c91 473d 998a 4b3c 37d7 a83b 9c20 4f3c
00000320: b592 ac3d 193d 123c 7ff7 a33d f201 a43d
00000330: c569 a03d 36ac 8fbd 8d3b 85bd 3614 933d
00000340: 7728 d33d 478d 82bd 4da9 afba 1124 ae3c
00000350: a20e b73d 37ac 653d 2196 ca3c 9951 cb3c
00000360: 49d3 983d 355c 883d 062b 2ebd 0f58 f93c
00000370: d725 49bd 8f4e a33d 9dcf a9bd 990f ae3d
00000380: f549 ac3d 73e9 c13d 13bf 023d ed66 12bc
00000390: 8ec5 4ebd b721 673b 3b9a 883d 0d68 cdbc
000003a0: 38c5 38bc be7b d93c b2bf d1bc 6aba 953d
000003b0: 6aab 07bd 096a 843d 2de4 933d b859 8a3c
000003c0: 54da 8cbc 10cb 6dbd 3d1e 3abd 3ea0 a1bd
000003d0: 4ad6 0c3e 4ce0 1c3d 5731 993d 6880 dcbc
000003e0: 9a35 6b3d 1e1a 803d 4c31 173c 6869 a2bd
000003f0: 3bab b13d 1f88 59bd 1f66 73bd 726d 243a
0.05033769 -0.061532877 0.061441988 -0.0078057586 -0.020231195 0.009233765 0.06355487 -0.021033222
0.042995214 -0.05173505 0.040785998 -0.03479891 -0.01648677 0.08202259 0.032935314 -0.010198498
0.03317449 0.0768017 -0.08458079 0.05880038 -0.07807817 -0.019192377 -0.0454609 0.07406848
0.0074317027 0.016394466 0.03995367 0.021067578 -0.03969585 0.08989986 -0.019457178 0.028832441
0.088478886 -0.06458878 -0.0021670242 0.08536177 0.055009354 0.07511738 0.05918076 0.03259556
-0.04347341 -0.010891693 -0.06462585 0.050423115 0.024017582 0.07164756 0.07806746 0.045160253
-0.06533465 0.028264891 -0.023491647 0.0057610422 -0.02151167 0.00623718 0.06743175 -0.05229122
0.03341889 0.0929292 0.02520269 0.03906522 0.0137492 0.027091546 -0.04864842 0.023780484
0.037187207 -0.060232475 0.0375986 0.033535175 -0.036343094 0.016485909 0.03601884 -0.041421127
-0.026440477 -0.04399799 0.072361656 -0.078989655 0.066977724 -0.013713407 0.033517107 -0.06651286
-0.06385042 -0.049557354 -0.0024077026 -0.04612006 -0.029826103 0.011362232 -0.0045184297 0.063344724
0.09914324 0.024977384 0.0317402 0.07255935 0.06659627 -0.016226804 0.0767669 0.041284893
-0.00032029746 0.05008194 0.041618686 0.0150327105 -0.06422047 0.10400677 -0.034900274 0.04779854
0.054341525 -0.05022389 -0.07936516 0.009487124 -0.018617947 -0.0075812167 0.00040381312 -0.08814045
-0.038181543 0.03455121 -0.05504634 0.076048926 0.011910212 0.076949544 0.02081091 0.075957544
0.014327039 0.0879737 0.03968303 0.031862136 0.080554195 0.023057757 -0.020877408 -0.042795792
0.0068337405 0.026841342 0.018670872 0.014777882 0.007769034 0.10502145 0.014174805 0.03702682
0.08765737 -0.031893674 -0.0522895 -0.049406435 0.0046684747 -0.018528573 -0.039508726 0.011076554
-0.008576487 0.04562063 0.07169385 0.07871002 0.0053713624 0.081444405 -0.0672741 0.088057786
0.01866893 -0.073788926 0.06535559 0.019756349 0.0049438565 0.02340112 0.078348435 -0.020418061
-0.06351602 0.06834396 0.07522917 0.042411264 -0.05481377 0.05505202 -0.049881663 0.05799074
-0.045392387 -0.059754666 -0.054026283 -0.00353746 0.07442372 -0.02840834 0.06841018 0.023478918
0.065229066 0.08414577 0.015025865 0.039855834 0.113893345 0.014916342 -0.06490827 0.015206361
-0.024063298 -0.026876869 0.078815944 0.021421142 0.04500117 0.0702446 0.02585069 -0.0728893
0.060002528 0.03220686 0.050675306 -0.035820875 0.04872273 0.012423181 0.0051526087 0.012642052
0.0842642 0.0089257 0.080061905 0.080081835 0.07832674 -0.070152685 -0.06505499 0.07181589
0.103104524 -0.06374603 -0.0013401896 0.021257432 0.08938338 0.05607244 0.02472979 0.024819182
0.074621744 0.06658212 -0.0425215 0.030437497 -0.049108353 0.07973968 -0.08291552 0.08499069
0.08412544 0.09468355 0.031920504 -0.008935672 -0.05048137 0.0035267898 0.06670042 -0.02507403
-0.011277489 0.026548263 -0.025604103 0.07310946 -0.033122458 0.06465537 0.072212555 0.016888484
-0.01719395 -0.058054984 -0.045438994 -0.07891892 0.1375362 0.038299844 0.07480114 -0.026916698
0.057424165 0.062549815 0.009228062 -0.07930261 0.08675238 -0.05310833 -0.059423562 0.0006272412

lstm.bias_hh_l0 f4 [504]
00000000: 6dcd f4ba 3f0b 34bb 29db 9abc 1ead e4bb
00000010: 247f 06bd fd0e c83d d817 9d3d 7553 e6bc
00000020: 4dc9 203d bfcf e5bc 522b 1e3d e09c b7bc
00000030: a205 9b3d 9b91 bbbd 02c0 af3d 3f2c a03c
00000040: 1f33 a2bc 0f6a 0d3d dfd8 05bd 56c2 33bd
00000050: d29b a63d 5bad d23d 60d4 813c 2481 253d
00000060: 5dba 143d 4d04 5abd eeaa 33bd de50 973d
00000070: b38d 8cbb 8e85 06bd e9ca 1b3d 73cd 833d
00000080: 11fd 83bd a129 ca3b be65 a03d 2565 423d
00000090: 34dd 293c 1d74 76bd 0354 81bd a295 81bd
000000a0: 26d3 3f3b c0bd 91bd 4952 1ebd f44c 9b3b
000000b0: ace7 12bd ed6b 6dbd d746 bd3c 5f80 8e3d
000000c0: 0aca 9c3d 051c 0ebd 2ce7 553d 9edc db3d
000000d0: 9184 7dbc ca47 50bd f45f 973d 8c25 b23d
000000e0: b163 1c3d 1319 d2ba 8ae2 2bbd a692 92bc
000000f0: 21f1 4cbc 43bb a2bd 511f b03d 6301 5d3b
00000100: 8c4d 36bd 488c 123d a979 cf3c dad0 f73b
00000110: 41b4 8ebc d3cc 92bd ab73 643d 78a2 9ab9
00000120: 50c1 ab3d 8aa0 51bd 4fa1 a93d cc33 9bbd
00000130: 5efc 1a3d a098 ae3d 1c96 8abd 5c88 b13d
00000140: fc4e 7a3b a400 2fbd 1efe 2d3c cd52 cd3c
00000150: af8e 383d fe0a b43d a230 033d 00ab 043d
00000160: 9c52 703d 9339 48bd f30a c63d 61fb 49bc
00000170: ed18 343d 81c4 2bbd 8bc5 383d 2522 5abb
00000180: 43f8 0dbd d595 93bd e29c 1fbd 8a7c 14bd
00000190: fbf6 983d 6e1b 923d c568 3e3d e1ee 423d
000001a0: c198 d4bc cf38 973d dcb3 4abd 2baa b73d
000001b0: 3da6 683d c0f9 16bd 4597 a23d 7ba0 a3bd
000001c0: efaf 20bd 4030 823d 9c45 1b3d 827c 1d3c
000001d0: c879 53bd 2912 113d b5be 0c3e ced5 893d
000001e0: 3a7d 9ab9 0bb2 a1bd 3579 f13c c849 b8bc
000001f0: d95c 26bd 111a d8bc 9794 bc3d 056b 9b3d
00000200: 1dd1 8ebc 15a7 003d 7552 7dbd 3495 be3d
00000210: 82cb b53d 5427 df3d f859 793d 33b3 d1bb
00000220: 50e8 af3d 2138 a1bd 4873 143d 85c4 a43d
00000230: 383e 7f3c f752 923c 2e4e 8dbc 8008 883c
00000240: 5b7c 58bd 022d af3d ddb4 4ebd 6d3b 863b
00000250: 6e18 bebc 9ca4 0bbc d207 bfbb a4a9 813d
00000260: 2d8a a4bb fb8a 903d 04bc cb3d b69b ae3c
00000270: f209 8a3d 519d debb 26ca 173d 85f3 91bc
00000280: 2164 56bd ad89 8fbd 7caf 5ebc e9fd 7fbd
00000290: 4f3e 53bc 5b14 963c 420e 3dbd d316 15bb
000002a0: da5b 563d 4a69 c4bb 322a 56bd b8a4 7bbd
000002b0: 49ca aebd d408 e2bb f8b8 203d bb90 b43c
000002c0: 01a3 743d ce6b 19bc a1b2 333c 4177 aabc
000002d0: bcba dd3d 3a1e 233d 708b aebd 944d 1ebd
000002e0: a064 633d 2122 673d de67 023d 2a88 773c
000002f0: 461b 693d 9dfb acbd c5f6 a33d bb7f 13bd
00000300: 1f9d 653d 5287 843d 3ec1 90bd 1553 4abd
00000310: 0ea2 85bd a9c2 f5bc 195a b63d e42f 92bd
00000320: 780e 713b 9464 9b3d 3b63 33bd ad6e 15bc
00000330: ba94 8bbc f827 013d c78b c93c 0501 8abd
00000340: 0f76 af3d f44a 8d3c e539 7ebd b789 f1bc
00000350: fd11 b93d dde0 8fbd 102c a33c 599b a3bb
00000360: c1cf 1cbc 1cb9 283d 3416 aabc 8d61 213d
00000370: fd2c 91bd 9125 223d f701 fd3c 579b 833d
00000380: 0afb 3dbc d7b0 a1bc 17d8 513d 47b8 cd3a
00000390: 1ad3 ba3d 2162 81bc 5f7f 863d 2721 8f3d
000003a0: cd8e 83bd e1b1 e1bc 3c3c 26bd 1d74 d53c
000003b0: 5fb2 ca3d d18e 49bc 7415 ae3d 7f05 cb3d
000003c0: 4b57 1b3d 28de d03c 26e6 25bd 5401 af3c
000003d0: abac d63d decc 1ebd 3816 b9bc 2273 613d
000003e0: 156f 843d e71a 143d fa7d 2d3d d753 8b3c
000003f0: d57f b4bd fa67 043d d2fd 3abd 4ef7 4fbd
-0.0018676944 -0.0027472524 -0.018903332 -0.006978645 -0.032836094 0.09768484 0.076705635 -0.028115967
0.039254475 -0.028053163 0.038615532 -0.022413671 0.07569434 -0.091586314 0.085815445 0.019552348
-0.019799767 0.034524973 -0.032677528 -0.043886505 0.08135189 0.10286971 0.015848339 0.04040636
0.036310542 -0.053226758 -0.043864183 0.07388471 -0.004289353 -0.03284221 0.038035307 0.06435671
-0.06444753 0.0061695133 0.07831906 0.04745974 0.01036768 -0.060169328 -0.06314852 -0.06327368
0.0029270141 -0.0711627 -0.038652692 0.004739398 -0.03586547 -0.057964254 0.023105068 0.069580786
0.076557234 -0.03469469 0.052222416 0.10735439 -0.015473501 -0.050849713 0.073913485 0.08698568
0.03818101 -0.0016029201 -0.04196409 -0.017892193 -0.0125086615 -0.079458736 0.08599723 0.003372275
-0.04450755 0.035778314 0.025326567 0.007562739 -0.017419936 -0.07167973 0.055774372 -0.00029494218
0.08386481 -0.051178493 0.0828272 -0.07578239 0.037838332 0.08525205 -0.06766912 0.086685866
0.003819405 -0.04272522 0.010619668 0.025063897 0.04505795 0.08791159 0.0320288 0.03238964
0.058672532 -0.048883032 0.09670057 -0.012328 0.043969084 -0.041935448 0.045110267 -0.0033284512
-0.03466059 -0.072063126 -0.038967974 -0.036251582 0.07468983 0.07134138 0.046486635 0.047591094
-0.025951745 0.07383882 -0.049487934 0.08968004 0.056799162 -0.036859274 0.079390086 -0.079895936
-0.039230283 0.06356859 0.03790818 0.0096122045 -0.05162981 0.03541771 0.13744624 0.06730233
-0.0002946647 -0.07895287 0.029476741 -0.02249612 -0.04061589 -0.026379617 0.09208029 0.07588772
-0.017433697 0.03140934 -0.061846215 0.09305802 0.08876707 0.10896173 0.060876817 -0.006399536
0.08589232 -0.07872034 0.036242753 0.080452956 0.015578799 0.017861826 -0.017249193 0.016605616
-0.05285297 0.085535064 -0.050465453 0.0040964396 -0.023205008 -0.008523133 -0.0058297897 0.063311845
-0.0050213546 0.070577584 0.099479705 0.021314483 0.06740178 -0.006793656 0.03705802 -0.017816314
-0.052341584 -0.070086814 -0.013591643 -0.062498007 -0.0128932735 0.018320253 -0.046156175 -0.00227492
0.05233369 -0.0059939967 -0.052286334 -0.061436385 -0.085346766 -0.006898025 0.0392389 0.02204167
0.059725765 -0.009364082 0.010967881 -0.020808818 0.108266324 0.03982375 -0.08522689 -0.038648203
0.055515885 0.056429032 0.031837337 0.015108148 0.056910776 -0.08446429 0.08006052 -0.036010485
0.056058045 0.06471123 -0.07068108 -0.04939564 -0.0652505 -0.030000048 0.089039035 -0.07138041
0.0036782306 0.07587543 -0.043795805 -0.009120625 -0.017038692 0.031532258 0.024602784 -0.06738476
0.0856744 0.017247654 -0.06206693 -0.029484613 0.09036634 -0.07025311 0.019918472 -0.004992884
-0.009571017 0.04119216 -0.02076254 0.039399672 -0.07088659 0.039586607 0.030884726 0.06426113
-0.011595497 -0.019737644 0.05123147 0.0015695178 0.09122296 -0.015793862 0.06567263 0.06988745
-0.064237215 -0.02755064 -0.040584788 0.026056344 0.09897303 -0.0123021165 0.085001856 0.09913158
0.037925046 0.025496557 -0.04050269 0.021362938 0.104821526 -0.038769595 -0.022593603 0.05504144
0.064665 0.03615847 0.04235647 0.017007751 -0.088134445 0.032325722 -0.04565222 -0.050772958
